TSF/lightning_logs/version_0/checkpoints/epoch=4-step=250.ckpt (torch, 299828 bytes, 33 tensors)

model.param_proj.proj.0.weight f4 [1, 40]
0	0x3e473534	0.19453889
1	0x3d15b732	0.03655166
2	0x3d0f2f77	0.034957375
3	0xbeb80bbf	-0.35946462
4	0x3db9071b	0.090345584
5	0x3dd67c5e	0.1047294
6	0x3d8d817f	0.06909465
7	0xbe1fde4e	-0.15612146
8	0x3d18b4c1	0.037281755
9	0xbdc61248	-0.096714556
10	0xbe260c42	-0.16215613
11	0x3ddf355e	0.10898851
12	0x3e534120	0.20630312
13	0x3e3ed9d5	0.18637784
14	0xbdd29f06	-0.102842376
15	0x3e6285b0	0.2212131
16	0xbea3b87d	-0.3197669
17	0x3e39d664	0.1814819
18	0x3d081db7	0.033231463
19	0x3e861686	0.2618906
20	0xbd8d66b9	-0.069043584
21	0x3d3849f2	0.044992395
22	0x3cb0f242	0.021599893
23	0xbe73a5db	-0.23793738
24	0xbd463a7a	-0.04839561
25	0xbdcee931	-0.101030715
26	0x3e781f07	0.24230586
27	0x3e75aae5	0.23990972
28	0xbdd1edfa	-0.102504686
29	0x3e4742be	0.19459054
30	0xbe9fb83a	-0.3119524
31	0x3d837aab	0.064198814
32	0xbe80a3f5	-0.2512509
33	0xbe827bce	-0.2548508
34	0x3e169e51	0.1470883
35	0x3e9bf069	0.30456856
36	0x3c0bd017	0.008533499
37	0xbceb5f54	-0.02873198
38	0x3d6c05a7	0.057622578
39	0xbe1b31d6	-0.1515573

model.param_proj.proj.1.weight f4 [1, 40]
0	0xbe2596f5	-0.16170867
1	0x3dbc03f6	0.09180443
2	0x3d903f70	0.0704335
3	0x3c93e416	0.018053096
4	0x3e1fba37	0.15598379
5	0x3ac9c570	0.0015393924
6	0xbe32f580	-0.17476463
7	0xbe303a7e	-0.17209813
8	0x3db931a8	0.09042674
9	0xbe02abc0	-0.1276083
10	0xbde4f8a0	-0.11180234
11	0x3babc08b	0.005241459
12	0x3dd775df	0.10520529
13	0xbcbe23bb	-0.023210397
14	0x3d9f5b06	0.07781033
15	0x3d84965a	0.0647399
16	0xbd8bc067	-0.06823807
17	0x3d64eff2	0.055892892
18	0x3de80e32	0.113308325
19	0x3df13ca3	0.11779144
20	0x3e3c4abe	0.18387887
21	0xbdbaa66f	-0.09113776
22	0x3d1f2281	0.038851265
23	0x3d096302	0.033541687
24	0xbe0c9d94	-0.13731986
25	0xbe18aa1c	-0.14908642
26	0xbd60651a	-0.054783918
27	0x3da4be43	0.08044102
28	0x3a22147d	0.00061828626
29	0xbdf91af0	-0.12163341
30	0x3c53f46a	0.012936691
31	0x3dc8dc9d	0.09807704
32	0xbdda86ca	-0.1067024
33	0xbdc66629	-0.09687454
34	0x3e139299	0.14411391
35	0x3d8c9d3c	0.068659276
36	0xbd94ee01	-0.07271958
37	0xbdf9ecda	-0.12203379
38	0x3e39e843	0.18155007
39	0x3e393d2b	0.1808974

model.param_proj.proj.2.weight f4 [1, 40]
0	0xbde808e2	-0.11329819
1	0xbe51b7fe	-0.20480344
2	0x3de39bcd	0.11113701
3	0x3dba796b	0.0910519
4	0xbe5ddad1	-0.21665503
5	0xbd15f0f1	-0.036606733
6	0xbd8f0c88	-0.06984812
7	0x3bcaf6a6	0.0061939536
8	0xbcb06d99	-0.021536635
9	0x3e6e3973	0.23264103
10	0x3dabd401	0.08390046
11	0xbd97aa84	-0.0740557
12	0xbdf412b4	-0.1191763
13	0xbe3bdcd3	-0.18345957
14	0x3d449dbe	0.048001997
15	0xbe50ad2c	-0.2037856
16	0x3e342eb7	0.17595945
17	0x3dc35e7b	0.09539505
18	0x3dc7c81d	0.097549655
19	0xbdb2e734	-0.08735505
20	0x3db99cd1	0.090631135
21	0xbe0701b6	-0.13184246
22	0x3d32f71b	0.04369269
23	0x3dba54df	0.09098219
24	0x3d5a1d42	0.05325056
25	0x3dc95823	0.09831264
26	0xbe256c9f	-0.16154717
27	0xbd8c3598	-0.0684616
28	0xbd68871a	-0.056769468
29	0xbdf3792e	-0.118883476
30	0x3e1593fc	0.14607233
31	0xbe3d2291	-0.18470217
32	0x3dbb4723	0.091444276
33	0x3c9fb919	0.019497441
34	0xbe0acde0	-0.13555098
35	0x3bd180af	0.006393514
36	0xbe3aa1da	-0.18225804
37	0x3be2b6fe	0.006918787
38	0x3c1de2cc	0.009636592
39	0x3e0056cb	0.12533109

model.rnn.weight_ih_l0 f4 [160, 21]
0	0xbcef9cc1	-0.02924955
1	0x3e13e138	0.14441383
2	0xbcfb79dc	-0.030697756
3	0x3e2905b8	0.16506088
4	0xbe03b315	-0.12861283
5	0xbe09aa32	-0.1344383
6	0xbd485d6a	-0.04891721
7	0xbd9f9877	-0.07792752
8	0x3dd18c1c	0.10231802
9	0xbdb821e2	-0.08990838
10	0x3c94806b	0.01812764
11	0xbdde4bc6	-0.108542964
12	0xbcb39c35	-0.021925071
13	0x3e17d415	0.14826997
14	0x3d3839c8	0.04497698
15	0xbe2d32dc	-0.16913933
16	0x3e252099	0.16125716
17	0x3dbc6fa9	0.09200985
18	0xbd5162a1	-0.05111945
19	0xbbaf99c3	-0.005358906
20	0xbdf1203c	-0.11773726
21	0x3dbd8ab8	0.09254974
22	0x3e3e5f31	0.18591
23	0x3e1f0b9e	0.15531775
24	0x3d5a8f7b	0.05335949
25	0x3e748c12	0.23881558
26	0x3e0203e4	0.12696797
27	0x3e38c1e8	0.1804272
28	0xbcb75ece	-0.022384074
29	0xbd46b866	-0.0485157
30	0xbd9e4b57	-0.07729214
31	0xbd9a12bc	-0.075231045
32	0x3c72f423	0.014828715
33	0x3e36d043	0.17852883
34	0xbbdd4003	-0.0067520156
35	0x3cd10197	0.025513453
36	0x3dde7017	0.10861223
37	0x3dcbf754	0.099592835
38	0xbd98eb8d	-0.07466803
39	0x3e4c13dc	0.19929451
40	0x3db8d67c	0.09025285
41	0xbd51d882	-0.05123187
42	0x3d3f240d	0.04666524
43	0xbdc52cfc	-0.09627721
44	0xbc2d9f1d	-0.010597018
45	0xbe13cb54	-0.14433032
46	0x3c4d50a5	0.012531434
47	0xbdff988a	-0.124802664
48	0xbda9ba72	-0.08287515
49	0x3e45bdc3	0.1931067
50	0x3d9fbb82	0.07799436
51	0x3e11fb15	0.14255936
52	0xbd4ace39	-0.049513076
53	0x3d083a0d	0.033258487
54	0xbe178d5e	-0.14800021
55	0x3dc000bb	0.09375139
56	0xbda1ba06	-0.07896809
57	0xbddfe02f	-0.109314315
58	0xbd8dedd4	-0.06930128
59	0xbdaa2ad4	-0.0830895
60	0xbdaaf27e	-0.08347033
61	0xbd8a1154	-0.06741586
62	0x3d3e4e14	0.04646118
63	0x3d58e1f5	0.052949864
64	0x3e2e70d1	0.17035224
65	0x3cf04807	0.02933122
66	0xbc456f0e	-0.012050403
67	0xbdd14e86	-0.10220055
68	0x3d9be6d8	0.07612389
69	0xbd9242e8	-0.071416676
70	0xbd183a60	-0.037165046
71	0x3dcf0be9	0.101096936
72	0x3dfa0280	0.12207508
73	0x3deb6348	0.11493546
74	0xbd4b4938	-0.049630374
75	0xbd9d9714	-0.076948315
76	0x3d1047bf	0.035224672
77	0x3dcf8fbd	0.10134838
78	0x3c5c9438	0.0134630725
79	0x3c91bf7d	0.017791504
80	0xbca1b02e	-0.01973733
81	0x3d0580ff	0.032593723
82	0xbe451da7	-0.19249593
83	0x3e276b6f	0.16349576
84	0x3e50fc52	0.20408753
85	0x3daf11ad	0.08548293
86	0x3de12857	0.10994022
87	0x3e288af4	0.16459256
88	0x3d7da777	0.061927285
89	0x3e357f6f	0.17724393
90	0xbc74bd23	-0.014937672
91	0x3d4ecf33	0.05049057
92	0x3cf34a36	0.029698472
93	0x3de8e4b3	0.11371746
94	0x3ceb4598	0.028719708
95	0x3d4eca8e	0.05048614
96	0x3e20302f	0.1564338
97	0x3dabe747	0.08393722
98	0x3e47884a	0.19485584
99	0xbbd6f9d6	-0.0065605445
100	0x3e0cf245	0.13764293
101	0xbdfd071d	-0.123548724
102	0x3e5482a9	0.20752968
103	0xbd8a026c	-0.06738743
104	0x3e1e3711	0.15450694
105	0x3d6b0e5d	0.057386745
106	0x3dea9437	0.11454051
107	0x3dbf55c9	0.09342534
108	0x3e02c7f4	0.12771589
109	0x3e323ea3	0.17406707
110	0x3dfeee8f	0.12447845
111	0x3bd3dbf6	0.0064654304
112	0x3cdb3c7a	0.026762236
113	0x3d85019b	0.06494447
114	0x3e2c101d	0.16803022
115	0xbd2fdc0b	-0.04293446
116	0x3e19fa80	0.15036964
117	0x3df602be	0.12012242
118	0xbdaf6183	-0.08563521
119	0x3e1922ef	0.14954732
120	0x3e3895fa	0.18025962
121	0x3e1d980e	0.15390036
122	0x3d86e3ec	0.065864414
123	0x3cb51c6d	0.022108281
124	0xbe4bafc2	-0.19891265
125	0xbda96c57	-0.08272617
126	0x3baf3aea	0.0053475993
127	0x3c7e69f6	0.015528193
128	0x3d6be87e	0.05759477
129	0x3cd9ae81	0.026572468
130	0xbbf4a0e5	-0.007465469
131	0xbe214902	-0.15750507
132	0x3d9c46fb	0.07630726
133	0x3de6304d	0.112396814
134	0x3e2248ef	0.15848134
135	0xbbea8c35	-0.0071578273
136	0xbe1f91bd	-0.15582938
137	0x3c45066b	0.012025456
138	0xbe18354f	-0.14864086
139	0xbbf68738	-0.0075234435
140	0x39899dce	0.0002624825
141	0xbdd6a79d	-0.104811884
142	0x3de80fb4	0.1133112
143	0x3aa74694	0.0012762123
144	0xbd386d26	-0.045025967
145	0xbe9f10fa	-0.3106764
146	0xbc5f0155	-0.013611157
147	0x3e6a55af	0.22884248
148	0x3d32071a	0.043463804
149	0x3e15fd0d	0.14647312
150	0xbdc20587	-0.094737105
151	0x3e23a8c0	0.15982342
152	0xbcb9e2be	-0.022691127
153	0xbdc7cab5	-0.0975546
154	0x3e19c57c	0.1501674
155	0x3cfd6ebb	0.03093659
156	0x3e50a114	0.20373946
157	0xbd344f14	-0.044020727
158	0x3d829389	0.06375796
159	0xbd3fe270	-0.046846807
160	0xbd9b5b68	-0.07585794
161	0x3e1a811f	0.15088318
162	0xbd31c2ad	-0.043398548
163	0x3e216319	0.15760459
164	0xbdc3ebb6	-0.09566443
165	0x3e43d924	0.19125801
166	0xbc33dcc8	-0.010977931
167	0x3e30f716	0.17281756
168	0x3e3a7269	0.18207707
169	0x3e5284ec	0.20558518
170	0x3de6de82	0.11272909
171	0xbce614e4	-0.028086133
172	0x3d6c5e04	0.057706848
173	0x3e6b1570	0.22957397
174	0xbc3ca958	-0.011514984
175	0x3df8d29c	0.121495456
176	0xbc76b0f8	-0.015056841
177	0x3d0e80ee	0.034790926
178	0x3d705eab	0.058684032
179	0x3bb93d7c	0.0056530815
180	0x3e79d38f	0.2439711
181	0x3d1c2459	0.0381206
182	0xbaad8458	-0.0013238294
183	0x3e2d48c9	0.16922297
184	0x3d89c275	0.06726543
185	0x3d134695	0.035955984
186	0x3e4d27d1	0.2003472
187	0x3e1f15b0	0.15535617
188	0xbd28eb7f	-0.04124021
189	0x3e14dd1f	0.14537476
190	0xbd1baee3	-0.03800858
191	0x3d447139	0.04795954
192	0x3d652b4e	0.0559495
193	0x3e52922d	0.20563574
194	0x3d6d29ec	0.057901308
195	0xbd726129	-0.05917469
196	0x3d40625c	0.046968803
197	0x3d1d997e	0.03847646
198	0xbd61d58f	-0.055135306
199	0x3e735e7c	0.23766512
200	0x3d8e429a	0.06946297
201	0x3d831614	0.064006954
202	0x3e3ad338	0.18244636
203	0x3e523f95	0.20532067
204	0xbd978713	-0.0739881
205	0x3d81f41d	0.06345389
206	0xbc1ab16b	-0.009441714
207	0x377a99f2	1.4937004e-05
208	0x3bf102f0	0.0073550865
209	0xbd661392	-0.056171007
210	0x3e1d3cea	0.15355268
211	0x3de7da88	0.113209784
212	0xbdc77508	-0.09739119
213	0xbddcda5a	-0.10783835
214	0x3e02dde4	0.12779957
215	0xbceb6bab	-0.028737864
216	0xbd72db63	-0.059291255
217	0x3e5d7ad7	0.21628891
218	0x3d08322c	0.033250973
219	0x3db88b99	0.09011001
220	0x3e367792	0.1781905
221	0x396fb646	0.00022860718
222	0xbdf3dbd2	-0.11907162
223	0xbdfdd30b	-0.12393769
224	0x3e05c187	0.13062106
225	0x3cd6bdf6	0.026213627
226	0xbd313e82	-0.043272503
227	0xbdd0933b	-0.10184332
228	0x3e1772c4	0.14789873
229	0xbe7e70bd	-0.24847694
230	0x3e185fb3	0.14880256
231	0xbcc394c9	-0.023874657
232	0x3e44d6c3	0.1922255
233	0x3e42623c	0.18982786
234	0x3e35fa9a	0.17771378
235	0x3e1da79b	0.15395968
236	0x3cc35c9e	0.023847874
237	0x3ddd3513	0.10801139
238	0x3dd12135	0.10211412
239	0x3d820257	0.063481025
240	0x3e067ab4	0.13132745
241	0x3e82b59c	0.25529182
242	0xbd0d66f6	-0.03452202
243	0x3d49040a	0.049076118
244	0xbc24a5bf	-0.010049283
245	0x3e28c718	0.16482198
246	0xbd9a4a53	-0.075337075
247	0xbc8ea22b	-0.017411312
248	0x3dcbe311	0.09955419
249	0x3ca64770	0.020297736
250	0xbd943909	-0.07237441
251	0x3e0266b3	0.12734489
252	0x3db89967	0.09013634
253	0x3e4f42bc	0.20240301
254	0x3e51a03e	0.20471284
255	0x3e15f60b	0.14644639

model.rnn.weight_hh_l0 f4 [160, 40]
0	0xbe86bebc	-0.26317394
1	0xbd28aea3	-0.04118217
2	0x3de1f646	0.11033301
3	0x3dd6624b	0.10467967
4	0x3dc4c619	0.09608097
5	0x3e1dae25	0.15398462
6	0xbe2e5d50	-0.17027783
7	0x3d49bb7d	0.04925107
8	0xbdc17e5c	-0.09447929
9	0x3bf2bda9	0.007407863
10	0x3e0cfe61	0.13768913
11	0xbdd5a7fa	-0.104324296
12	0x3d0e1694	0.0346895
13	0x3dd2ea23	0.10298564
14	0xbd142437	-0.03616735
15	0x3da1d346	0.07901625
16	0x3de027c3	0.10945084
17	0xbd8e6747	-0.06953292
18	0x3da9e72a	0.08296044
19	0x3c9d7420	0.019220412
20	0xbe46a3ae	-0.19398376
21	0xbd5029de	-0.050821178
22	0x3e2ead6e	0.17058346
23	0xbd6f0efb	-0.058363896
24	0xbd59fb04	-0.053217903
25	0xbd919b48	-0.07109696
26	0xbd527c25	-0.051387925
27	0x3d3d6796	0.046241365
28	0x3e452e19	0.19255866
29	0x3e36d297	0.17853771
30	0x3cc5ad5f	0.024130521
31	0x3d0cba3e	0.034357302
32	0x3d0d80bf	0.03454661
33	0xbdcdb4d9	-0.100442596
34	0x3dcd37c1	0.100204
35	0xbdf77b38	-0.12084049
36	0x3dd75a23	0.10515239
37	0xbdbc2a2b	-0.091877304
38	0xbdf12946	-0.117754504
39	0x3caa106d	0.020759786
40	0x3ced444e	0.028963234
41	0x3e75cc71	0.2400377
42	0xbe224b48	-0.1584903
43	0xbcf682c0	-0.030091643
44	0xbdf1845d	-0.117928244
45	0xbdd64963	-0.10463216
46	0x3d8786f0	0.06617534
47	0x3dec83be	0.11548565
48	0xbd988585	-0.07447342
49	0x3d26bd83	0.040708076
50	0xbdd97c86	-0.10619454
51	0xbda0b3aa	-0.07846768
52	0xbd9254e9	-0.071451016
53	0xbe0f51a9	-0.13995995
54	0xbdb27208	-0.08713156
55	0x3e08fa77	0.13376795
56	0xbe0bfc4a	-0.1367046
57	0xbc7f7b03	-0.015593293
58	0x3dcc9dbf	0.09991025
59	0xbde4d07d	-0.111725785
60	0xbe79c75f	-0.2439246
61	0x3dcd7f4a	0.10034044
62	0xbdab6469	-0.08368761
63	0xbe0292d1	-0.12751319
64	0xbd6764d0	-0.056492627
65	0xbd3a0ade	-0.04542052
66	0xbe2ab487	-0.16670428
67	0x3d24b7f0	0.04021448
68	0xbe09306b	-0.13397376
69	0x3d79694e	0.060891442
70	0xbe3a7b18	-0.18211019
71	0x3dba25e4	0.09089258
72	0xbe01caac	-0.1267497
73	0xbdbe574b	-0.092939936
74	0x3de8e72b	0.11372217
75	0xbdc7c1ba	-0.09753747
76	0x3df4addb	0.11947223
77	0xbd88a329	-0.06671745
78	0x3e182fe9	0.14862026
79	0x3dd85197	0.10562437
80	0xbe1c7587	-0.15279208
81	0x3d95ffbe	0.073241696
82	0xbe0486fd	-0.12942119
83	0x3e00952e	0.12556908
84	0x3d4a35d5	0.049367744
85	0xbde1ef26	-0.11031942
86	0xbe2e5b27	-0.1702696
87	0x3d396e7f	0.045271393
88	0x3a5b0b09	0.00083558314
89	0xbdad7d76	-0.084711954
90	0x3e1f2fce	0.1554558
91	0xbe189df5	-0.14904006
92	0xbdf3b53e	-0.118998036
93	0xbddab5a3	-0.10679176
94	0xbe109d7f	-0.1412258
95	0x3db7054c	0.08936557
96	0x3b455ca8	0.0030115042
97	0x3d99a082	0.075013176
98	0x3e10e249	0.14148821
99	0xbc1e4c03	-0.009661677
100	0xbd18b806	-0.037284873
101	0xbdaf1271	-0.08548439
102	0xbd62323e	-0.055223696
103	0x3e1637ba	0.14669695
104	0x3dfa30c9	0.12216336
105	0x3c5d64e3	0.013512823
106	0xbd6e3084	-0.058151737
107	0x3ca5178e	0.020152833
108	0x3ddfb0d4	0.10922399
109	0xbe26fdd6	-0.16307768
110	0x3e06bcbc	0.13157934
111	0x3e070df0	0.1318891
112	0xbe180736	-0.14846501
113	0xbcb6c9bb	-0.02231299
114	0xbd5687e6	-0.052375697
115	0xbd3d7fea	-0.046264566
116	0x3da58617	0.08082216
117	0xbe21e399	-0.15809478
118	0x3dd5a070	0.10430992
119	0x3d823413	0.063575886
120	0xbe16349f	-0.14668511
121	0xbe109c87	-0.1412221
122	0xbca29ed3	-0.019851124
123	0xbd1b81b7	-0.037965503
124	0x3ce69562	0.028147403
125	0x3ddd222a	0.10797532
126	0xbe1b64fc	-0.15175241
127	0xbda91218	-0.08255404
128	0x3e070c2a	0.13188234
129	0xbd1e2785	-0.038611908
130	0xbe07b7b8	-0.13253677
131	0x3d90b9c5	0.07066683
132	0x3d15af4c	0.03654413
133	0xbdf2a1bc	-0.11847255
134	0x3d8cd141	0.068758495
135	0xbc7964eb	-0.015221815
136	0xbd616942	-0.055032022
137	0xbb929996	-0.0044738753
138	0x3dc34bb1	0.09535921
139	0xbc5dad81	-0.013530136
140	0xbdc5aced	-0.096521236
141	0x3e0b8a36	0.13626942
142	0x3d84565b	0.064617835
143	0xbce8913c	-0.028389566
144	0xbe000072	-0.1250017
145	0x3d67468c	0.056463763
146	0xbe13fbe7	-0.14451562
147	0x3de9f1a8	0.114230454
148	0xbc5eb4c4	-0.013592903
149	0x3d07604d	0.033050824
150	0x3d4192fc	0.047259316
151	0xbe025663	-0.12728266
152	0xbd7d16d4	-0.06178935
153	0xbe022793	-0.12710409
154	0xbe019db2	-0.12657812
155	0xbd46a3a6	-0.04849591
156	0xbd9db4f8	-0.07700533
157	0x3d9a7aee	0.07542978
158	0x3d897559	0.067118354
159	0xbd771aff	-0.06032848
160	0xbe071fbc	-0.131957
161	0x3d399db9	0.04531643
162	0xb9dc3d07	-0.0004200714
163	0xbd3efc2b	-0.046627205
164	0xbd46e345	-0.048556585
165	0xbdccbd7d	-0.099970795
166	0xbcd236a2	-0.025660817
167	0xbd86cef4	-0.06582442
168	0xbcae8202	-0.021302227
169	0x3dd34ad8	0.1031701
170	0xbd2a3b4b	-0.041560452
171	0xbbc161ce	-0.005901552
172	0x3d8569ca	0.06514318
173	0xbe1395aa	-0.14412561
174	0x3b601d2e	0.003419708
175	0x3d08d2dc	0.033404216
176	0x3ccde34c	0.025132798
177	0x3e333916	0.17502245
178	0x3c819a22	0.015820567
179	0x3db0c828	0.08631927
180	0xbd346bf2	-0.044048257
181	0xbd1fb3ee	-0.038989954
182	0x3d4bf88f	0.04979759
183	0xbdd79d7d	-0.105280854
184	0xbdb9e230	-0.09076345
185	0x3dd12772	0.10212602
186	0xbe1fab65	-0.15592726
187	0x3dbed257	0.09317463
188	0x3b8b0e27	0.0042436305
189	0x3da33e44	0.079708606
190	0xbda67d7a	-0.081294015
191	0xbda497a3	-0.08036735
192	0xbd975434	-0.07389107
193	0x3e24fc53	0.16111879
194	0xbd66e885	-0.05637409
195	0xbdc6d01f	-0.09707665
196	0xbd3a64cc	-0.045506284
197	0x3e255456	0.16145453
198	0x3df20a11	0.11818326
199	0x3dd8a484	0.10578254
200	0xbdf64cbb	-0.12026354
201	0x3df4de7d	0.11956499
202	0xbd035c99	-0.03207073
203	0x3e152cb5	0.14567836
204	0x3dd6c41f	0.10486626
205	0xbdcb547c	-0.099282235
206	0xbe05c78d	-0.13064404
207	0x3e02f12f	0.12787317
208	0x3de59351	0.11209739
209	0xbe0d135a	-0.13776913
210	0x3d508716	0.050910078
211	0xbcb25403	-0.021768576
212	0xbda79354	-0.081823975
213	0xbdda1b74	-0.106497675
214	0xbe1dcc9f	-0.15410088
215	0x3e04be5c	0.12963241
216	0xbdea26c9	-0.11433179
217	0xbc99790f	-0.018734483
218	0xbd942991	-0.07234491
219	0x3e1677c1	0.1469412
220	0xba44d892	-0.0007509078
221	0x3de13319	0.10996074
222	0x3e20b0f5	0.15692504
223	0x3e077895	0.13229592
224	0xbe1c1b20	-0.15244722
225	0x3e0f2918	0.1398052
226	0x3d7b5943	0.061364423
227	0xbdc92dcd	-0.09823189
228	0x3e2882a6	0.16456088
229	0xbdf2a3e3	-0.11847665
230	0xbd2684c4	-0.04065396
231	0x3dd15ed6	0.10223167
232	0x3dc5bd65	0.09655265
233	0xbda87cb6	-0.08226912
234	0xbdf95fb6	-0.121764585
235	0xbd21facb	-0.039545815
236	0x3df31ffb	0.11871334
237	0xbd9094ec	-0.070596546
238	0x3db6c9c1	0.089252
239	0x3d90e6a3	0.070752405
240	0xbe35331b	-0.17695276
241	0xbcbae196	-0.022812646
242	0xbd8aa047	-0.06768852
243	0xba9a7edd	-0.0011787076
244	0xbd24f44a	-0.040272035
245	0xbe00c336	-0.12574467
246	0x3d4e68bb	0.050392848
247	0x3dcb5fd2	0.09930386
248	0x3dc89e40	0.09795809
249	0xbd795490	-0.06087166
250	0xbe20aba2	-0.15690473
251	0x3d3a91c9	0.045549188
252	0x3d893cab	0.067010246
253	0x3e64a572	0.22328737
254	0x3e0a9550	0.1353352
255	0xbcdbb9f8	-0.026822075

model.rnn.bias_ih_l0 f4 [160]
0	0xbc3efdf8	-0.011657231
1	0xbcc80cf6	-0.024420243
2	0x3d7cb86e	0.061699323
3	0x3d60bd18	0.054867834
4	0x3e1f3b50	0.1554997
5	0x3d6ba8cc	0.057534024
6	0x3c387226	0.011257684
7	0x3c5e002c	0.013549846
8	0x3e33552b	0.17512958
9	0x3ca63b18	0.02029185
10	0x3d9cefa2	0.07662894
11	0x3c613dda	0.013747657
12	0x3df831d5	0.1211888
13	0x3e0bd98c	0.13657206
14	0x3d0831ce	0.033250622
15	0x3bf24a5b	0.007394118
16	0x3e4c3ab3	0.19944267
17	0x3bed7a37	0.007247235
18	0x3cf6b6a0	0.03011638
19	0x3d7f5abc	0.06234239
20	0x3df419a9	0.11918957
21	0xbc782f48	-0.0151479915
22	0xbc57b8a9	-0.013166585
23	0x3e963e60	0.29344463
24	0x3de4a7b5	0.111648
25	0x3d758852	0.05994446
26	0x3e03cd1b	0.1287121
27	0x3c57fec5	0.0131833
28	0x3cf55d6d	0.029951775
29	0x3ca097e1	0.019603672
30	0x3d8953d5	0.06705443
31	0x3da13286	0.07870965
32	0x3e1da349	0.1539432
33	0x3e5ec697	0.21755444
34	0x3ba0bda1	0.004905418
35	0x3cc55066	0.024086189
36	0x3d13d72c	0.036093876
37	0x3e4a011e	0.19726989
38	0xbd7d52f3	-0.061846685
39	0x3c0ff713	0.008786934
40	0x3dd29554	0.10282388
41	0x3e293591	0.1652434
42	0x3d37b48a	0.04484991
43	0xbd2c1e3d	-0.042021025
44	0xbc35444a	-0.011063645
45	0x3e0f11f6	0.13971695
46	0xbc0810f8	-0.008304827
47	0xbdef2c96	-0.11678426
48	0xbd108661	-0.035284404
49	0xbdcff801	-0.10154725
50	0x3da4944f	0.080361
51	0x3dd9b4e6	0.10630207
52	0x3dd5ec2a	0.10445435
53	0x3e267dff	0.16259001
54	0x3d36ca8a	0.04462675
55	0xbe0dd8bc	-0.13852209
56	0xbd4a514a	-0.04939393
57	0x3d623edb	0.055235725
58	0xbd8030be	-0.06259297
59	0x3d9d6b34	0.07686463
60	0xbd8fe8a5	-0.07026795
61	0x3e0c91fc	0.13727564
62	0xbd34d5e5	-0.0441493
63	0x3df35400	0.11881256
64	0x3d961209	0.07327659
65	0xbc89a183	-0.016800648
66	0x39f11c3c	0.00045988138
67	0xbe35eb5f	-0.17765568
68	0x3e19b390	0.15009904
69	0xbd271230	-0.04078883
70	0x3dbf9c46	0.09355979
71	0xbd72c8b0	-0.05927342
72	0x3d9734d3	0.07383122
73	0x3e0a44c9	0.13502802
74	0x3df0d049	0.11758477
75	0xbde82a23	-0.11336162
76	0x3cd8a393	0.026445186
77	0xbcba78c7	-0.02276267
78	0x3c198cdd	0.009371963
79	0xbb8334a9	-0.0040040803
80	0x3d00fcad	0.03149097
81	0x3da3fd8d	0.08007345
82	0xbcc61c50	-0.024183422
83	0xbde32890	-0.11091721
84	0xbc83fe6a	-0.016112525
85	0x3e398140	0.18115711
86	0x3d0fbb12	0.035090514
87	0xbd4dbe07	-0.050230052
88	0xbe1221b9	-0.14270677
89	0xbe3e67aa	-0.18594232
90	0xbd869ab2	-0.065724745
91	0xbd361dd5	-0.044462044
92	0xbdd7e747	-0.105421595
93	0xbd829a3a	-0.06377073
94	0xbde7eb7b	-0.11324211
95	0x3e48f096	0.19623026
96	0x3dddcd97	0.10830229
97	0xbce06b3b	-0.027394881
98	0xbc4aa121	-0.012367518
99	0x3dfdb4d3	0.12388005
100	0x3dac76ad	0.08421073
101	0x3e32330d	0.17402287
102	0xbda9703c	-0.0827336
103	0x3e6a7324	0.22895485
104	0x3d29a581	0.041417602
105	0x3dbe3aad	0.09288535
106	0x3d615f4d	0.055022527
107	0xbc590c3f	-0.013247549
108	0x3d0ac068	0.0338749
109	0x3e3e0918	0.18558156
110	0x3bc131b4	0.0058958177
111	0xbd088d6b	-0.03333799
112	0xbde3e6d1	-0.11128009
113	0x3e455c95	0.19273598
114	0x3d94951a	0.07255001
115	0xbe07a0dd	-0.13244958
116	0xbdbf8880	-0.09352207
117	0x3e6aef57	0.22942863
118	0x3dbe5c05	0.09294895
119	0x3dc35ab6	0.09538786
120	0x3df0ad5f	0.11751818
121	0xbd8ff7e7	-0.070297055
122	0xbdb312cc	-0.087438196
123	0xbd201084	-0.03907825
124	0x3d1a6889	0.03769735
125	0x3e022134	0.12707978
126	0x3d58cea8	0.052931458
127	0x3e55685e	0.20840594
128	0x3defaf19	0.11703319
129	0x3d3fb463	0.04680289
130	0xbdbe72a5	-0.092992105
131	0x3e114250	0.14185452
132	0x3c1cda28	0.009573497
133	0x3d8c5ed0	0.068540215
134	0x3d2a06b4	0.0415103
135	0x3de92840	0.1138463
136	0x3cf22fcb	0.029563805
137	0x3e06619f	0.13123177
138	0x3e1c7139	0.15277566
139	0x3e582e6b	0.21111457
140	0x3ca5f3d6	0.020257872
141	0xbc260070	-0.01013194
142	0x3cd56780	0.02605033
143	0x3d7f6d26	0.06235995
144	0x3bafb6b1	0.0053623547
145	0xbc5f4f28	-0.013629712
146	0x3d18e0d9	0.037323806
147	0x3e1d4e04	0.15361792
148	0xbdd5eed1	-0.10445941
149	0x3e66a1e3	0.22522692
150	0x3e3da39f	0.18519448
151	0x3d9926b0	0.07478082
152	0x3e1c69df	0.15274762
153	0x3e59c5f3	0.21266918
154	0x3e0a92c0	0.13532543
155	0x3dbcec09	0.09224708
156	0x3dc44d3a	0.09585042
157	0xbdeabbfe	-0.11461638
158	0x3de2b383	0.110693954
159	0x3d882adf	0.06648802

model.rnn.bias_hh_l0 f4 [160]
0	0x3cf91817	0.030406995
1	0xbcee0541	-0.02905524
2	0xbce81f00	-0.028335094
3	0x3d4ecacc	0.05048637
4	0x3e2525b8	0.1612767
5	0x3e3fafaf	0.18719362
6	0xbdc8c3de	-0.09802984
7	0x3e591384	0.21198851
8	0x3e71deb0	0.23620105
9	0xbc4bbd93	-0.012435335
10	0x3e453051	0.19256712
11	0x3dd7c1a1	0.10534979
12	0xbdaa86b9	-0.083264776
13	0x3e7e2186	0.24817476
14	0x3dc4952f	0.09598767
15	0x3a3f3fe3	0.00072955916
16	0xbcc32e68	-0.02382584
17	0x3e36e261	0.17859794
18	0xbd3710bd	-0.044693697
19	0x3e4d8dd1	0.2007363
20	0xbd0e3b8d	-0.03472476
21	0x3cb22d89	0.021750228
22	0x3c299b26	0.010351932
23	0x3d3b0114	0.045655325
24	0xbbd4b789	-0.0064916057
25	0x3dcb491e	0.09926055
26	0xbc890a7e	-0.016728636
27	0x3e2ad280	0.16681862
28	0xbdb6a14c	-0.08917484
29	0x3e0f685f	0.14004658
30	0xbdb76fae	-0.08956848
31	0x3db40b43	0.087912105
32	0x3e2458a4	0.16049439
33	0xbb860eaf	-0.004091106
34	0xbd08a285	-0.033358116
35	0x3dcd56cd	0.100263216
36	0x3dd36e6b	0.10323795
37	0x3d90d2e9	0.07071478
38	0x3d549f5b	0.051909786
39	0x3d8b7b17	0.06810587
40	0x3d185220	0.037187696
41	0x3d8b4724	0.06800678
42	0x3d00aa0a	0.031412162
43	0xbded4ba9	-0.11586697
44	0x3e0a6e38	0.13518608
45	0x3df5fb4e	0.12010823
46	0x3d821c4b	0.06353053
47	0x3cd0544e	0.025430825
48	0xbdcc39d7	-0.099719696
49	0xbe027e7c	-0.12743562
50	0x3d740ee6	0.05958452
51	0xbaa0e0c5	-0.0012274018
52	0x3cc82953	0.024433767
53	0xbdc178d5	-0.09446875
54	0x3d9f3053	0.07772889
55	0x3d808b0e	0.062765226
56	0x3d9802f6	0.0742244
57	0xbdc9dc5b	-0.098564826
58	0x3cc9aba1	0.024617972
59	0x3e579292	0.21052006
60	0xbbd1621c	-0.0063898694
61	0x3d692ab0	0.056925476
62	0xbd6d3f7f	-0.057921883
63	0xbc99dd46	-0.01878227
64	0x3e1be682	0.1522465
65	0x3e19c70d	0.15017338
66	0x3d9d72ee	0.07687937
67	0xbc7e6117	-0.015526078
68	0x3e30a18e	0.17249128
69	0x3e111de1	0.14171554
70	0x3cc363f0	0.023851365
71	0x3dc90b9f	0.0981667
72	0xbda5ecbb	-0.081017934
73	0xbb4b7e85	-0.0031050753
74	0x3db780f4	0.08960143
75	0xbde325d2	-0.11091198
76	0xbe005d63	-0.12535624
77	0xbc38c9fa	-0.011278624
78	0x3e2830e7	0.16424905
79	0xbc3903d7	-0.011292419
80	0xbdb23c14	-0.08702865
81	0x3c38e74f	0.011285617
82	0xbe23451d	-0.15944333
83	0x3d694f17	0.05696019
84	0x3d43cae1	0.047800902
85	0x3e3b395a	0.18283597
86	0xbd4550db	-0.048172813
87	0xbdb3b3b6	-0.087745115
88	0xbe0c6094	-0.13708717
89	0x3d8f5f6a	0.07000621
90	0x3e0576b4	0.13033563
91	0xbd9c36f1	-0.07627667
92	0x3d178510	0.036992133
93	0x3d9f8ea4	0.077908784
94	0x3cbbe821	0.022937836
95	0xbd81acee	-0.06331812
96	0xbba023af	-0.0048870663
97	0x3cefe9d9	0.029286312
98	0xbe13316b	-0.1437432
99	0xbd7c75ce	-0.061635785
100	0x3da5d744	0.08097699
101	0x3e236e79	0.1596011
102	0x3c81d653	0.015849268
103	0x3e681d0a	0.22667328
104	0x3c938b5e	0.018010791
105	0xbdd75d11	-0.10515798
106	0x3d95f3db	0.07321902
107	0xbe27bd19	-0.16380729
108	0xbd9208fd	-0.07130621
109	0xbda515e6	-0.080608174
110	0x3cc9813c	0.024597757
111	0xbdffc506	-0.12488751
112	0x3d4660db	0.048432212
113	0x3c1ec020	0.009689361
114	0x3bbe67c8	0.0058107115
115	0x3d56e6b5	0.052466113
116	0x3e0244dc	0.1272158
117	0xbd87b2de	-0.06625913
118	0x3e57e147	0.2108203
119	0x3d96edc3	0.07369568
120	0xbd7c8a0f	-0.0616551
121	0xbd172beb	-0.036907118
122	0xbddaf946	-0.106920764
123	0x3d4d8d65	0.050183672
124	0x3e145c83	0.14488415
125	0xbd9b0a7a	-0.075703576
126	0xbd2880d9	-0.041138504
127	0xbd8473b4	-0.06467381
128	0x3da30dee	0.07961641
129	0x3d089d31	0.033353034
130	0xbd42882f	-0.047493156
131	0xbd6e637d	-0.05820035
132	0xbdc977fe	-0.0983734
133	0x3bef3e22	0.007301108
134	0x3b081b38	0.0020768177
135	0x3e17c467	0.14821015
136	0xba41dcf5	-0.0007395291
137	0x3d86602b	0.06561311
138	0x3d66cd59	0.05634818
139	0x3bad3bf9	0.0052866903
140	0x3dca15cb	0.09867438
141	0x3e1fa319	0.1558956
142	0x3dda350c	0.10654649
143	0x3e1258ab	0.14291637
144	0x3e31f04e	0.17376825
145	0xbd54c4a1	-0.051945332
146	0x3d7a3919	0.06108961
147	0x3d975654	0.07389513
148	0xbcaa87d9	-0.02081673
149	0x3e201451	0.1563275
150	0xbc7ff04c	-0.015621256
151	0x3e0c1f55	0.13683827
152	0x3dc3aa70	0.09553993
153	0xbdae0a29	-0.08498032
154	0x3db922c8	0.09039837
155	0x3e0bf9b9	0.1366948
156	0x3d8013c7	0.06253772
157	0x3e1d94d3	0.15388803
158	0x3c190a7b	0.009340878
159	0xbd2496fe	-0.04018306

model.rnn.weight_ih_l1 f4 [160, 40]
0	0x3d8ed1e0	0.06973624
1	0x3d27d277	0.0409722
2	0x3b5b7696	0.003348743
3	0xbddc4995	-0.10756222
4	0xbc546fbd	-0.012966094
5	0x3d9112d1	0.07083667
6	0x3cc8b501	0.024500372
7	0x3d030761	0.03198946
8	0xbd935d0e	-0.07195483
9	0x3df9bd95	0.12194363
10	0xbd5065d0	-0.050878346
11	0x3dc03653	0.093853615
12	0xbe08827c	-0.13331026
13	0xbdcef0ab	-0.101044975
14	0x3e115d10	0.14195657
15	0x3d5ad155	0.05342229
16	0x3dc117c4	0.09428361
17	0xbdfdb15d	-0.12387345
18	0x3db43449	0.08799035
19	0xbadb91b5	-0.0016751798
20	0xbdc15604	-0.09440234
21	0xbc87ef7f	-0.016593693
22	0x3d749aa7	0.0597178
23	0x3c5fc43a	0.013657624
24	0x3de99564	0.11405447
25	0x3df3d879	0.11906523
26	0xbd840912	-0.064470425
27	0x3d26d6f3	0.040732335
28	0xbcf7e246	-0.030259263
29	0xbcc70f1d	-0.024299199
30	0x3d3b1edd	0.04568373
31	0x3e182f5f	0.1486182
32	0x3dfbc991	0.12294305
33	0x3ce744ed	0.028231109
34	0xbd1f44b3	-0.038883876
35	0xbb49db55	-0.0030800898
36	0x3d3b8ab2	0.045786567
37	0x3d23d7ad	0.040000606
38	0xbc9c82cd	-0.01910534
39	0xbc68df07	-0.01421333
40	0x3cd2ea21	0.025746407
41	0x3e3d0113	0.18457441
42	0xbdaed0d6	-0.08535926
43	0x3e575d31	0.21031643
44	0xbd817854	-0.06321779
45	0x3dbc1d27	0.09185248
46	0xbd94407d	-0.07238863
47	0x3e90cb43	0.28280076
48	0xbe215921	-0.15756656
49	0xbe202705	-0.15639885
50	0x3e18d9c3	0.1492682
51	0x3e692761	0.22768928
52	0xbc190049	-0.009338447
53	0xbe0d6e03	-0.13811497
54	0xbde1d6bb	-0.11027285
55	0x3c8a0779	0.016849266
56	0xbd2002a8	-0.039065033
57	0x3e4c7cea	0.19969526
58	0x3c2c397a	0.01051175
59	0xbd80d2ff	-0.06290244
60	0xbda66108	-0.08123976
61	0xbd341f76	-0.043975316
62	0x3d68f702	0.05687619
63	0x3dcf7c99	0.10131187
64	0xbd29a043	-0.041412603
65	0xbe3c05f3	-0.18361644
66	0xb94db3d7	-0.00019617319
67	0x3cffcb5d	0.0312249
68	0x3df37802	0.11888124
69	0xbcadb82a	-0.02120598
70	0xbe4283a4	-0.1899553
71	0xbde8d1e9	-0.11368162
72	0x3d1ee576	0.03879305
73	0x3e0afd5f	0.13573216
74	0xbda8e3ce	-0.08246575
75	0xbc529fb4	-0.012855459
76	0x3d78760f	0.060659464
77	0x3e2001cc	0.15625685
78	0x3e207b30	0.15671992
79	0x3bdf20b0	0.0068093166
80	0x3e433c70	0.19066024
81	0x3d68d900	0.056847572
82	0x3da5b258	0.08090657
83	0x3dfcc539	0.12342305
84	0xbe2d3e00	-0.16918182
85	0x3bf5ea11	0.0075047095
86	0x3e24279b	0.16030733
87	0x3de900db	0.11377116
88	0x3d98c3d9	0.0745923
89	0x3c662d74	0.014048923
90	0x3d8df788	0.069319785
91	0xbdad3eca	-0.08459242
92	0x3d5b9ef8	0.0536184
93	0x3e5680a9	0.20947517
94	0xbe025c4d	-0.12730522
95	0xbcd08495	-0.025453845
96	0xbcfb6a09	-0.03069021
97	0xbd90afbd	-0.070647694
98	0x3db2a4bd	0.087228276
99	0x3d287fd0	0.041137516
100	0x3d903dbb	0.07043024
101	0x3d72afef	0.059249815
102	0xbd1f7d3c	-0.038937792
103	0x3e0a6c7b	0.13517945
104	0x3d138e51	0.036024395
105	0x3d04daef	0.032435354
106	0x3ad847ea	0.0016500924
107	0x3a577921	0.0008219649
108	0xbdd33709	-0.103132315
109	0x3cc336a0	0.023829758
110	0x3d70a9e2	0.058755763
111	0x3d239f49	0.039946828
112	0xbd2e413a	-0.042542674
113	0xbe107c66	-0.14109954
114	0x3c39294a	0.011301348
115	0x3db08721	0.08619524
116	0xbd7de2c3	-0.061983835
117	0x3ca3c314	0.019990481
118	0x3d755d38	0.059903353
119	0xbe14c916	-0.14529833
120	0x3d850c9a	0.06496544
121	0xbc1dfd55	-0.009642919
122	0x3d189425	0.037250657
123	0x3e446a36	0.19181141
124	0xbd994722	-0.07484271
125	0xbcf9ec4f	-0.030508189
126	0xbe3e7367	-0.1859871
127	0x3e30e30a	0.17274109
128	0xbe2be7ae	-0.16787598
129	0xbdbcd9cb	-0.09221228
130	0xbd9034c9	-0.07041318
131	0x3d03ab37	0.032145705
132	0xbd859c5f	-0.06523966
133	0xbd8d7fcd	-0.06909142
134	0xbdf5cf57	-0.120024376
135	0xbd8f7aa7	-0.07005816
136	0x3dab84e7	0.083749585
137	0x3c351853	0.011053163
138	0xbe452fe8	-0.19256556
139	0x3e5ae0e4	0.21374851
140	0xbe34914b	-0.1763355
141	0x3d362a68	0.044474036
142	0x3d2ddbdf	0.042446014
143	0x3d89eb72	0.06734361
144	0xbde3dd52	-0.11126198
145	0xbc4329a7	-0.011911786
146	0x3cd8fc7c	0.026487581
147	0xbe36c681	-0.1784916
148	0x3e6132ad	0.21991988
149	0x3e75a753	0.2398961
150	0xbd0c3e90	-0.03423935
151	0x3d07573e	0.033042185
152	0xbdd5d7ac	-0.10441527
153	0x3e2682bb	0.16260807
154	0xbe21b56e	-0.15791866
155	0xbdaedb10	-0.085378766
156	0x3cd261c8	0.025681391
157	0xbca8dcce	-0.0206131
158	0xbd813033	-0.063080214
159	0x3e0d002d	0.13769598
160	0x3dc03354	0.0938479
161	0x3db27f44	0.0871568
162	0x3d8a3f8d	0.067504026
163	0x3e5c521a	0.21515694
164	0x3e3e6481	0.18593027
165	0x3e1e31bc	0.1544866
166	0x3ce87d27	0.02837999
167	0x3d900448	0.070320666
168	0xbe4a9319	-0.19782676
169	0xbdb9ca59	-0.09071798
170	0x3bc7ac74	0.006093556
171	0x3e05ec2a	0.1307837
172	0x3e61d91f	0.22055481
173	0xbb579428	-0.0032894704
174	0xbe3f99f5	-0.18711074
175	0xbd066182	-0.032807834
176	0xbdecbeab	-0.115598045
177	0x3d443e2b	0.04791085
178	0xbd7033d6	-0.058643185
179	0x3c37431d	0.011185435
180	0xbe136365	-0.14393385
181	0x3db380a5	0.08764771
182	0x3e363a3b	0.1779565
183	0x3d1907ea	0.037361063
184	0xbe00e3b0	-0.12586856
185	0x3bba6cc6	0.0056892363
186	0xbcfcbf43	-0.03085292
187	0xbe2dbe67	-0.16967164
188	0x3d81dcd3	0.06340947
189	0x3e4ec92d	0.2019393
190	0xbcc0f1e7	-0.023552848
191	0xbe323baf	-0.1740558
192	0x3b33f500	0.0027459264
193	0xbc12b8fa	-0.008955235
194	0x39868f11	0.00025665064
195	0x3c4b6551	0.012414292
196	0x3d384fce	0.044997983
197	0x3bc58d38	0.0060287975
198	0x3d883d5a	0.06652327
199	0x3de44b45	0.11147169
200	0xbded4f85	-0.11587433
201	0xbe0f53a7	-0.13996755
202	0x3dd45f39	0.10369725
203	0x3dde8175	0.10864536
204	0xbde9bfeb	-0.114135586
205	0xbd929f33	-0.07159271
206	0x3d4ba951	0.04972202
207	0xbdf20cfb	-0.11818882
208	0x3d082846	0.033241533
209	0x3d768079	0.060181115
210	0x3e1c8360	0.1528449
211	0xbdf17fe5	-0.11791972
212	0xbdaa17c1	-0.08305312
213	0xbb725930	-0.003697943
214	0xbc69bef0	-0.014266714
215	0x3debbabd	0.11510227
216	0x3dec7b94	0.11547008
217	0xbae0bd4a	-0.0017146256
218	0x3dafb727	0.085798554
219	0xbd717858	-0.05895266
220	0x3de5eab4	0.11226407
221	0x3d8a337c	0.06748101
222	0x3d4e1c04	0.050319687
223	0x3d8705b9	0.065928884
224	0x3cf2cd38	0.029638872
225	0xbdb426b9	-0.08796448
226	0xbd05da3f	-0.03267884
227	0x3e1e3205	0.15448768
228	0xbd81193f	-0.063036434
229	0xbd72d70b	-0.059287112
230	0x3c88df53	0.016708052
231	0x3dd633a3	0.10459068
232	0x3d22f7c6	0.039787076
233	0xbdecc81c	-0.11561605
234	0x3cedd3b2	0.029031608
235	0x3cdcc9ae	0.026951637
236	0x3dbb79ad	0.09154067
237	0x3d943708	0.07237059
238	0x3d8f8b15	0.0700895
239	0xbe23adba	-0.1598424
240	0x3e66db2d	0.22544546
241	0xbe3ff36b	-0.187452
242	0x3de6b9c7	0.11265903
243	0xbd85c715	-0.065321125
244	0x3c95f7aa	0.018306572
245	0x3db1ca0c	0.086811155
246	0x3e091926	0.133885
247	0x3bfe3fd6	0.0077590747
248	0x3e054c1a	0.13017312
249	0x3d1f7588	0.038930446
250	0x3dd8c49b	0.105843745
251	0xbb8f3da9	-0.004371364
252	0x3dfe5e8f	0.12420379
253	0x3cb48bcc	0.022039317
254	0x3dec8c33	0.115501784
255	0xbda2bc7a	-0.07946105

model.rnn.weight_hh_l1 f4 [160, 40]
0	0x3cc46dbe	0.02397811
1	0x3d41a77d	0.04727887
2	0xbdbc2784	-0.091872245
3	0x3e0f605d	0.14001603
4	0x3c7f5b35	0.01558571
5	0xbcc5a30c	-0.024125598
6	0x3ddfb46f	0.10923087
7	0xbc9656dc	-0.018351965
8	0x3df59bfb	0.119926415
9	0x3dd9087f	0.105973236
10	0x3d8b9450	0.06815398
11	0xbdc86f15	-0.09786812
12	0xbe03548f	-0.12825225
13	0xbdeb8602	-0.11500169
14	0x3ca0b1c3	0.019616013
15	0xbe0369d0	-0.12833333
16	0xbe21b09a	-0.15790024
17	0xbde572e2	-0.11203553
18	0x3e214e0b	0.15752427
19	0x3cc47e24	0.02398593
20	0xbd9f645c	-0.07782814
21	0xbe06b015	-0.13153107
22	0xbe001c5d	-0.1251082
23	0x3d0a6437	0.03378698
24	0x3de72226	0.1128581
25	0x3e006ac0	0.12540722
26	0xbd84b3a2	-0.06479575
27	0xbdca17b2	-0.09867801
28	0xbd96464d	-0.073376276
29	0x3dbe6697	0.09296911
30	0x3d26a727	0.040686753
31	0xbd26488a	-0.040596522
32	0x3dd5e9f9	0.10445017
33	0x3cefb7fd	0.029262537
34	0x3d0442df	0.032290336
35	0x3e182c0e	0.14860556
36	0x3d300399	0.04297218
37	0x3dc4527a	0.09586044
38	0xbcc2888e	-0.023746755
39	0xbdda5878	-0.10661405
40	0xbcc621e8	-0.02418609
41	0xbd0d0d7a	-0.03443668
42	0xbc3e5460	-0.011616796
43	0x3db4b7bd	0.08824108
44	0xbdfadf59	-0.122496314
45	0x3c173930	0.009229943
46	0x3dacafcb	0.08431967
47	0xbdae470e	-0.08509646
48	0xbda3cabc	-0.07997653
49	0x3da837a4	0.082137376
50	0xbda1228b	-0.07867917
51	0x3d7d2d36	0.061810695
52	0x3e09beaf	0.13451646
53	0x3dc83cc6	0.097772166
54	0x3e15d1d8	0.1463083
55	0x3df063b4	0.11737767
56	0xbe48eb06	-0.19620904
57	0xbc940784	-0.01806999
58	0x3de23384	0.11044982
59	0xbd8041c2	-0.06262542
60	0x3baf6e66	0.0053537367
61	0x3df7de3a	0.12102933
62	0xbdb41587	-0.087931685
63	0xbca27b87	-0.019834293
64	0xbdf0f87a	-0.11766143
65	0xbdb6f563	-0.089335226
66	0x3e11c914	0.14236861
67	0xbce9782f	-0.02849969
68	0xbe02f7d1	-0.12789847
69	0x3e35e960	0.17764807
70	0xbd92fc79	-0.071770616
71	0xbd50eea9	-0.051008854
72	0x3d3dd146	0.046342157
73	0xbe016133	-0.12634735
74	0xbdbe35a8	-0.09287578
75	0xbca3bd96	-0.019987863
76	0x3e1de3fb	0.15418999
77	0x3d2140b6	0.039368354
78	0x3d8759de	0.06608938
79	0xbde43d0a	-0.11144455
80	0x3df1f662	0.11814572
81	0xbe35e53d	-0.17763229
82	0xbd2f6d54	-0.042828873
83	0xbdc13573	-0.09434023
84	0xbc13f481	-0.009030462
85	0xbe064d79	-0.13115491
86	0xbdeb1b49	-0.114798136
87	0xbb9c7a29	-0.004775305
88	0x3d8b49e0	0.068012
89	0xbda20807	-0.07911687
90	0x3c28e35e	0.010308115
91	0xbcb9c02f	-0.022674648
92	0x3c989720	0.01862675
93	0xbdc23344	-0.094824344
94	0xbcd6eaee	-0.02623507
95	0x3defb68d	0.11704741
96	0x3e202656	0.15639624
97	0x3b8ec8d8	0.0043574385
98	0xbd56617d	-0.052339066
99	0xbdabb234	-0.08383599
100	0x3d688379	0.056766007
101	0x3d134357	0.035952892
102	0x3d2f6171	0.042817537
103	0x3db4d9e8	0.08830625
104	0x3de991e0	0.114047766
105	0x3c990c93	0.018682754
106	0x3dacc139	0.08435292
107	0xbd202c85	-0.039104957
108	0xbd0928b2	-0.033486076
109	0xbdb68a6d	-0.08913121
110	0xbdfd4ec6	-0.123685405
111	0xbe1fe230	-0.15613627
112	0x3dbf806f	0.09350669
113	0xbdaea8cb	-0.085282885
114	0x3d66fff7	0.05639645
115	0xbd6e0f48	-0.058120042
116	0x3de50089	0.11181743
117	0xbd420191	-0.047364775
118	0xbe276443	-0.1634684
119	0xbd2ba333	-0.041903686
120	0xbd2c198f	-0.042016562
121	0x3db35d8d	0.08758078
122	0x3d0b5ec0	0.034025908
123	0xbc34c9dd	-0.011034456
124	0x3d9a4d2e	0.07534252
125	0xbdcd3fdc	-0.10021946
126	0xbdccbc18	-0.099968135
127	0xbe5bf761	-0.21481086
128	0x3db5464c	0.08851299
129	0xbd243573	-0.040090036
130	0x3d80654b	0.0626932
131	0x3e2ea0d6	0.17053542
132	0x3df0f558	0.117655456
133	0xbd69245e	-0.056919448
134	0xbddb6ffc	-0.10714719
135	0xbb477507	-0.0030434744
136	0xbe28e266	-0.16492614
137	0x3c88f081	0.016716244
138	0x3e46820c	0.19385546
139	0x3e1152f2	0.14191797
140	0x3c8af2b5	0.016961435
141	0x3dcf5b88	0.1012488
142	0x3e1a0f05	0.15044792
143	0xbe5cabd1	-0.21549918
144	0xbd900158	-0.07031506
145	0xbc72192c	-0.014776509
146	0x3cd1fa00	0.025631905
147	0x3e5f744a	0.21821705
148	0xbc3f7eeb	-0.011687974
149	0xbd3fab62	-0.046794303
150	0xbe1ce796	-0.15322718
151	0x3da550ef	0.080720775
152	0xbe572432	-0.21009901
153	0x3d863c4a	0.06554468
154	0x3c79b470	0.015240774
155	0xbd8e21eb	-0.06940063
156	0x3df1f402	0.11814119
157	0x3c942bcc	0.01808729
158	0x3e0f12f4	0.13972074
159	0x3e0e1b7f	0.13877676
160	0x3ddba3ad	0.10724578
161	0xbdabfd6e	-0.08397947
162	0x3dd82e6c	0.10555729
163	0x3dd5e3c2	0.10443832
164	0x3db012ed	0.0859736
165	0x3d305b23	0.043055665
166	0x3de210c4	0.11038354
167	0xbdb75851	-0.08952392
168	0x3e329879	0.17440976
169	0x3c06b069	0.00822077
170	0xbe486310	-0.1956904
171	0x3e3fe79f	0.187407
172	0xbdd243ec	-0.10266861
173	0x3de29b6c	0.110648006
174	0x3c64f256	0.013973793
175	0xbceb5c1c	-0.028730445
176	0x3d109271	0.035295907
177	0x3dcf2057	0.1011359
178	0xbcf97491	-0.030451091
179	0x3d988de1	0.07448936
180	0xbd5642c4	-0.052309766
181	0xbd48273b	-0.048865538
182	0x3ddccaba	0.107808545
183	0xbe300a42	-0.17191413
184	0x3dac3e9f	0.084103815
185	0x3b402a2e	0.0029322016
186	0xbabef8a1	-0.0014569947
187	0x3cbd1398	0.023080632
188	0xbe165ac7	-0.14683066
189	0xbd39be0e	-0.045347266
190	0xbe048c24	-0.12944084
191	0xbb8740a8	-0.0041275807
192	0xbdfdefb6	-0.12399237
193	0xbdb8f22d	-0.09030566
194	0x3dc1cd3c	0.094629735
195	0x3d6f8f65	0.05848636
196	0xbe0a2886	-0.13492021
197	0xbd82531d	-0.06363509
198	0x3d5212fa	0.05128763
199	0x3d950a22	0.07277323
200	0x3deedba3	0.11662986
201	0x3d2ab25a	0.041673996
202	0x3dc52a4f	0.0962721
203	0xbda66f9b	-0.08126756
204	0xbd9dcc1d	-0.07704947
205	0xbd87a792	-0.066237584
206	0xbded75eb	-0.11594757
207	0x3db72567	0.08942681
208	0xbdcdef81	-0.10055447
209	0xbd358e36	-0.044325076
210	0x3d419d99	0.047269437
211	0xbd5400a4	-0.051758423
212	0xbdbbcb26	-0.09169607
213	0xbc58ac25	-0.013224636
214	0x3d9a52ae	0.07535301
215	0xbd5f284b	-0.054481786
216	0xbe14e1f5	-0.14539321
217	0xbdf9eeef	-0.12203776
218	0xbba2312d	-0.00494971
219	0xbd992c9a	-0.0747921
220	0x3d1b6afa	0.037943818
221	0x3ca6ab79	0.020345436
222	0x3de841d1	0.113406785
223	0xbd96d135	-0.07364122
224	0x3d26c771	0.040717546
225	0xbe12750c	-0.14302462
226	0x3d5592a2	0.052141793
227	0xbe1315a2	-0.14363721
228	0x3ddd1d38	0.10796589
229	0xbd90b9dd	-0.070667006
230	0x3cbe7454	0.023248829
231	0xbd6ca362	-0.057773
232	0x3da1bb3a	0.07897039
233	0x3d19d8aa	0.037560143
234	0x3e0d43c4	0.13795382
235	0x3c0501b2	0.00811808
236	0xbd2c2fc2	-0.042037733
237	0xbe0ad709	-0.13558592
238	0xbd148161	-0.036256198
239	0x3e0d0933	0.1377304
240	0xbcc139ac	-0.02358707
241	0x3c9d5d8c	0.019209646
242	0x3e0b1825	0.13583429
243	0x3e292e2a	0.16521516
244	0xbd63053a	-0.055424906
245	0xbdab4763	-0.08363225
246	0x3e102630	0.14077067
247	0x3d899550	0.06717932
248	0xbe32fe1d	-0.17479749
249	0xbd96fbb1	-0.07372225
250	0xbe081ceb	-0.13292281
251	0xbdc41655	-0.09574572
252	0xbd9abe74	-0.07555857
253	0xbe4a2c38	-0.1974343
254	0xbd916909	-0.07100112
255	0xbdc7f199	-0.09762878

model.rnn.bias_ih_l1 f4 [160]
0	0x3dc24c09	0.09487159
1	0x3dd21fce	0.102599725
2	0x3d926cc2	0.0714965
3	0xbda8e161	-0.082461126
4	0x3dae4d99	0.08510894
5	0xbd44427c	-0.047914967
6	0xbc24f6b6	-0.010068586
7	0xbe0160f5	-0.12634642
8	0xbb4c3842	-0.0031161462
9	0xbcaa531f	-0.020791588
10	0x3d96d0da	0.07364054
11	0x3d0a38fc	0.03374575
12	0x3e03f13b	0.12884991
13	0xbc92246d	-0.017839635
14	0x3cb0ade8	0.0215673
15	0x3b0c491f	0.0021405888
16	0x3e2c7411	0.16841151
17	0xbdc5c691	-0.09657014
18	0xbe18d710	-0.1492579
19	0x3d721810	0.05910498
20	0x3e4baa8e	0.1988928
21	0xbd9f4197	-0.07776182
22	0xbd7b14de	-0.061299197
23	0xbdc3f23f	-0.09567689
24	0x3dba3a33	0.09093132
25	0x3c2e0b7d	0.010622856
26	0xbd12739c	-0.035754785
27	0xbd6db697	-0.05803546
28	0x3d88f9d6	0.066882774
29	0x3d978baa	0.07399686
30	0xbd8fcee4	-0.07021883
31	0x3e285698	0.16439283
32	0xbbe61b3a	-0.0070222886
33	0x3e36c95f	0.17850254
34	0xbb920038	-0.0044555925
35	0xbd47a808	-0.04874423
36	0xbd6ba07a	-0.05752609
37	0x3dac1d6d	0.0840405
38	0x3dbdf64d	0.09275494
39	0x3e012612	0.12612179
40	0xbe156d89	-0.14592566
41	0xbd5263ec	-0.051364824
42	0xbd7c8b28	-0.061656147
43	0x3db7d9c8	0.08977085
44	0x3d70ce53	0.058790516
45	0x3d93c918	0.0721609
46	0x3db52e96	0.08846776
47	0x3e0a984b	0.13534658
48	0xbda3117d	-0.0796232
49	0xbd51d340	-0.051226854
50	0x3d8cb2a3	0.0687001
51	0x3e1940ea	0.14966169
52	0x3dae09e8	0.08497983
53	0x3d9e9644	0.07743505
54	0xbc075c9f	-0.008261829
55	0x3e00e1ac	0.12586087
56	0x3c54397e	0.01295316
57	0x3d1806bd	0.0371158
58	0x3d65ebac	0.056132957
59	0x3e1542b6	0.1457623
60	0x3b13dfa8	0.002256373
61	0x3da01b5d	0.07817719
62	0x3dfa3172	0.12216462
63	0x3d9dd5d9	0.07706804
64	0x3e1ed014	0.15509063
65	0x3dc0946f	0.094033115
66	0xbe1313e1	-0.14363052
67	0x3d8ffc46	0.07030539
68	0xbe28acee	-0.16472217
69	0xbe075530	-0.1321609
70	0x3e189b03	0.14902882
71	0x3e216282	0.15760234
72	0x3d405168	0.046952635
73	0xbdbaa905	-0.09114269
74	0xbdc96642	-0.09833957
75	0x3d21dd8e	0.03951793
76	0x3e47695f	0.1947379
77	0x3e056ae6	0.1302906
78	0x3cc7e187	0.024399532
79	0xbe18bf79	-0.14916791
80	0xbd1e07e4	-0.038581744
81	0x3d1acbe3	0.037792098
82	0x3de1704f	0.11007749
83	0x3d021197	0.031755056
84	0xbd33f3a5	-0.04393353
85	0x3d7675ce	0.06017094
86	0xbd971e2c	-0.07378802
87	0xbe2a8944	-0.16653925
88	0xbdb83cf9	-0.089960046
89	0x3d49f1dd	0.049302924
90	0xbe5a1b7f	-0.21299551
91	0x3c49d9d7	0.0123200035
92	0x3e1b69c3	0.15177064
93	0x3ded019b	0.11572572
94	0xbc94b36a	-0.018151958
95	0xbd8a2bb2	-0.067466155
96	0xbe14c4d0	-0.14528203
97	0xbde13f8a	-0.10998447
98	0x3dbdfeed	0.09277139
99	0x3d929fde	0.071593985
100	0x3e053612	0.13008907
101	0x3d504487	0.050846603
102	0x3cfd05f9	0.030886637
103	0xbdd311f2	-0.10306157
104	0x3dc1692f	0.0944389
105	0xbe24a065	-0.1607681
106	0xbb8aa2b4	-0.0042308215
107	0x3dc48d7d	0.09597299
108	0x3c051e82	0.008124949
109	0x3d99adf6	0.075038835
110	0xbe1963e6	-0.14979514
111	0xbd251074	-0.040298894
112	0xbdd311c2	-0.103061214
113	0xbe2376b3	-0.15963249
114	0x3e65f056	0.22454962
115	0xbc977e15	-0.018492738
116	0xbdde025b	-0.10840293
117	0xbd885c27	-0.06658202
118	0x3dc41dc7	0.09575992
119	0xbd8ac3f4	-0.06775656
120	0x3e120980	0.14261436
121	0xbd253d06	-0.0403414
122	0xbe1b3969	-0.15158619
123	0x3d9cc9d4	0.07655683
124	0x3e381adf	0.17979
125	0x3d5e6bfb	0.054302197
126	0xbbe12550	-0.006870903
127	0xbb8ebb46	-0.004355821
128	0x3dc578a2	0.096421495
129	0x3dc2f4d7	0.09519356
130	0xbcd47129	-0.025932865
131	0xbd0cb072	-0.03434796
132	0x3d585381	0.05281401
133	0x3d4e39c5	0.050348062
134	0x3e3279bf	0.17429255
135	0xbb903d70	-0.004401855
136	0x3d857cce	0.06517945
137	0xbde2e3c8	-0.11078602
138	0x3d5395ab	0.051656406
139	0xbd242079	-0.04007003
140	0x3c891d59	0.016737627
141	0x3dc897e1	0.097945936
142	0x3d8fa0af	0.0701307
143	0xbb6082f8	-0.003425775
144	0xbd3404e8	-0.04394999
145	0xbd264fd9	-0.040603492
146	0xbe00846a	-0.12550512
147	0x3e480023	0.19531302
148	0x3dda897c	0.10670754
149	0xbd9cf783	-0.076643966
150	0x3c1da863	0.009622666
151	0xbcbe2b24	-0.02321393
152	0x3e5b0f03	0.21392445
153	0x3e250415	0.16114838
154	0x3d0e5c28	0.034755856
155	0xbd826160	-0.06366229
156	0xbd1b7934	-0.037957385
157	0xba080176	-0.0005188206
158	0xba22eafc	-0.0006214825
159	0xbba37c92	-0.004989215

model.rnn.bias_hh_l1 f4 [160]
0	0x3e064fa1	0.13116314
1	0xbc3285d3	-0.010896164
2	0x3ca0398a	0.019558687
3	0x3d4480d9	0.04797444
4	0x3e18190d	0.14853306
5	0x3e034210	0.1281817
6	0xbde23649	-0.1104551
7	0xbcb3104b	-0.021858355
8	0x3c5bedc0	0.013423383
9	0x3e27e685	0.1639653
10	0x3dd0e02d	0.10199008
11	0xbdf02153	-0.11725106
12	0x3e1ee216	0.15515932
13	0x3e0003b9	0.1250142
14	0x3c5c73b9	0.013455325
15	0x3dd9b966	0.10631065
16	0xbd2d2043	-0.042267095
17	0x3cf7f66a	0.030268867
18	0x3d1f9408	0.038959533
19	0x3dd40207	0.10351949
20	0xbd919ff8	-0.0711059
21	0x3e051318	0.12995565
22	0x3bd51d42	0.006503732
23	0xbe0a549f	-0.13508843
24	0x3cfb8376	0.030702334
25	0xbdaa1e84	-0.08306602
26	0x3cba84d4	0.022768416
27	0x3d979bdf	0.07402777
28	0xbd142de7	-0.03617659
29	0xbdb7df7f	-0.08978175
30	0x3e310ce2	0.1729007
31	0x3e52a0a2	0.20569089
32	0x3cbf6bd9	0.023366855
33	0x3e2f72de	0.17133662
34	0xbb9899b7	-0.004656996
35	0x3db7746a	0.08957751
36	0x3b150d60	0.0022743568
37	0xbdea47d9	-0.11439485
38	0xbd89c623	-0.06727245
39	0x3dd8140a	0.10550697
40	0x3d75dc36	0.060024463
41	0xbca026d4	-0.019549765
42	0x3d315e1b	0.043302637
43	0x3de654cc	0.112466425
44	0x3e457141	0.19281484
45	0x3cea7aa9	0.028622942
46	0xbdd14e32	-0.10219993
47	0xbce819e4	-0.028332658
48	0xbd51dd63	-0.05123652
49	0xbd78734f	-0.06065684
50	0x3be0860b	0.0068519167
51	0x3db13a6d	0.08653722
52	0x3e13ccba	0.14433566
53	0xbc8edae9	-0.017438369
54	0x3d3f37dd	0.046684135
55	0x3dd0b6c2	0.10191108
56	0x3d2aca38	0.041696757
57	0xbe38a417	-0.18031345
58	0x3dae9e03	0.08526232
59	0x3d955d2a	0.0729316
60	0xbbcde3b4	-0.006283248
61	0x3dc86def	0.09786593
62	0x3d8e1e4f	0.06939375
63	0x3dd7b8ae	0.10533272
64	0x3da39559	0.0798747
65	0xbd83145b	-0.06400367
66	0x3d17dd23	0.037076127
67	0x3cef5207	0.029213918
68	0x3d39b81f	0.045341607
69	0x3db8a45b	0.09015723
70	0x3e3137ed	0.1730649
71	0x3d30b1c1	0.04313827
72	0xbbdfb09d	-0.006826474
73	0x3dccf2bb	0.10007235
74	0x3e2c6c50	0.16838193
75	0x3cae08f1	0.021244498
76	0xbd2fb93b	-0.04290126
77	0x3e0117e8	0.12606776
78	0xbdbee19a	-0.09320374
79	0xbdf40eee	-0.1191691
80	0x3df0b6b9	0.117536016
81	0xbd2b8a4a	-0.04187993
82	0x3ce4c5c4	0.027926333
83	0xbe3e8a96	-0.18607554
84	0x3e5466fa	0.20742407
85	0x3e0945e7	0.13405572
86	0xbe279e91	-0.16369082
87	0x3d9b8659	0.07593984
88	0xbd6ad4e7	-0.057331946
89	0x3cd3923f	0.025826572
90	0x3d305cd5	0.04305728
91	0x3e3fec32	0.18742445
92	0x3e1bea51	0.15226103
93	0xbe04b9f9	-0.12961568
94	0x3e2000af	0.15625261
95	0xbd8d6263	-0.069035314
96	0xbe3caac7	-0.18424521
97	0xbde11310	-0.10989964
98	0x3cfa6c80	0.030569315
99	0x3da2f7e2	0.07957436
100	0x3e2cf3d1	0.16889884
101	0x3d1e3725	0.03862681
102	0x3e195f18	0.14977682
103	0xbd5822be	-0.052767508
104	0xbc1d7dfe	-0.009612558
105	0xbd80855c	-0.06275436
106	0x3d463e7e	0.04839944
107	0xbdc93381	-0.09824277
108	0xbd7b1dcf	-0.061307725
109	0x3d43bd75	0.047788102
110	0x3d8e4a2e	0.069477424
111	0x3e4f777d	0.20260425
112	0xbe4feee5	-0.20305975
113	0xbe2c3412	-0.16816738
114	0x3e196e61	0.14983512
115	0xbd67d3e5	-0.056598563
116	0xbdb77d41	-0.08959437
117	0xbe09ecca	-0.13469234
118	0x3ce551f1	0.027993174
119	0x3dfe67df	0.124221556
120	0xbcf0133e	-0.02930605
121	0xbc01cc95	-0.007922311
122	0xbe03c5ef	-0.12868474
123	0x3e150428	0.14552367
124	0x3e266bb0	0.16252017
125	0xbd2be95c	-0.041970596
126	0x3d705450	0.058674157
127	0xbcc88e04	-0.02448178
128	0x3d3a42f6	0.045474015
129	0x3e6a2b4f	0.22868083
130	0xbb9347fd	-0.0044946657
131	0x3e1bfb73	0.15232639
132	0xbc86e4db	-0.016466549
133	0x3dde4d98	0.108546436
134	0x3e060716	0.1308864
135	0x3e4f172d	0.20223685
136	0xbd39fb1d	-0.045405496
137	0xbded0f4e	-0.11575185
138	0x3e0daa30	0.13834453
139	0x3d371d03	0.044705402
140	0x3e04117d	0.12897296
141	0x3dad76fb	0.08469959
142	0xbd487577	-0.04894015
143	0x3c32c91c	0.010912206
144	0xbcce7098	-0.025200173
145	0xbd2a0fc3	-0.041518938
146	0xbcd34800	-0.025791168
147	0x3e4a5808	0.19760144
148	0xbdf3268e	-0.11872588
149	0xbdb88942	-0.09010555
150	0x3e28a847	0.16470443
151	0xbc78c0fb	-0.015182729
152	0x3df94082	0.12170507
153	0x3e059ab0	0.1304729
154	0x3e0a625c	0.13514084
155	0xbd9f650c	-0.07782945
156	0xbd43bec5	-0.047789354
157	0xbdc2bb36	-0.09508364
158	0x3dc2ed7e	0.09517954
159	0x3cf71630	0.030161947

exp_avg f4 [1, 40]
0	0xba3a38a5	-0.00071037776
1	0xbb0e9d8a	-0.002176138
2	0x3a0a350a	0.00052721857
3	0x3b52e328	0.0032178853
4	0xbb49d991	-0.0030799846
5	0xb93311bd	-0.00017077378
6	0x38383c78	4.3925334e-05
7	0x39e729b3	0.00044090822
8	0xb9f9025c	-0.0004749474
9	0x3b50f529	0.0031884408
10	0x3b18e3fa	0.0023329244
11	0xbb1916b3	-0.0023359477
12	0xbb292289	-0.0025807938
13	0xbb234057	-0.0024910176
14	0xb79c27e2	-1.8615221e-05
15	0xbb48a347	-0.00306149
16	0x3b2bc8d6	0.0026212237
17	0xb7d4ff4c	-2.5391251e-05
18	0xb9897da9	-0.000262243
19	0xbb299caa	-0.0025880733
20	0x39d6947a	0.00040927884
21	0xb921f6f9	-0.00015446161
22	0x391187cb	0.00013878864
23	0x3b28d983	0.0025764413
24	0x3a9fd57d	0.0012194362
25	0x3a9ad9cc	0.0011814176
26	0xbaea267d	-0.0017864254
27	0xbb2ac7dd	-0.002605907
28	0xb8e3d94d	-0.00010864679
29	0xbac0bea4	-0.0014705253
30	0x3b534434	0.0032236697
31	0xbb3d570e	-0.0028891
32	0x3b385bdd	0.0028130927
33	0x3b15a29b	0.0022832516
34	0xbb411584	-0.0029462287
35	0xbad919ec	-0.0016563511
36	0xbaf0da95	-0.0018375689
37	0x3a89d47d	0.0010515597
38	0xb9fef632	-0.00048630085
39	0x3a3f3ea5	0.00072954065

exp_avg_sq f4 [1, 40]
0	0x34d6e7e5	4.0029332e-07
1	0x368455d3	3.943898e-06
2	0x3544edde	7.336183e-07
3	0x373a184a	1.1092119e-05
4	0x3747ea51	1.191588e-05
5	0x35158d2e	5.571227e-07
6	0x355a2076	8.1258565e-07
7	0x3604ca9b	1.9787465e-06
8	0x356ce5ce	8.825126e-07
9	0x37374e9e	1.09259545e-05
10	0x36fe0382	7.5701982e-06
11	0x36c6bf49	5.9231284e-06
12	0x3702152f	7.753536e-06
13	0x36b55a9b	5.404768e-06
14	0x3528af5b	6.284005e-07
15	0x3724aaaa	9.814898e-06
16	0x371361aa	8.784622e-06
17	0x32e85b3d	2.7049845e-08
18	0x35fe8868	1.8964174e-06
19	0x36e0393c	6.682383e-06
20	0x35e0bdb5	1.6744513e-06
21	0x3503bf24	4.907945e-07
22	0x35e99267	1.7402461e-06
23	0x366c5130	3.5213998e-06
24	0x363ec013	2.8424008e-06
25	0x361a68eb	2.3008859e-06
26	0x36248e89	2.452087e-06
27	0x37168f8e	8.974121e-06
28	0x34e35a0f	4.234757e-07
29	0x35aa1626	1.2672433e-06
30	0x3723ade0	9.7560405e-06
31	0x3701aea4	7.729661e-06
32	0x372d939a	1.034597e-05
33	0x36f5801b	7.3164824e-06
34	0x3734546e	1.0748494e-05
35	0x36445714	2.9256962e-06
36	0x36625d01	3.373076e-06
37	0x3604e673	1.9803672e-06
38	0x35512070	7.790577e-07
39	0x35b1f4bc	1.3258755e-06

exp_avg f4 [1, 40]
0	0x3cf8b5af	0.030360071
1	0x3d29ef69	0.041488085
2	0xbc2ebd62	-0.01066527
3	0xbdb11ab1	-0.08647669
4	0x3d94bb05	0.07262234
5	0x3b07026e	0.0020600813
6	0x3b833313	0.0040038913
7	0x3c9a5bcf	0.018842606
8	0x3947dc28	0.00019060133
9	0xbd9d96fb	-0.07694813
10	0xbd255fe7	-0.040374663
11	0x3d6e647a	0.05820129
12	0x3d5d93d6	0.054096065
13	0x3d7cef56	0.061751686
14	0xbbacebbc	-0.005277125
15	0x3d99d3b3	0.075110815
16	0xbd61fec1	-0.055174593
17	0xbaa7f0a4	-0.0012812805
18	0x3b7f5962	0.0038963188
19	0x3d7f046b	0.062260073
20	0xbce4bf60	-0.027923286
21	0x3c7bc0ad	0.015365762
22	0xbc824857	-0.015903635
23	0xbd880e9b	-0.06643411
24	0xbc90ddb5	-0.017683843
25	0xbc4e5e91	-0.012595789
26	0x3d846023	0.06463649
27	0x3d800a0c	0.06251916
28	0x3a8710a3	0.0010304641
29	0x3d455747	0.048178937
30	0xbdb78818	-0.08961505
31	0x3d7016c1	0.05861545
32	0xbd6a8b8c	-0.05726199
33	0xbd64fe39	-0.055906508
34	0x3d8e0406	0.06934361
35	0x3cf2ecc7	0.02965392
36	0x3d8ee082	0.06976415
37	0xbc67136c	-0.014103752
38	0xbc289fd8	-0.010292016
39	0xbd0275eb	-0.031850737
