TSF/models/DeepAR_v0.3/prediction-net-state.pt (torch, 107868 bytes, 11 tensors)

model.param_proj.proj.0.weight f4 [1, 40]
0.08707107 -0.23158582 0.07687611 -0.16371894 -0.25305945 -0.1561444 0.05708296 0.05985097
0.18022938 0.07398743 0.01636516 -0.86198264 0.1298039 0.13636225 -0.055573236 0.6334315
-0.1200939 -0.02105398 -0.13365246 -0.055306457 0.12742664 0.002565372 -0.2547074 0.14854006
0.1072823 -0.066679575 -0.10262797 0.60832876 -0.07390417 0.14462411 -0.011583667 -0.065336674
-0.25923136 -0.2189132 -0.2192931 -0.03987883 -0.01494072 -0.25312197 0.120557696 0.027539982
00000000: 5152 b23d d524 6dbe 3971 9d3d f0a5 27be
00000010: 0291 81be 51e4 1fbe d2cf 693d 4a26 753d
00000020: 0d8e 383e b986 973d 3a10 863c e5aa 5cbf
00000030: 50eb 043e 8ca2 0b3e c3a0 63bd 9128 223f
00000040: caf3 f5bd 6579 acbc 31dc 08be 0689 62bd
00000050: 217c 023e cd1f 283b 0269 82be e31a 183e
00000060: d3b6 db3d 4d8f 88bd 9d2e d2bd 6fbb 1b3f
00000070: 125b 97bd 5818 143e 6cc9 3dbc 3ccf 85bd
00000080: f9b9 84be c82a 60be 5f8e 60be fc57 23bd
00000090: ecc9 74bc 3499 81be f4e6 f63d 879b e13c

model.param_proj.proj.1.weight f4 [1, 40]
-0.17275892 -0.08108882 0.0020502748 -0.03033533 -0.026018258 -0.06398915 0.17080809 0.14337534
0.1445969 -0.07213716 -0.02387093 0.01311109 0.15000097 0.05641642 -0.054363173 0.0864561
-0.08638667 0.1592381 0.06447103 -0.09913197 0.11128407 -0.109121926 -0.10439395 0.027180003
-0.08126771 -0.10709543 -0.078166045 0.17789233 -0.10079885 0.14626777 0.17262276 0.15484715
-0.11983075 -0.13415131 -0.1771119 -0.12258628 0.009508175 -0.026921421 0.13223892 0.039423257
00000000: b7e7 30be e511 a6bd e75d 063b cc81 f8bc
00000010: 3e24 d5bc be0c 83bd 51e8 2e3e fcd0 123e
00000020: 3611 143e a6bc 93bd f88c c3bc e6cf 563c
00000030: db99 193e e714 673d ebab 5ebd e50f b13d
00000040: 7feb b0bd 500f 233e 6309 843d b405 cbbd
00000050: e7e8 e33d 517b dfbd 7fcc d5bd 99a8 de3c
00000060: af6f a6bd d954 dbbd 8515 a0bd 6829 363e
00000070: a16f cebd 38c7 153e 05c4 303e 4090 1e3e
00000080: d369 f5bd f65e 09be d25c 35be 840e fbbd
00000090: 2dc8 1b3c 508a dcbc a469 073e 487a 213d

model.param_proj.proj.2.weight f4 [1, 40]
-0.105943196 0.08755264 -0.22731495 0.12821685 0.024338884 0.025080178 -0.05264892 -0.21535301
0.06779906 -0.21016236 -0.13615867 0.59058803 0.14242603 -0.14159152 0.2319336 0.18163437
-0.18369558 -0.21280026 0.22423385 0.06873691 -0.11857808 -0.0127859535 -0.16151103 -0.10367916
-0.2406875 0.21503186 0.113804735 -0.07395086 0.12795416 0.008541407 -0.15804157 0.013420867
-0.14404957 0.037205342 -0.06459248 0.020885224 0.04869931 0.13730909 -0.15045828 0.05642955
00000000: bff8 d8bd cc4e b33d 40c5 68be 474b 033e
00000010: 5762 c73c f274 cd3c 65a6 57bd 8085 5cbe
00000020: 3cda 8a3d cd34 57be 2e6d 0bbe c730 173f
00000030: 21d8 113e 5efd 10be 0080 6d3e 5cfe 393e
00000040: b21a 3cbe 50e8 59be 8f9d 653e f0c5 8c3d
00000050: 10d9 f2bd 2d7c 51bc 2663 25be bd55 d4bd
00000060: c976 76be 5031 5c3e 7512 e93d 8c73 97bd
00000070: 6a06 033e 42f1 0b3c a6d5 21be 32e3 5b3c
00000080: bb81 13be a164 183d 1049 84bd 7d17 ab3c
00000090: ed78 473d c19a 0c3e bc11 1abe ac22 673d

model.rnn.weight_ih_l0 f4 [160, 37]
-0.096965775 0.059728578 0.030371705 -0.17153235 -0.015880277 0.09176977 -0.045859735 -0.025831219
0.032240577 -0.15832245 0.060128145 0.13178656 -0.047040734 0.051799424 0.0974372 0.09196555
-0.04507718 -0.1587026 0.12029927 -0.09777928 0.13928956 0.10259781 0.03688876 0.010081923
-0.0034412409 0.022606734 0.13893417 -0.003541698 0.010049072 0.035175115 -0.017092273 0.010616262
-0.11693758 0.8013787 0.2864711 0.5492324 -0.13847227 0.19542982 0.15139678 0.27412865
0.088152915 0.25173676 0.14282767 0.18619554 0.1373531 0.12278725 0.28845027 0.053684212
0.11933093 0.28070992 0.108160906 0.05896362 0.034020808 0.25403324 0.28995883 0.024434194
0.14960065 0.12520877 0.20434648 -0.057685222 0.04585791 0.116369 0.061898686 0.088857844
-0.008174908 -0.016206061 0.023022013 0.09660273 0.03980972 0.10941303 -0.026566224 0.11343036
0.032807913 0.14370592 0.0149578955 0.066160694 0.1507207 -0.10713813 -0.05617674 -0.053365707
-0.09822279 0.058251545 0.030918147 0.0838193 -0.1692991 -0.12463583 0.096882336 -0.13387345
-0.030907044 -0.03991437 -0.14537537 -0.08089672 -0.032825556 -0.08368088 0.12267818 0.1566965
-0.16873956 0.029038448 0.13764168 -0.14323159 -0.12044951 0.017828383 0.019345434 -0.032154355
0.15638761 -0.013579886 -0.004759308 0.6793497 -0.34389904 -0.42273447 -0.09675447 0.07982761
-0.027984217 0.022081569 -0.029039871 0.04861433 0.017066477 0.0041522444 0.21322276 0.26200104
0.25956833 0.021618778 0.20789887 0.16355863 0.12504825 0.008608223 0.035918206 0.1585119
-0.036536906 -0.034343634 0.20916858 -0.0068238997 0.006914776 -0.02785763 0.15883909 -0.004299453
-0.0359867 0.2503633 -0.038461123 -0.021874983 0.0012476514 0.26510507 -0.0074906945 0.14873387
-0.00051265187 0.12819031 -0.15344462 0.07891729 0.17588352 -0.033950318 0.13390262 0.028248131
0.05525396 0.16801663 0.030884007 0.15980974 -0.028493032 0.18507725 -0.037807852 0.13783154
0.0030192873 0.19765902 0.09084493 0.067447364 0.11147787 0.1208696 0.11054076 0.12264625
0.066319026 0.24862544 0.056043617 0.21301478 0.035068057 0.2420748 -0.04454449 -0.0035311033
0.040738918 0.027948821 -0.047898185 0.014755408 0.037994932 -0.028114725 0.030817414 -0.03682899
0.14384373 0.049419224 -0.025234621 -0.055602737 -0.15199982 -0.16045614 -0.034374222 0.07872072
-0.08107714 -0.086582996 0.1997351 0.22045733 0.045538973 -0.04160461 -0.042006157 -0.05504177
0.14606409 -0.14464436 0.025954826 0.060420327 0.14573428 -0.06383234 0.025413228 0.14406265
-0.014396256 -0.10553722 -0.048331175 0.08644413 0.054025315 -0.054884173 -0.0065955888 -0.10479617
0.0045426562 -0.09376355 0.59812534 -0.01053056 -0.47798762 -0.11670059 -0.069736004 -0.071171574
0.11896949 -0.20731167 -0.026699422 0.04371295 0.20490631 -0.052391503 0.029468114 0.014096429
-0.024566753 0.094722226 0.23347493 0.09936131 0.084501766 0.21491726 -0.09062794 -0.14775701
0.057394896 0.1301421 0.088371605 0.016795907 -0.073835336 -0.24977122 -0.044557516 -0.13178088
0.008906637 0.0029890887 0.04308485 -0.020501649 0.18397678 0.011334604 0.09032447 0.39929762
00000000: fe95 c6bd f4a5 743d 15ce f83c 2da6 2fbe
00000010: 5b17 82bc caf1 bb3d 6bd7 3bbd fe9b d3bc
00000020: b20e 043d 481f 22be ee48 763d 0ef3 063e
00000030: c9ad 40bd a22b 543d 288d c73d 6f58 bc3d
00000040: d9a2 38bd ef82 22be 775f f63d 8140 c8bd
00000050: eca1 0e3e cd1e d23d ab18 173d a62e 253c
00000060: 7186 61bb c231 b93c c244 0e3e d51b 68bb
00000070: dda4 243c c813 103d 1805 8cbc d5ef 2d3c
00000080: f87c efbd 2827 4d3f 57ac 923e 7f9a 0c3f
00000090: adcb 0dbe c11e 483e c207 1b3e 975a 8c3e
000000a0: 8489 b43d a4e3 803e 6b41 123e 0baa 3e3e
000000b0: 4ba6 0c3e e277 fb3d c1af 933e fae3 5b3d
000000c0: c663 f43d 36b9 8f3e 7783 dd3d d683 713d
000000d0: 6759 0b3d a510 823e 7c75 943e 382a c83c
000000e0: ea30 193e ba36 003e 3440 513e 5747 6cbd
000000f0: 81d5 3b3d df52 ee3d 7a89 7d3d 1afb b53d
00000100: 0df0 05bc 93c2 84bc a998 bc3c a7d7 c53d
00000110: 840f 233d f013 e03d 69a1 d9bc 2d4e e83d
00000120: 9761 063d a527 133e f611 753c 427f 873d
00000130: 8756 1a3e 3c6b dbbd 9519 66bd 0096 5abd
00000140: 0829 c9bd 2c99 6e3d 0e48 fd3c 74a9 ab3d
00000150: be5c 2dbe 1241 ffbd 3f6a c63d 1f16 09be
00000160: c530 fdbc 407d 23bd 48dd 14be 2ead a5bd
00000170: 1774 06bd e260 abbd b33e fb3d 0c75 203e
00000180: 10ca 2cbe 0ae2 ed3c f1f1 0c3e 4dab 12be
00000190: 3cae f6bd d40c 923c 517a 9e3c 49b4 03bd
000001a0: 1324 203e 2c7e 5ebc f8f3 9bbb dde9 2d3f
000001b0: 8913 b0be a770 d8be 3527 c6bd a87c a33d
000001c0: 283f e5bc 68e4 b43c 06e5 edbc d21f 473d
000001d0: ffce 8b3c 8d0f 883b 1157 5a3e 0025 863e
000001e0: 24e6 843e dd19 b13c 71e3 543e ea7b 273e
000001f0: a60c 003e 8109 0d3c f81e 133d f250 223e
00000200: b9a7 15bd e9ab 0cbd 4a30 563e 059b dfbb
00000210: 5895 e23b af35 e4bc b7a6 223e 6de2 8cbb
00000220: ca66 13bd 9e2f 803e 6989 1dbd 2a33 b3bc
00000230: 3c88 a33a dabb 873e 8074 f5bb b14d 183e
00000240: 7c63 06ba 5244 033e 9620 1dbe 639f a13d
00000250: cf1a 343e 7d0f 0bbd c51d 093e a068 e73c
00000260: fa51 623d 8d0c 2c3e 7500 fd3c 2aa5 233e
00000270: 386a e9bc e484 3d3e 68dc 1abd b623 0d3e
00000280: 3cdf 453b 2067 4a3e e80c ba3d d821 8a3d
00000290: 824e e43d 7b8a f73d 3263 e23d f52d fb3d
000002a0: 45d2 873d ab97 7e3e fe8d 653d 8c20 5a3e
000002b0: 86a3 0f3d 75e2 773e 4874 36bd 156a 67bb
000002c0: dadd 263d edf4 e43c e330 44bd abc0 713c
000002d0: 93a0 1b3d da50 e6bc cd74 fc3c ffd9 16bd
000002e0: c54b 133e d06b 4a3d d6b8 cebc b2bf 63bd
000002f0: d7a5 1bbe 9d4e 24be fccb 0cbd 5438 a13d
00000300: c60b a6bd 6d52 b1bd 5c87 4c3e 91bf 613e
00000310: 1387 3a3d 9869 2abd a60e 2cbd 7b73 61bd
00000320: d391 153e a71d 14be 379f d43c 4e7b 773d
00000330: 5e3b 153e 88ba 82bd 672f d03c 2985 133e
00000340: 46de 6bbc e623 d8bd e9f6 45bd 9f09 b13d
00000350: a649 5d3d 3ace 60bd cf1f d8bb 609f d6bd
00000360: 90da 943b 1b07 c0bd be1e 193f 5f88 2cbc
00000370: cbba f4be b800 efbd c0d1 8ebd 67c2 91bd
00000380: 47a6 f33d 8349 54be bfb8 dabc 5a0c 333d
00000390: f6d2 513e 7998 56bd 1d67 f13c b5f4 663c
000003a0: 3740 c9bc bafd c13d 0d14 6f3e f17d cb3d
000003b0: 430f ad3d 4513 5c3e 249b b9bd 9d4d 17be
000003c0: e916 6b3d f843 053e 2cfc b43d 9297 893c
000003d0: fb36 97bd 07c4 7fbe f181 36bd 91f1 06be
000003e0: 25ed 113c 96e4 433b bd79 303d 13f3 a7bc
000003f0: 6964 3c3e c6b4 393c 09fc b83d bd70 cc3e

model.rnn.weight_hh_l0 f4 [160, 40]
-0.18015225 0.09489189 -0.013495799 0.03819162 -0.12118763 0.071640655 0.2534974 0.07489955
-0.13900964 0.075557366 -0.016063834 0.18590082 5.0902643e-05 0.22446686 -0.089363985 0.07223654
-0.0035135907 -0.07647125 -0.055385094 -0.087083735 0.21772897 0.2599508 0.0116226785 0.20869713
-0.097985424 -0.13170506 0.065159164 0.040833935 -0.047063004 -0.09897762 -0.029106347 0.122693434
0.115333416 0.042585514 -0.14583136 0.027718805 -0.008366616 -0.07500399 -0.06503894 0.2593935
-0.014810154 0.12159402 0.12747827 -0.1261123 0.17938226 -0.061466787 0.052896608 -0.1263164
0.09808327 0.042244285 -0.13378587 0.09337784 0.09870433 -0.12753987 0.14238875 0.028848343
-0.15414952 -0.10118926 -0.14325829 -0.1781345 0.16391101 -0.23366486 0.14282854 -0.3028216
0.006034577 0.27966514 0.18881413 0.09229459 -0.15565012 0.2168776 0.23879258 0.024179695
-0.15464 -0.06339018 0.16161473 -0.032898694 0.18590906 0.057193726 -0.033517096 0.032258812
-0.13035753 0.016835643 0.11032796 -0.052882716 0.08398107 0.10791515 -0.022590926 0.11037639
-0.118832745 0.062479313 -0.027040077 0.14297603 -0.027403062 0.039653122 -0.100775026 0.096471876
0.06259598 0.1226557 -0.113410644 -0.046340328 0.13042353 0.082920134 -0.07621354 0.16372113
-0.16883947 -0.13900508 -0.16639954 0.07512948 -0.06451375 0.13046683 0.06828821 0.15536071
-0.059920847 0.14966057 0.012542332 0.13837884 -0.10416749 -0.014840108 -0.07722539 0.0753871
-0.028455487 0.06493394 0.14562945 -0.1783796 -0.07482953 -0.12893778 0.005918994 0.127099
-0.00032171485 -0.05562575 -0.1849438 -0.07528939 -0.07162671 0.006954097 0.0998868 0.04483155
-0.14692508 -0.032788366 -0.101976186 0.11684108 0.17438108 -0.09805547 -0.041042477 -0.22969793
-0.09018416 0.13469532 -0.023981689 0.09202574 -0.06560034 0.16928929 0.10295282 -0.07584096
-0.18866722 -0.18726552 0.07821033 -0.038963825 0.1526178 0.020977579 -0.12936395 0.112171546
-0.14228936 -0.08951385 0.21555088 -0.15291029 0.107794814 -0.0231566 -0.040360045 -0.09798944
-0.06089941 0.03290022 0.04205335 -0.1221651 0.0010515808 0.07409959 -0.07753393 0.08480178
-0.21165551 -0.030169073 -0.15445767 -0.083716646 0.013980356 -0.076456614 0.09216345 -0.1366558
-0.030137692 0.100541525 0.05758005 0.15040548 -0.10837787 0.15717022 0.055232063 0.077462204
-0.2017397 -0.036721155 -0.0701878 -0.107829235 -0.024310805 0.05331284 -0.057927564 0.07163898
-0.18833174 0.16015512 0.1686305 -0.16752285 0.001052551 0.07903265 -0.22676572 -0.11905301
0.29829484 0.3441663 -0.1152068 -0.3289173 -0.10598329 -0.0034424562 -0.121393874 0.03426656
0.040598758 -0.043604605 0.00038022746 0.051125802 0.45447242 -0.10686848 0.07916971 0.0837964
-0.40705433 0.023579143 -0.023867615 0.13164903 -0.06582724 0.029457653 0.05895833 -0.058099296
-0.23772399 0.039439958 -0.059487894 0.03745194 0.01763391 0.13956736 0.15208353 0.18458655
-0.03945103 0.008874523 0.17685601 0.010146781 0.072138354 -0.0041083884 -0.10160533 0.05756948
-0.03459901 0.3517895 -0.15987349 -0.42400262 0.16105554 0.033987604 -0.024933526 0.0838587
00000000: d579 38be ae56 c23d 7c1d 5dbc d16e 1c3d
00000010: 3831 f8bd 56b8 923d 69ca 813e ef64 993d
00000020: 8b58 0ebe d2bd 9a3d 4d98 83bc c95c 3e3e
00000030: 4c80 5538 a4da 653e 7704 b7bd c0f0 933d
00000040: 4544 66bb f59c 9cbd 7bdb 62bd f558 b2bd
00000050: 58f4 5e3e 4518 853e 0c6d 3e3c b3b4 553e
00000060: 95ac c8bd b1dd 06be 2b72 853d 7c41 273d
00000070: 23c5 40bd c7b4 cabd 6f70 eebc b246 fb3d
00000080: ed33 ec3d 266e 2e3d d154 15be 8c12 e33c
00000090: 2214 09bc b19b 99bd 2333 85bd 3acf 843e
000000a0: 4aa6 72bc 4906 f93d aa89 023e 9523 01be
000000b0: fcaf 373e 99c4 7bbd 1daa 583d 1659 01be
000000c0: e2df c83d 5808 2d3d 2aff 08be e23c bf3d
000000d0: 7f25 ca3d d099 02be 5bce 113e 5c53 ec3c
000000e0: 5fd9 1dbe 513c cfbd 4db2 12be e468 36be
000000f0: 4ad8 273e d745 6fbe a541 123e 6f0b 9bbe
00000100: b3bd c53b 4530 8f3e 7e58 413e f204 bd3d
00000110: bf62 1fbe 2915 5e3e 0b86 743e 7f14 c63c
00000120: f359 1ebe b6d2 81bd 557e 253e c8c0 06bd
00000130: f25e 3e3e f843 6a3d 3949 09bd d121 043d
00000140: 727c 05be e7ea 893c a0f3 e13d 8c9b 58bd
00000150: 44fe ab3d 9e02 dd3d 9b10 b9bc 040d e23d
00000160: 955e f3bd 4fea 7f3d 2783 ddbc 4f68 123e
00000170: 637c e0bc 506b 223d 2363 cebd 0c93 c53d
00000180: 5232 803d e932 fb3d d743 e8bd 5bcf 3dbd
00000190: bf8d 053e 08d2 a93d d815 9cbd 83a6 273e
000001a0: 41e4 2cbe 5957 0ebe a464 2abe 7cdd 993d
000001b0: c91f 84bd 1999 053e b0da 8b3d e116 1f3e
000001c0: 906f 75bd 9f40 193e 5a7e 4d3c 2fb3 0d3e
000001d0: c455 d5bd ed23 73bc 5828 9ebd 8d64 9a3d
000001e0: 7b1b e9bc 16fc 843d e31f 153e 24a9 36be
000001f0: 3a40 99bd 4408 04be 1ff4 c13b 3e26 023e
00000200: d6ab a8b9 d4d7 63bd e861 3dbe 5331 9abd
00000210: 06b1 92bd 32df e33b 7391 cc3d 4aa1 373d
00000220: 8773 16be 184d 06bd e4d8 d0bd 604a ef3d
00000230: f490 323e 4ed1 c8bd 281c 28bd ef35 6bbe
00000240: 79b2 b8bd 92ed 093e 3f75 c4bc fe77 bc3d
00000250: 7959 86bd 2c5a 2d3e eed8 d23d 8152 9bbd
00000260: fb31 41be 88c2 3fbe bd2c a03d 8898 1fbd
00000270: d747 1c3e 2cd9 ab3c fc77 04be 32ba e53d
00000280: 4db4 11be 0a53 b7bd 5fb9 5c3e 8494 1cbe
00000290: 87c3 dc3d e9b2 bdbc 9350 25bd b0ae c8bd
000002a0: a971 79bd 62c2 063d 2240 2c3d b231 fabd
000002b0: 32d5 893a 87c1 973d 1cca 9ebd 8eac ad3d
000002c0: 39bc 58be 2225 f7bc 272a 1ebe a273 abbd
000002d0: dd0d 653c 4995 9cbd 31c0 bc3d 7fef 0bbe
000002e0: 52e3 f6bc b7e8 cd3d 0fd9 6b3d e503 1a3e
000002f0: 37f5 ddbd 3bf1 203e 043b 623d 81a4 9e3d
00000300: da94 4ebe ec68 16bd 9fbe 8fbd 93d5 dcbd
00000310: 7427 c7bc 915e 5a3d 7445 6dbd 75b7 923d
00000320: 09da 40be b4ff 233e 79ad 2c3e 1c8b 2bbe
00000330: c0f5 893a dfdb a13d 4635 68be 11d2 f3bd
00000340: 1aba 983e 9136 b03e 8bf1 ebbd d967 a8be
00000350: c40d d9bd d59a 61bb 5a9d f8bd 185b 0c3d
00000360: e24a 263d be9a 32bd 4459 c739 4a69 513d
00000370: 9cb0 e83e dddd dabd bb23 a23d 729d ab3d
00000380: 6d69 d0be 0c29 c13c 0486 c3bc 01cf 063e
00000390: 6fd0 86bd 2d51 f13c 4a7e 713d 87f9 6dbd
000003a0: eb6d 73be cb8b 213d 94a9 73bd 3567 193d
000003b0: fd74 903c bfea 0e3e c9bb 1b3e 4204 3d3e
000003c0: 6797 21bd 7366 113c be19 353e af3e 263c
000003d0: 46bd 933d a99f 86bb 7516 d0bd facd 6b3d
000003e0: b1b7 0dbd c11d b43e e0b5 23be df16 d9be
000003f0: beeb 243e 9636 0b3d 6541 ccbc 1cbe ab3d

model.rnn.bias_ih_l0 f4 [160]
-0.030336102 0.16936637 -0.088563465 0.023872461 0.19964494 0.033650603 0.19812451 -0.04334243
0.057983737 0.1426248 0.04364303 -0.00033131576 0.049284205 0.052289084 0.2669666 -0.05214619
0.026728706 0.1176645 0.22892979 -0.05937813 0.12320348 0.26412973 -0.015168506 0.2621678
0.01080621 0.085963264 0.09990387 -0.07632753 0.088769875 -0.08274267 0.10393864 0.03710932
-0.10379166 0.15480171 0.095049076 -0.06309046 0.066492505 0.0631685 0.09936139 0.035333466
0.1396259 0.047796138 0.105962224 -0.12607153 0.19029917 0.039338194 0.103404306 0.080871
0.06711198 0.13480449 0.015654117 -0.07680045 -0.005315087 -0.039845627 0.14655134 -0.04551797
0.17090274 0.07582544 0.08457658 -0.02298148 0.063610636 -0.096385464 0.16598627 -0.06639822
-0.113251865 -0.061334882 -0.0743733 -0.017032485 0.0042825043 -0.11251819 0.031147888 -0.12770306
-0.06327621 0.06344246 0.14425422 -0.115173064 0.03458425 -0.015278897 0.17750195 -0.035861112
-0.21859406 -0.096746765 0.08579552 0.076774605 -0.012661331 0.028015835 0.10345834 -0.083881676
0.086917706 -0.04061364 -0.051341467 0.14225464 0.040238313 -0.2040182 0.15783532 0.15785421
-0.095169134 -0.14132461 0.0789222 0.010081733 0.028989341 0.047709208 0.17241073 -0.04318133
0.06599938 0.15962565 0.10572013 0.16011381 -0.07117187 0.10327951 0.20035027 -0.152496
-0.025650818 -0.066946656 0.19619548 -0.1126009 0.044253875 -0.008072175 -0.0375733 0.07059623
-0.019782394 0.20272851 -0.1064361 0.02766044 -0.09461575 -0.076802135 0.23472749 0.08502402
0.06540673 0.033600513 0.089074366 -0.030897481 -0.03341596 0.019553442 0.19778682 -0.058138642
0.07288602 0.069638446 0.17318936 0.05904396 0.09474378 0.17403533 0.111898445 0.032177616
0.06236428 0.043346632 0.19434276 -0.036938865 -0.10250642 0.1397376 0.26708302 0.05376224
0.18835355 -0.10004201 0.07210718 -0.008336665 0.0266405 -0.062567554 -0.11173403 0.19885091
00000000: 6b83 f8bc 616e 2d3e c360 b5bd 2e90 c33c
00000010: b96f 4c3e 37d5 093d 27e1 4a3e d587 31bd
00000020: 5b80 6d3d 3c0c 123e 09c3 323d 73b4 adb9
00000030: 3cde 493d 142d 563d d9af 883e 3e97 55bd
00000040: 29f6 da3c 16fa f03d 926c 6a3e 7b36 73bd
00000050: 1b52 fc3d 033c 873e 5385 78bc dc3a 863e
00000060: 880c 313c 820d b03d 669a cc3d 9c51 9cbd
00000070: fbcc b53d fd74 a9bd c8dd d43d f1ff 173d
00000080: b990 d4bd 5784 1e3e 17a9 c23d 9235 81bd
00000090: 392d 883d 7d5e 813d fc7d cb3d d3b9 103d
000000a0: 18fa 0e3e e2c5 433d b902 d93d e518 01be
000000b0: c9dd 423e 1621 213d a3c5 d33d b29f a53d
000000c0: 0172 893d 300a 0a3e 103d 803c 8e49 9dbd
000000d0: 2e2a aebb 2b35 23bd 8e11 163e 0d71 3abd
000000e0: 2101 2f3e 5e4a 9b3d 7c36 ad3d a843 bcbc
000000f0: 4b46 823d be65 c5bd 4ef8 293e cafb 87bd
00000100: 98f0 e7bd 493a 7bbd 0751 98bd b687 8bbc
00000110: 4054 8c3b f06f e6bd db29 ff3c 97c4 02be
00000120: f596 81bd 1fee 813d 61b7 133e dbdf ebbd
00000130: 37a8 0d3d 5754 7abc 12c3 353e 1ae3 12bd
00000140: 1fd7 5fbe 2b23 c6bd 90b5 af3d 013c 9d3d
00000150: 7971 4fbc 7781 e53c f7e1 d33d 28ca abbd
00000160: e901 b23d 7d5a 26bd 6e4b 52bd 33ab 113e
00000170: eed0 243d 26ea 50be 959f 213e 89a4 213e
00000180: 09e8 c2bd 66b7 10be f6a1 a13d da2d 253c
00000190: 0e7b ed3c bb6a 433d 708c 303e e8de 30bd
000001a0: af2a 873d e874 233e cc83 d83d e0f4 233e
000001b0: 8fc2 91bd 3584 d33d 9f28 4d3e e927 1cbe
000001c0: aa21 d2bc 541b 89bd 78e7 483e 4d9b e6bd
000001d0: 8d43 353d 2841 04bc 76e6 19bd c294 903d
000001e0: b00e a2bc 1098 4f3e 2cfb d9bd 2698 e23c
000001f0: e7c5 c1bd 704a 9dbd 675c 703e 1321 ae3d
00000200: f7f3 853d b1a0 093d 9f6c b63d b71c fdbc
00000210: 2cdf 08bd 8a2e a03c a188 4a3e c922 6ebd
00000220: 4445 953d 9a9e 8e3d 8d58 313e 14d8 713d
00000230: 0709 c23d 5136 323e 032b e53d adcc 033d
00000240: b071 7f3d 3d8c 313d ca01 473e 354d 17bd
00000250: e3ee d1bd 6017 0f3e 1bbf 883e cb35 5c3d
00000260: c1df 403e d3e2 ccbd eeac 933d 8296 08bc
00000270: 2e3d da3c 6b23 80bd d0d4 e4bd 939f 4b3e

model.rnn.bias_hh_l0 f4 [160]
-0.09446189 0.27175575 0.1675568 0.06485984 0.061655454 -0.009850115 0.014252076 0.15219356
-0.0217708 -0.035448372 0.24095793 0.0051160385 0.07182812 -0.013007766 0.28631568 0.18848716
0.17392603 -0.048883643 0.1807396 -0.053914085 0.07766983 0.0930414 0.09410887 0.034834698
-0.0044338536 0.01346234 0.25186938 0.17532279 0.2506448 -0.104602724 0.060773276 0.24197958
0.063131325 -0.057896346 0.22612204 0.056120798 0.0130967405 0.04218443 0.12762378 0.037193205
-0.07066878 0.15553607 -0.050707784 -0.052711103 -0.01747481 0.14941333 0.029575188 -0.11120344
-0.11001151 0.09246783 0.040840544 -0.09881096 -0.012389986 0.121250205 -0.025485467 0.21530356
0.16750771 0.087441035 0.1422563 0.012198608 -0.13271858 -0.03017276 -0.057048786 0.110666685
-0.089905985 -0.060262155 0.05491827 0.04555184 0.033088207 -0.07914385 0.058559936 0.045799863
-0.016534278 0.12665135 -0.05039052 0.051458664 0.062886104 -0.00614549 0.026213521 -0.0065905433
-0.09659418 0.022236003 0.070512846 -0.08120582 -0.043474566 -0.09852164 -0.09646002 -0.08363982
-0.17504993 -0.0074509867 -0.082484566 0.14934087 -0.07470318 0.03724654 0.18078014 -0.1419798
0.057230804 -0.0045738663 0.060844652 0.04476137 -0.18252787 -0.02282904 0.13001952 -0.04521673
-0.02763797 0.22087964 0.10399688 -0.0053220694 -0.24827139 0.24142209 -0.07938074 0.11673712
-0.037033405 0.049442608 -0.0719793 -0.00094793836 -0.1137256 0.07618028 0.061148196 0.088906944
-0.010932849 0.24092528 0.12808037 -0.10887926 -0.087530926 0.110016316 0.1372407 0.0944429
0.11092861 0.010276961 -0.023037445 0.039672315 -0.00786504 -0.059416495 -0.02747507 -0.09740447
-0.0790955 0.05825645 0.059087824 -0.11025561 -0.028521126 0.068271086 -0.0050221104 0.14127886
0.06409384 -0.017300233 0.0560688 0.13567582 0.13168003 0.017088955 0.18411797 -0.033644963
-0.10607493 -0.0037047535 0.028807865 -0.09445789 0.03396911 -0.037046265 0.021631306 0.02582224
00000000: 3c75 c1bd 9223 8b3e 0394 2b3e 3cd5 843d
00000010: 6e8a 7c3d 6062 21bc 8a81 693c a1d8 1b3e
00000020: ad58 b2bc 5032 11bd adbd 763e 71a4 a73b
00000030: 9f1a 933d 861e 55bc f897 923e c702 413e
00000040: aa19 323e 373a 48bd cd13 393e 04d5 5cbd
00000050: 5c11 9f3d 7d8c be3d 27bc c03d d4ae 0e3d
00000060: dc49 91bb 2691 5c3c 06f5 803e d187 333e
00000070: 8454 803e f439 d6bd 66ed 783d 7fc9 773e
00000080: ff4a 813d b824 6dbd 898c 673e ecde 653d
00000090: b693 563c 95c9 2c3d cfaf 023e e757 183d
000000a0: cbba 90bd d944 1f3e f7b2 4fbd 99e7 57bd
000000b0: 5527 8fbc cfff 183e aa47 f23c a1be e3bd
000000c0: b74d e1bd c65f bd3d 6a48 273d 675d cabd
000000d0: 5eff 4abc 0752 f83d e6c6 d0bc 8978 5c3e
000000e0: 2487 2b3e 4914 b33d a3ab 113e acdc 473c
000000f0: 61e7 07be dd2c f7bc fdab 69bd 37a5 e23d
00000100: a120 b8bd 73d5 76bd fbf1 603d 9194 3a3d
00000110: 8087 073d 2c16 a2bd 8bdc 6f3d a398 3b3d
00000120: e572 87bc e4b0 013e 4a66 4ebd 52c6 523d
00000130: 6eca 803d 1b60 c9bb bdbd d63c 7cf5 d7bb
00000140: 2bd3 c5bd 4728 b63c 0a69 903d 3d4f a6bd
00000150: 6312 32bd b7c5 c9bd d58c c5bd 5b4b abbd
00000160: 4a40 33be 6827 f4bb abed a8bd d0ec 183e
00000170: fbfd 98bd d48f 183d 6e1e 393e 2763 11be
00000180: d96a 6a3d 5fe0 95bb 3e38 793d b357 373d
00000190: 96e8 3abe f803 bbbc d623 053e 2e35 39bd
000001a0: 0669 e2bc 462e 623e 51fc d43d c164 aebb
000001b0: db3a 7ebe 5a37 773e 5f92 a2bd df13 ef3d
000001c0: 57b0 17bd 5584 4a3d e269 93bd 117f 78ba
000001d0: f8e8 e8bd 6804 9c3d 8876 7a3d d814 b63d
000001e0: b11f 33bc 1eb5 763e 8027 033e 17fc debd
000001f0: 6a43 b3bd 3c50 e13d d388 0c3e 476b c13d
00000200: 8a2e e33d b360 283c 06b9 bcbc 707f 223d
00000210: 5edc 00bc b65e 73bd 6613 e1bc ff7b c7bd
00000220: d2fc a1bd 519e 6e3d 1306 723d b1cd e1bd
00000230: 23a5 e9bc b6d1 8b3d 8490 a4bb 68ab 103e
00000240: a243 833d 38b9 8dbc 66a8 653d 9aee 0a3e
00000250: 21d7 063e 23fe 8b3c 6c89 3c3e 4dcf 09bd
00000260: d03d d9bd 73cb 72bb 79fe eb3c 2373 c1bd
00000270: 3223 0b3d d3bd 17bd 2334 b13c 2a89 d33c

model.rnn.weight_ih_l1 f4 [160, 40]
-0.1370332 0.07517697 0.0807271 0.09237405 0.15730272 -0.051180158 -0.075965784 -0.017912226
-0.061719734 0.15568998 -0.0910483 -0.02530977 -0.052440885 0.102060705 -0.0956153 -0.09066801
0.119510725 -0.17432873 -0.037843406 0.10794677 0.0375299 -0.054705884 0.10481717 0.027730629
0.11913479 0.08730318 0.05715007 0.027242875 0.10193426 -0.074285835 0.17176448 -0.09723282
0.08359494 0.1519575 -0.06067643 -0.15938473 -0.040547896 -0.05132654 -0.11932402 -0.25428253
0.013732835 0.16626723 0.0957813 0.046661038 -0.0010013572 0.058467858 -0.00015647258 -0.10940005
0.28966367 0.049115468 0.02817691 -0.23683932 -0.09757582 -0.13131152 0.12981835 -0.22046033
-0.20710963 -0.20743886 -0.10989729 0.04813023 -0.020186964 -0.20716652 -0.04270278 -0.2202497
-0.037433084 0.18350057 0.16749331 0.14882722 -0.04068933 0.13452773 0.15153573 -0.009626775
-0.17681986 -0.20631455 0.109573975 0.16079058 0.16258991 0.09148459 0.029352102 0.23440976
0.057996854 0.14594626 0.1646533 0.021413827 0.19617136 1.2388941e-05 -0.0799767 -0.15556176
0.33106527 0.035358474 -0.074523866 -0.3615613 0.13058022 -0.24432063 0.12321123 -0.29017818
-0.011391624 -0.041263822 -0.0021950852 -0.26005942 -0.5143104 -0.32683817 0.08860631 -0.26422122
-0.21451825 0.3667126 -0.0040704575 0.036219947 -0.22209333 0.19696677 0.3372199 -0.01343768
-0.5073289 -0.18364187 0.17718253 -0.23675905 -0.00978937 -0.017748289 -0.23868324 0.41440666
0.07979577 0.14031425 -0.04333781 0.018019194 0.093881495 0.04525476 -0.11021914 -0.12730432
0.31834224 -0.2518479 -0.09246148 -0.52100104 -0.042620987 -0.323965 0.111773916 -0.3563771
-0.26429743 -0.2706666 -0.25785595 -0.0009016774 -0.32595375 -0.4143136 0.10168885 -0.55544853
-0.04373441 0.4210393 0.13316348 0.2786845 -0.35738066 0.07689385 0.09886216 -0.14654921
-0.6099512 -0.14615275 0.16377707 -0.06258748 -0.04469587 0.087983504 -0.11066571 0.32714984
0.14690873 -0.14031218 0.11419733 0.13631618 -0.04156347 0.08815048 -0.096819304 0.09933922
0.2980366 -0.18403226 0.021767829 -0.18100908 0.07813087 0.028801063 0.0319691 0.13979843
0.05716717 -0.15597503 -0.12399302 -0.32479966 -0.15213571 0.06437228 -0.1020784 -0.12091154
-0.22693716 -0.062113386 -0.024818137 0.10681643 -0.18872105 0.11133493 0.09687787 -0.02847122
-0.2038956 0.05284174 -0.10343392 -0.08465703 0.14801253 -0.004634772 -0.12302445 0.33248237
-0.051892553 0.061015885 0.13877106 -0.24752852 0.036623046 0.28174716 -0.16477174 -0.22046949
0.24482217 -0.16506748 -0.03289273 -0.32838002 0.05311023 -0.1209136 0.0618549 -0.14173824
-0.11001795 -0.098371066 -0.07022862 -0.058608267 0.03336922 -0.18474302 0.24051553 -0.03849884
-0.11602179 0.2619681 0.036566522 0.029368995 -0.24845684 0.24719621 0.18762071 -0.13241465
-0.33356974 0.016782431 0.25734496 -0.056859203 -0.011759537 0.08244712 -0.265436 0.16078366
-0.08355706 0.0008890119 0.022115199 0.046292506 0.14479396 -0.13268253 -0.14432558 -0.039785806
0.19614029 -0.12199738 -0.16621946 0.017492332 0.029158657 -0.09621118 -0.10302745 -0.1648263
00000000: 6e52 0cbe 62f6 993d 4054 a53d 9b2e bd3d
00000010: f713 213e 49a2 51bd f393 9bbd a9bc 92bc
00000020: d5cd 7cbd 326d 1f3e 8877 babd 6f56 cfbc
00000030: 41cc 56bd 3405 d13d f4d1 c3bd 26b0 b9bd
00000040: 0ac2 f43d 3b83 32be b001 1bbd 3213 dd3d
00000050: f4b8 193d 4713 60bd 62aa d63d 582b e33c
00000060: f1fc f33d 02cc b23d 3116 6a3d 732c df3c
00000070: e9c2 d03d 2c23 98bd 07e3 2f3e 0022 c7bd
00000080: d333 ab3d bf9a 1b3e d987 78bd c035 23be
00000090: 8d15 26bd c73b 52bd 2760 f4bd 5231 82be
000000a0: afff 603c f541 2a3e fc28 c43d a51f 3f3d
000000b0: f93f 83ba fe7b 6f3d ca12 24b9 220d e0bd
000000c0: cc4e 943e 4d2d 493d 43d3 e63c 0286 72be
000000d0: d5d5 c7bd 8776 06be 1aef 043e 5ac0 61be
000000e0: 8c14 54be da6a 54be d511 e1bd 3424 453d
000000f0: 225f a5bc 7623 54be 1ce9 2ebd 2389 61be
00000100: 6f53 19bd 93e7 3b3e 5e83 2b3e 2a66 183e
00000110: dba9 26bd a3c1 093e 2f2c 1b3e 9fb9 1dbc
00000120: 4410 35be 1f44 53be 5268 e03d 49a6 243e
00000130: f87d 263e 465c bb3d d273 f03c 1d09 703e
00000140: 1c8e 6d3d f072 153e e09a 283e 0d6c af3c
00000150: 25e1 483e 19da 4f37 d3ca a3bd 954b 1fbe
00000160: 6381 a93e 0cd4 103d f89f 98bd 901e b9be
00000170: d2b6 053e 302f 7abe 2b56 fc3d 3c92 94be
00000180: efa3 3abc 4104 29bd 6bdb 0fbb 8226 85be
00000190: d9a9 03bf 5557 a7be 3a77 b53d 0148 87be
000001a0: acaa 5bbe c1c1 bb3e 7961 85bb 5e5b 143d
000001b0: 6f6c 63be a8b1 493e 16a8 ac3e b729 5cbc
000001c0: 4fe0 01bf 9d0c 3cbe 566f 353e f770 72be
000001d0: 9863 20bc dc64 91bc 6169 74be 1c2d d43e
000001e0: f76b a33d 8aae 0f3e fd82 31bd fd9c 933c
000001f0: f144 c03d 0e5d 393d 93ba e1bd 105c 02be
00000200: c1fd a23e 35f2 80be 725c bdbd 5360 05bf
00000210: 5893 2ebd bede a5be b9e9 e43d 0f77 b6be
00000220: fe51 87be d094 8abe b205 84be 8c5e 6cba
00000230: 69e3 a6be ea20 d4be 3e42 d03d e031 0ebf
00000240: da22 33bd 7792 d73e 025c 083e bcaf 8e3e
00000250: 99fa b6be 867a 9d3d 3f78 ca3d ff10 16be
00000260: c325 1cbf 11a9 15be 2db5 273e dd2d 80bd
00000270: 0413 37bd b230 b43d b4a4 e2bd 2f80 a73e
00000280: 3e6f 163e ffad 0fbe 4ae0 e93d 7896 0b3e
00000290: 753e 2abd 3d88 b43d 3349 c6bd 5c72 cb3d
000002a0: 4198 983e f472 3cbe 7252 b23c 725a 39be
000002b0: 1403 a03d 35f0 eb3c 08f2 023d 5227 0f3e
000002c0: 1f28 6a3d ebb7 1fbe 0df0 fdbd 244c a6be
000002d0: 77c9 1bbe 9dd5 833d 7b0e d1bd 78a0 f7bd
000002e0: 3762 68be 9b6a 7ebd 684f cbbc 93c2 da3d
000002f0: 1740 41be 9103 e43d e867 c63d 7a3c e9bc
00000300: 02ca 50be 9570 583d 2ad5 d3bd aa60 adbd
00000310: 9990 173e 49df 97bb 3ef4 fbbd 213b aa3e
00000320: 498d 54bd cbeb 793d 001a 0e3e 1e78 7dbe
00000330: 0c02 163d 2a41 903e ecb9 28be c1c2 61be
00000340: aab2 7a3e 7307 29be 87ba 06bd 6d21 a8be
00000350: 1d8a 593d 8da1 f7bd 905b 7d3d d423 11be
00000360: 1751 e1bd c576 c9bd 06d4 8fbd 390f 70bd
00000370: 2aae 083d 462d 3dbe b449 763e f6b0 1dbd
00000380: d59c edbd af20 863e c7c6 153d 3f97 f03c
00000390: 786b 7ebe 0121 7d3e a51f 403e b597 07be
000003a0: a7c9 aabe 4f7b 893c b8c2 833e 32e5 68bd
000003b0: 13ab 40bc 09da a83d 3ae7 87be 79a4 243e
000003c0: f71f abbd 940c 693a ef2a b53c 369d 3d3d
000003d0: de44 143e eedd 07be 16ca 13be 71f6 22bd
000003e0: 00d9 483e c3d9 f9bd 6f35 2abe 144c 8f3c
000003f0: 23de ee3c 5e0a c5bd 0e00 d3bd 3ac8 28be

model.rnn.weight_hh_l1 f4 [160, 40]
0.054252066 0.07834917 0.12657836 0.0053493422 0.12219476 -0.060557313 0.097194575 0.03031505
-0.04671513 0.08513286 -0.15518776 -0.0945506 -0.1551866 0.035257846 0.10727083 0.16395895
-0.05981146 0.059537668 0.1371314 0.077104785 0.11459529 -0.17200322 0.15685461 -0.032968737
0.029274281 -0.036073178 -0.055135608 -0.02690102 -0.034992225 0.17841154 0.08579157 -0.04609378
0.0010306039 0.11429202 0.07870495 -0.1387704 -0.12956662 0.061791256 -0.0588908 0.070805125
0.031509265 -0.14105767 0.024292279 -0.116181806 0.0950862 -0.026445402 0.06343862 -0.076792836
-0.12157587 0.12529789 -0.14964685 -0.10508128 0.109506674 -0.027474036 -0.044937234 -0.11876324
0.07563533 0.17286618 -0.14140624 0.115608275 -0.016004136 -0.11017926 0.09914786 -0.01948152
0.039290056 0.09444773 -0.00417411 -0.1308492 -0.058788873 0.090887934 0.042685874 0.12770645
0.00441867 0.0070587317 -0.12328884 0.047350418 -0.10256919 0.007863314 0.06876511 -0.09762711
-0.09177465 -0.10142529 -0.04765725 -0.012066375 0.042407177 -0.071681395 0.068575926 0.2172737
0.15333164 0.11911507 -0.08728905 -0.12956123 0.044290137 0.12853895 -0.14225025 0.12425441
-0.073710494 -0.003029013 -0.12684982 -0.07510373 -0.0625452 0.0040629916 -0.09686845 -0.059665363
0.0943946 -0.058421593 0.07288638 0.058131404 0.06407563 -0.08126407 -0.03223431 0.15650542
-0.19086076 0.00059984246 -0.13421966 0.029387366 0.024376057 -0.036778573 0.15871143 0.118163876
0.0023906212 -0.005156698 0.05931472 -0.106232285 -0.16651292 -0.07039394 -0.06418115 0.08860488
0.14079583 0.16869836 0.0843671 -0.06653058 -0.10458195 -0.06833183 -0.09509212 -0.09088007
0.0068358765 0.19581112 -0.028277706 -0.0013307994 -0.06586404 0.018314488 -0.042693853 -0.14050654
-0.097120225 -0.18233468 -0.04081565 -0.004925434 -0.16920021 0.057490878 0.020983657 -0.102027215
-0.037562024 -0.065790094 -0.13982594 -0.11404459 0.005145973 0.011339084 -0.0006063298 0.17674515
0.08193205 0.14792146 0.107053556 -0.020521134 -0.113346055 -0.0111263925 -0.17013463 -0.060121097
-0.12961845 -0.06314687 0.11262271 -0.14189231 0.13406543 -0.004913328 0.1631218 0.034276836
-0.10759606 0.078574926 0.08665023 -0.041911457 0.035347596 0.07609776 -0.18245575 -0.1411002
0.08929198 0.010660449 -0.04710131 -0.08968601 0.031692415 -0.14420937 -0.04097888 -0.17690511
0.06683798 -0.06032956 0.13652712 -0.018641438 -0.038668454 -0.052492432 -0.094159655 0.1782846
0.10634357 -0.19193451 0.005169971 0.04723118 -0.04780576 0.0050813635 -0.057758972 0.12022937
0.15452462 0.19100505 -0.06495793 0.054454315 -0.03362779 0.18534502 -0.1642066 -0.029308977
-0.030808616 0.07258762 -0.121250495 0.004655279 0.12852901 -0.013084977 -0.050273962 0.07862676
-2.1986891e-06 -0.16757526 0.12714963 0.047877852 0.06288267 -0.022331493 -0.012300774 -0.03852021
0.005627768 -0.106401846 -0.110863045 -0.04861741 -0.10228016 -0.021288715 0.12514658 -0.047033165
-0.10815794 0.12736169 0.07427631 -0.026880069 0.0033893501 -0.15649968 -0.03150266 -0.043174274
0.14083709 -0.14316122 -0.06382611 -0.058192864 0.050747342 0.04319701 0.07309979 0.10574983
00000000: 6a37 5e3d 8875 a03d c29d 013e 8949 af3b
00000010: 3f41 fa3d f20a 78bd f30d c73d 4557 f83c
00000020: 5d58 3fbd 235a ae3d 8ae9 1ebe bfa3 c1bd
00000030: 3ce9 1ebe 886a 103d cfb0 db3d dbe4 273e
00000040: ddfc 74bd c5dd 733d 2c6c 0c3e 1de9 9d3d
00000050: efb0 ea3d 9d21 30be 7f9e 203e 3a0a 07bd
00000060: 9ed0 ef3c 78c1 13bd e0d5 61bd 875f dcbc
00000070: 0254 0fbd 84b1 363e 7eb3 af3d d5cc 3cbd
00000080: 5415 873a ef11 ea3d 1030 a13d d419 0ebe
00000090: 1dad 04be d418 7d3d 7b37 71bd 4702 913d
000000a0: dc0f 013d 6c71 10be 9a00 c73c baf0 edbd
000000b0: 8ebc c23d 07a4 d8bc 1bec 813d 9045 9dbd
000000c0: c5fc f8bd 174e 003e 063d 19be db34 d7bd
000000d0: 0945 e03d 3b11 e1bc 1b10 38bd 243a f3bd
000000e0: b2e6 9a3d d503 313e cccc 10be 08c4 ec3d
000000f0: 1b1b 83bc aaa5 e1bd 090e cb3d b597 9fbc
00000100: 9cee 203d d06d c13d f9c6 88bb 55fd 05be
00000110: 9acc 70bd 7423 ba3d 62d7 2e3d 7bc5 023e
00000120: 7eca 903b ef4c e73b dc7e fcbd 83f2 413d
00000130: cc0f d2bd 21d5 003c b9d4 8c3d b9f0 c7bd
00000140: 59f4 bbbd 10b8 cfbd 4034 43bd 0cb2 45bc
00000150: 26b3 2d3d b2cd 92bd 8971 8c3d ff7c 5e3e
00000160: f802 1d3e 9af2 f33d 9ac4 b2bd b3ab 04be
00000170: 9369 353d b79f 033e 0daa 11be 1979 fe3d
00000180: 87f5 96bd 6882 46bb ebe4 01be fccf 99bd
00000190: b317 80bd d822 853b f762 c6bd ab63 74bd
000001a0: f551 c13d 7b4b 6fbd 7445 953d 321b 6e3d
000001b0: 153a 833d c76d a6bd 2008 04bd f542 203e
000001c0: 0171 43be bf3e 1d3a e170 09be c6bd f03c
000001d0: 4cb0 c73c 21a5 16bd 4085 223e e7ff f13d
000001e0: f8ab 1c3b 85f9 a8bb fef3 723d 5090 d9bd
000001f0: 5d82 2abe b32a 90bd 6871 83bd 7a76 b53d
00000200: c82c 103e 43bf 2c3e a8c8 ac3d 2f41 88bd
00000210: 102f d6bd 8ff1 8bbd a8bf c2bd 551f babd
00000220: 7dff df3b b682 483e a6a6 e7bc 386e aeba
00000230: bae3 86bd 4408 963c c0df 2ebd f2e0 0fbe
00000240: f8e6 c6bd f1b5 3abe 502e 27bd 8965 a1bb
00000250: d242 2dbe 8e7b 6b3d ebe5 ab3c a5f3 d0bd
00000260: a3da 19bd f5bc 86bd 882e 0fbe 3690 e9bd
00000270: 8d9f a83b 91c7 393c 1bf2 1eba aefc 343e
00000280: fecb a73d b978 173e e53e db3d f01b a8bc
00000290: fa21 e8bd 794b 36bc c637 2ebe 8a41 76bd
000002a0: b3ba 04be 2553 81bd bca6 e63d 384c 11be
000002b0: 7348 093e fcff a0bb 6709 273e de65 0c3d
000002c0: 535b dcbd e4eb a03d ad75 b13d 59ab 2bbd
000002d0: a4c8 103d 24d9 9b3d aed5 3abe 927c 10be
000002e0: b7de b63d 2aa9 2e3c 4eed 40bd 4cad b7bd
000002f0: e8cf 013d 9fab 13be 78d9 27bd 9d26 35be
00000300: 5ae2 883d 211c 77bd c4cd 0b3e eeb5 98bc
00000310: d062 1ebd 4e02 57bd c7d6 c0bd 3d90 363e
00000320: a8ca d93d 7b8a 44be dc68 a93b 7b75 413d
00000330: f9cf 43bd 9181 a63b ac94 6cbd d13a f63d
00000340: b43b 1e3e d496 433e aa08 85bd 7d0b 5f3d
00000350: 4bbd 09bd 16cb 3d3e c625 28be 6119 f0bc
00000360: 5a62 fcbc d1a8 943d 2e52 f8bd 508b 983b
00000370: 1c9d 033e 5f62 56bc 12ec 4dbd 1107 a13d
00000380: 318d 13b6 d998 2bbe 8333 023e 911b 443d
00000390: a1c8 803d 89f0 b6bc 3089 49bc 5ec7 1dbd
000003a0: 2469 b83b 36e9 d9bd 2a0c e3bd 0d23 47bd
000003b0: 4378 d1bd ac65 aebc 6d26 003e d9a5 40bd
000003c0: e981 ddbd 1a6b 023e 2e1e 983d 9733 dcbc
000003d0: dc1f 5e3b 7441 20be ef08 01bd 82d7 30bd
000003e0: 9937 103e db98 12be 43b7 82bd a45b 6ebd
000003f0: 72dc 4f3d 59ef 303d 58b5 953d 5e93 d83d

model.rnn.bias_ih_l1 f4 [160]
-0.06351811 0.080900975 0.16656104 0.12190987 -0.0967233 0.02714091 0.011776653 0.24221215
-0.13152163 0.03578708 -0.021768698 0.19102693 0.13268483 0.27400735 0.08975499 0.21292962
-0.07568378 -0.012024739 0.21838035 -0.09189623 0.009342329 0.12014384 0.06645247 -0.08509431
-0.02186769 0.093690924 0.120366246 0.0723774 0.033757474 0.15528858 0.1395637 0.093246035
-0.13714953 -0.13684535 0.014885305 0.12969637 -0.14605476 0.112908855 0.2357944 -0.047511842
0.0213112 -0.03580413 0.14549254 0.039488006 -0.09873074 0.17864071 0.16141562 -0.065148905
0.08133905 -0.05773395 -0.13827553 0.002194778 0.033650022 0.07013147 0.01412464 -0.15891965
-0.037740126 0.018335998 -0.07449381 0.15180719 -0.035928875 -0.035197783 -0.17117329 -0.03944263
-0.057840172 -0.05774795 0.13530587 0.12587346 0.087091625 0.067714214 0.011628448 0.08506873
-0.022410912 0.08401439 -0.14608666 0.08851645 0.062100954 0.010163657 -0.088708006 0.08624132
0.035584085 -0.20697774 0.14598104 -0.12747309 -0.2282113 -0.10130934 0.021780469 0.15957926
-0.06756004 0.13251846 0.06875894 -0.13235459 0.13949682 0.19505551 -0.18571082 -0.11522781
0.081088305 0.022177102 -0.09262397 0.012638162 0.080407515 0.029545754 0.08105287 -0.026714735
-0.013887817 -0.120218135 0.07049259 -0.039602883 -0.01159252 0.13661696 0.20348229 0.05619931
-0.04844892 0.06841751 0.008833021 -0.18669729 -0.15054367 -0.058400013 0.033376753 0.039339058
-0.017608387 -0.025589667 0.19782369 -0.036297582 0.1435184 -0.013492458 0.0073177675 0.031519957
-0.06426541 0.108085856 0.13487943 0.082522556 0.14997454 0.27631664 0.0007783293 -0.028073557
-0.026475122 0.032458175 0.09729757 0.06586873 -0.07071539 0.13915038 0.038656104 -0.09666967
-0.11452936 0.19409005 0.23717435 0.031776305 0.101477906 0.100166626 0.21303782 -0.10566115
0.12135479 0.044595283 0.05921099 0.11704346 0.049219474 -0.052294675 -0.007955824 -0.049572997
00000000: c815 82bd 69af a53d fa8e 2a3e e2ab f93d
00000010: de16 c6bd 9d56 de3c ddf2 403c 7606 783e
00000020: 9bad 06be 7995 123d 4554 b2bc 909c 433e
00000030: 88de 073e b14a 8c3e 77d1 b73d 390a 5a3e
00000040: 1900 9bbd 6903 45bc 199f 5f3e 1734 bcbd
00000050: 9110 193c f90d f63d 3c18 883d ed45 aebd
00000060: df23 b3bc 07e1 bf3d 9482 f63d 9a3a 943d
00000070: 4745 0a3d f803 1f3e c9e9 0e3e c7f7 be3d
00000080: ed70 0cbe 3021 0cbe 7fe1 733c 20cf 043e
00000090: 618f 15be c23c e73d 1674 713e c79b 42bd
000000a0: d394 ae3c 5aa7 12bd fffb 143e 2dbe 213d
000000b0: 5833 cabd 97ed 363e 234a 253e ca6c 85bd
000000c0: 1695 a63d 6f7a 6cbd 1a98 0dbe 44d6 0f3b
000000d0: 9bd4 093d 17a1 8f3d 096b 673c d5bb 22be
000000e0: 6495 1abd 6035 963c 3690 98bd 5873 1b3e
000000f0: 282a 13bd 8d2b 10bd 0d48 2fbe 988e 21bd
00000100: d1e9 6cbd 1d89 6cbd 9f8d 0a3e f9e4 003e
00000110: 185d b23d c0ad 8a3d 3f85 3e3c 8438 ae3d
00000120: 1797 b7bc bd0f ac3d be97 15be 1d48 b53d
00000130: 925d 7e3d 7885 263c 8bac b5bd 4a9f b03d
00000140: 9ec0 113d f9f1 53be 0e7c 153e 4e88 02be
00000150: 39b0 69be 457b cfbd f46c b23c bf68 233e
00000160: eb5c 8abd ebb2 073e 7dd1 8c3d f687 07be
00000170: 41d8 0e3e a2bc 473e fa2a 3ebe 8ffc ebbd
00000180: a011 a63d c1ac b53c a3b1 bdbd 4b10 4f3c
00000190: b2ac a43d f009 f23c 0cff a53d dcd8 dabc
000001a0: ba89 63bc ed34 f6bd 6b5e 903d a236 22bd
000001b0: 8eee 3dbc 51e5 0b3e a95d 503e 3f31 663d
000001c0: 6072 46bd 7b1e 8c3d 60b8 103c 932d 3fbe
000001d0: 1f28 1abe da34 6fbd 10b6 083d fe21 213d
000001e0: 773f 90bc 6ca1 d1bc 4b92 4a3e c6ac 14bd
000001f0: 7df6 123e 780f 5dbc e2c9 ef3b 121b 013d
00000200: 959d 83bd 1e5c dd3d d51d 0a3e 9601 a93d
00000210: ed92 193e 6079 8d3e cc08 4c3a 84fa e5bc
00000220: 5be2 d8bc ddf2 043d f343 c73d 2fe6 863d
00000230: 3bd3 90bd 707d 0e3e dd55 1e3d bffa c5bd
00000240: 5e8e eabd 8bbf 463e d5dd 723e df27 023d
00000250: a6d3 cf3d 2924 cd3d 9626 5a3e df64 d8bd
00000260: dc88 f83d 8ba9 363d 3987 723d 7bb4 ef3d
00000270: 5c9a 493d f132 56bd 2559 02bc 0e0d 4bbd

model.rnn.bias_hh_l1 f4 [160]
-0.11110668 0.19941011 0.12797564 0.2927453 0.014123563 0.041319247 0.03527563 0.2448664
-0.08645193 0.16722234 0.05083559 0.24232674 0.046257723 0.03355529 0.21315868 -0.076853015
0.08279063 0.22105367 -0.07405003 -0.045080796 0.16144463 0.16088693 0.012272089 0.1436754
-0.08492938 0.16130157 0.2766222 -0.02510567 -0.0056043873 -0.058890454 -0.012211184 0.01653156
-0.15257695 -0.14731419 -0.079222746 0.13374515 -0.11890393 0.0717037 0.3072344 -0.14417164
0.12956017 0.022165908 0.0753325 0.19553992 0.07687385 -0.100821495 0.022107683 0.16411343
-0.16373786 -0.022287525 0.101990014 -0.0982164 0.16193786 -0.081488065 0.019426303 0.07372869
-0.1273235 0.13905364 0.07126311 -0.05891661 0.11631571 -0.014292547 0.06968744 -0.08545133
-0.07800255 -0.08783026 0.10449167 0.13188526 0.1369894 0.13152473 0.16295321 0.071618
-0.104441844 -0.08555361 -0.010676476 0.08025023 -0.020762552 0.13133867 0.09765012 0.15363069
-0.023726158 -0.13747519 0.05547109 -0.046007905 -0.23025556 -0.046216357 0.1167112 -0.013699612
-0.07952197 -0.07848503 0.10410379 -0.12288643 -0.017347958 -0.049747676 -0.22968341 -0.16171837
0.05069804 0.09288163 -0.19168925 0.003376121 0.11283573 -0.012975989 -0.005071037 0.0393051
0.10362217 -0.17006685 -0.052013855 0.14927967 0.06561836 0.05334321 0.15657006 0.063500926
0.10110486 -0.010252431 0.0008297198 -0.013323443 0.035916902 -0.18396443 0.19114038 0.02051208
-0.062195748 0.16950749 0.15824476 -0.032725114 0.15843485 -0.004932115 0.1452237 0.1365688
-0.078259185 0.12781467 -0.13482314 0.19286717 0.05010952 0.124470815 0.21334572 0.014225403
0.007595841 0.103566654 0.0029244567 -0.058935534 0.122483954 -0.07059734 0.00493165 0.027672552
0.06795328 0.027367856 0.09312796 0.1577579 -0.034160074 0.14381608 0.19919075 -0.066123754
-0.07920051 -0.05227148 0.00613657 -0.0038720241 0.06642133 0.09551856 0.24002422 0.095477
00000000: e68b e3bd 2a32 4c3e 0c0c 033e b6e2 953e
00000010: 8466 673c 5f3e 293d 2e7d 103d 42be 7a3e
00000020: b60d b1bd 553c 2b3e fb38 503d 8024 783e
00000030: bd78 3d3d 4671 093d 4546 5a3e 1d65 9dbd
00000040: 228e a93d e55b 623e 8ba7 97bd a4a6 38bd
00000050: be51 253e 8bbf 243e df10 493c a51f 133e
00000060: 74ef adbd 3d2c 253e 6da1 8d3e 68aa cdbc
00000070: 02a5 b7bb 1e37 71bd 6b11 48bc 326d 873c
00000080: 223d 1cbe 88d9 16be 893f a2bd 7df4 083e
00000090: e783 f3bd 64d9 923d d44d 9d3e bba1 13be
000000a0: 6cab 043e 4795 b53c ed47 9a3d 9e3b 483e
000000b0: 0970 9d3d 807b cebd 2c1b b53c 5a0d 283e
000000c0: e6aa 27be 5494 b6bc 24e0 d03d ae25 c9bd
000000d0: 0ad3 253e 37e3 a6bd e923 9f3c 11ff 963d
000000e0: 1761 02be 1464 0e3e 65f2 913d 8b52 71bd
000000f0: ee36 ee3d 492b 6abc 4ab8 8e3d 1b01 afbd
00000100: cdbf 9fbd 5ae0 b3bd bbff d53d ee0c 073e
00000110: f346 0c3e 6bae 063e 35dd 263e 75ac 923d
00000120: 9be5 d5bd bb36 afbd 63ec 2ebc 3c5a a43d
00000130: 3a16 aabc a57d 063e c9fc c73d 5d51 1d3e
00000140: 5c5d c2bc 4cc6 0cbe a735 633d c972 3cbd
00000150: 1dc8 6bbe 5d4d 3dbd 4806 ef3d 5674 60bc
00000160: 6adc a2bd c2bc a0bd 5e34 d53d e1ab fbbd
00000170: 4e1d 8ebc 38c4 4bbd 2132 6bbe 8099 25be
00000180: bfa8 4f3d b938 be3d 304a 44be e941 5d3b
00000190: 6b16 e73d 3e99 54bc f12a a6bb 62fe 203d
000001a0: dc37 d43d 0126 2ebe 7b0c 55bd c5dc 183e
000001b0: eb62 863d 697e 5a3d e753 203e c60c 823d
000001c0: 1110 cf3d d0f9 27bc 8e81 593a 924a 5abc
000001d0: 9a1d 133d 2c61 3cbe 4eba 433e f308 a83c
000001e0: f8c0 7ebd 5f93 2d3e ea0a 223e c50a 06bd
000001f0: bf3c 223e 949d a1bb 86b5 143e b1d8 0b3e
00000200: 5a46 a0bd d9e1 023e 140f 0abe f97e 453e
00000210: a43f 4d3d 8eea fe3d 4d77 5a3e aa11 693c
00000220: 88e6 f83b c11a d43d 3ea8 3f3b 6366 71bd
00000230: ded8 fa3d 5795 90bd ae99 a13b 8cb1 e23c
00000240: 172b 8b3d 8e32 e03c dfb9 be3d 498b 213e
00000250: 6feb 0bbd 8644 133e a9f8 4b3e e46b 87bd
00000260: e133 a2bd 9f1a 56bd 4815 c93b c9c1 7dbb
00000270: e807 883d 3c9f c33d e9c8 753e 7289 c33d
