TSF/models/DeepAR_v0.2/prediction-net-state.pt (torch, 107868 bytes, 11 tensors)

model.param_proj.proj.0.weight f4 [1, 40]
0	0xbc99478c	-0.018710874
1	0xbe39075a	-0.1806921
2	0x3e033cde	0.12816188
3	0xbb8d435c	-0.0043110084
4	0x3d065056	0.032791458
5	0xbd9e392e	-0.0772575
6	0xbe1339ed	-0.14377566
7	0x3d8e5a73	0.069508456
8	0xbe415c37	-0.18882833
9	0x3e0abd3a	0.13548747
10	0x3ce4af30	0.027915567
11	0x3d0846f6	0.0332708
12	0x3d90ae2c	0.07064471
13	0x3e3cdb86	0.18443117
14	0xbd91a47d	-0.07111452
15	0xbdbc3af4	-0.09190932
16	0x3dc6900f	0.09695446
17	0xbd7f01a6	-0.06225743
18	0xbd13297f	-0.035928246
19	0xbe07ff48	-0.13280976
20	0x3e21bc69	0.15794529
21	0xbc623e89	-0.013808855
22	0xbcdf772a	-0.027278502
23	0xbdf55300	-0.119787216
24	0xbdd0476d	-0.101698734
25	0x3dc6e0c7	0.097108416
26	0xbd362ebe	-0.04447817
27	0xbe3fe02d	-0.1873786
28	0x3d3495a2	0.044088013
29	0x3d7055a8	0.05867544
30	0xbcc4c19b	-0.0240181
31	0xbd846979	-0.0646543
32	0xbda87bc5	-0.08226732
33	0xbd8d9701	-0.06913567
34	0xbe3c8779	-0.18411054
35	0xbe0c54b7	-0.13704191
36	0xba9aa7bc	-0.0011799256
37	0x3e506a31	0.20353009
38	0xbb9b4330	-0.004738234
39	0x3da2d964	0.0795162

model.param_proj.proj.1.weight f4 [1, 40]
0	0xbd3f89c8	-0.046762258
1	0xbd0a16f7	-0.033713307
2	0x3e232117	0.15930592
3	0xbd8a06ed	-0.06739602
4	0x3d60df61	0.05490053
5	0xbded03c3	-0.11572983
6	0xbe2ff69f	-0.17183922
7	0xbe1e3fad	-0.15453978
8	0xbdb3d140	-0.08780146
9	0x3d26753a	0.04063914
10	0x3df9a4d2	0.1218964
11	0xbddeaf6c	-0.10873303
12	0xbe0d5862	-0.13803247
13	0xbd03b5f4	-0.032155946
14	0x3d8e010d	0.06933794
15	0xbe0f1ce5	-0.13975866
16	0xbd59a004	-0.05313112
17	0x3e0f6db3	0.1400669
18	0xbdd8b90c	-0.1058217
19	0xbe30d20f	-0.17267631
20	0x3dd6200b	0.104553305
21	0x3d94a9c6	0.07258944
22	0xbdf70d3b	-0.120630704
23	0x3d05a72f	0.03263014
24	0xbd77111c	-0.06031905
25	0xbd23d6b6	-0.039999686
26	0x3cd5f3aa	0.026117165
27	0xbbe33971	-0.006934338
28	0x3e280cb7	0.164111
29	0xbe01fe4e	-0.12694666
30	0xbd699042	-0.05702234
31	0xbdc7ec9d	-0.09761927
32	0x3e1667d1	0.1468804
33	0xbe0b5764	-0.13607556
34	0xbdefd823	-0.11711147
35	0xbdd254b4	-0.10270062
36	0x3cbb9f2b	0.022903046
37	0x3d96481c	0.073379725
38	0x3e0f0526	0.13966808
39	0x3d81d706	0.063398406

model.param_proj.proj.2.weight f4 [1, 40]
0	0xbd829a13	-0.063770436
1	0x3dc8ecc8	0.098107874
2	0x3d3f6066	0.046722792
3	0x3e3fcdc5	0.18730839
4	0x3cd34335	0.025788883
5	0x3dbd606e	0.09246908
6	0xbd066059	-0.032806728
7	0xbde2a27c	-0.11066148
8	0xb882d0d7	-6.2377825e-05
9	0x3ca8f2e4	0.020623632
10	0xbdde1532	-0.108438864
11	0x3e399891	0.18124606
12	0xbad4365c	-0.0016190517
13	0xbe20aa8c	-0.15690058
14	0xbd022e0c	-0.031782195
15	0xbd8a9b7f	-0.0676794
16	0xbdfe4a38	-0.124165
17	0xbe0d1384	-0.13776976
18	0xbc13bac6	-0.009016698
19	0x3dac6f54	0.08419672
20	0x3dc460e9	0.09588797
21	0x3e127f88	0.14306462
22	0x3dca1e37	0.09869044
23	0x3ddb87a8	0.10719234
24	0xbd4d9e6e	-0.05019992
25	0x3e04ddaf	0.1297519
26	0x3e4aeade	0.19816157
27	0x3d9b47f2	0.07582082
28	0x3de21996	0.110400364
29	0x3cb8c562	0.022555057
30	0xbdf48599	-0.11939544
31	0xbabbd091	-0.0014329125
32	0xbd2a2408	-0.04153827
33	0xbc7dcd1c	-0.015490796
34	0xbdf10711	-0.11768926
35	0xbd805b0f	-0.06267368
36	0x3e085827	0.13314877
37	0xbc66c146	-0.014084166
38	0x3ba104a2	0.0049138824
39	0x3b3a64e3	0.002844148

model.rnn.weight_ih_l0 f4 [160, 37]
0	0x3b77e425	0.0037825194
1	0xbca62aaa	-0.020284016
2	0xbb70b9e1	-0.0036731886
3	0x3e021dca	0.12706676
4	0xbdeef1fa	-0.11667247
5	0xbccc89bb	-0.024968019
6	0x3dba86a2	0.091077104
7	0xbdf54822	-0.11976649
8	0x3e390154	0.18066913
9	0x3d9abdeb	0.07555755
10	0xbe0249ea	-0.12723508
11	0xbdfb7c45	-0.12279562
12	0x3c21c7c6	0.00987429
13	0xbdd7577d	-0.10514734
14	0x3c491c4c	0.012274813
15	0x3e2000b4	0.15625268
16	0x3e1b6d5f	0.1517844
17	0x3da19137	0.07889026
18	0x3e0dc6d4	0.13845378
19	0xbcdc029e	-0.026856717
20	0x3e0f9288	0.14020741
21	0x3cee39e3	0.029080337
22	0xbd4c8d83	-0.049939644
23	0x3e0e5217	0.13898502
24	0xbd4ae267	-0.04953232
25	0x3cd60915	0.026127378
26	0x3d60c0c6	0.054871343
27	0x3e0a896d	0.13528986
28	0xbd7167f0	-0.058937013
29	0x3ca7d021	0.020484986
30	0x3de4149b	0.11136743
31	0x3c7f21a6	0.015571987
32	0xba9173da	-0.0011097149
33	0x3e11be97	0.1423286
34	0xbd0295cc	-0.03188114
35	0x3dbe7d2d	0.09301219
36	0x3d2acf8d	0.041701842
37	0xbdb84d44	-0.08999112
38	0xbdc0509f	-0.09390377
39	0xbcf2c120	-0.029633105
40	0x3d32df9c	0.04367028
41	0xbd901c6b	-0.0703667
42	0x3d6b957a	0.0575156
43	0xbdf117ba	-0.117721036
44	0xba3ab4f1	-0.0007122299
45	0xbd93db62	-0.07219578
46	0xbd772a25	-0.060342927
47	0x3cde19f6	0.027111989
48	0x3c83c810	0.016086608
49	0x3cdf24c0	0.027239203
50	0xbd5564a0	-0.052097917
51	0x3d8a962a	0.06766923
52	0xbc90def1	-0.017684432
53	0x3ad0754c	0.0015904098
54	0xbd9e82c2	-0.07739784
55	0xbe20c108	-0.15698636
56	0x3df8d572	0.121500865
57	0x3d9fc11c	0.078005046
58	0xbdacdc8d	-0.08440504
59	0x3d4d8c52	0.050182648
60	0xbda5bfb5	-0.08093206
61	0x3da136c1	0.078717716
62	0x3db054f0	0.086099505
63	0xbdfaae61	-0.122402914
64	0x3d93c045	0.07214407
65	0x3d44e830	0.048072994
66	0xbd1802d0	-0.037112057
67	0x3d103267	0.035204317
68	0x3cf6c659	0.030123876
69	0x3d9eceec	0.07754311
70	0x3dc1af78	0.09457296
71	0x3e129359	0.14314021
72	0xbc9e27c1	-0.019306066
73	0x3db53f78	0.08849996
74	0x3dc6d248	0.09708077
75	0xbdd7825c	-0.10522911
76	0x3e13f1ce	0.1444771
77	0x3dad1e41	0.08453036
78	0xbdfdd2c2	-0.123937145
79	0xbde70c19	-0.11281604
80	0x3d74ae72	0.059736677
81	0xbcb2fde8	-0.021849588
82	0x3df48b6d	0.11940656
83	0xbe019afe	-0.12656781
84	0xbc33b5ab	-0.010968606
85	0x3e2c85b4	0.16847879
86	0x3ddb9388	0.10721499
87	0xbc206bc4	-0.009791318
88	0x3e13bad4	0.14426738
89	0xbd84e047	-0.0648809
90	0x3d6dc566	0.058049582
91	0x3e021eb7	0.1270703
92	0xbc7cbfea	-0.015426615
93	0x3c8941f8	0.01675509
94	0xbd9eaa88	-0.0774737
95	0x3e1a2547	0.15053283
96	0x3ca2a6f3	0.019854998
97	0x3d6283f4	0.05530162
98	0x3ddffd42	0.10936977
99	0x3de90ca6	0.113793656
100	0x3d971af3	0.07378187
101	0xbe084179	-0.13306226
102	0x3cf382e5	0.029725501
103	0x3db994ec	0.09061608
104	0x3e26b4b0	0.16279864
105	0xbd00930a	-0.031390227
106	0x3e1fcea2	0.15606168
107	0xbdc9267e	-0.09821795
108	0xbd62153f	-0.055196043
109	0xbb06ba44	-0.00205578
110	0x3c06830a	0.008209953
111	0xbdc1e3d1	-0.09467281
112	0x3c8c3d2f	0.017119018
113	0xbca6b25c	-0.02034872
114	0xbdd62bef	-0.104575984
115	0x3cd12d69	0.025534349
116	0x3d9e17cf	0.07719385
117	0x3e374906	0.1789895
118	0xbda19ae2	-0.0789087
119	0x3d8a9624	0.06766918
120	0x3c36a53c	0.011147793
121	0x3dd9bdfe	0.10631941
122	0x3e024786	0.12722597
123	0x3e0f1c28	0.13975585
124	0x3d12bf64	0.035827056
125	0x3db4e578	0.0883283
126	0x3e2741da	0.16333714
127	0x3e2e3674	0.1701296
128	0xbd1f433f	-0.03888249
129	0x3de8bedd	0.11364529
130	0x3e1e311d	0.15448423
131	0xbdc4e11f	-0.09613251
132	0x3e0fb923	0.14035468
133	0xbda7b8d2	-0.081895486
134	0x3cd31a3e	0.02576935
135	0x3dea8f3b	0.114531
136	0x3dab170a	0.08354004
137	0x3d6f6e41	0.058454756
138	0x3db098b6	0.08622877
139	0xbda1ffc4	-0.079101115
140	0x3be698c3	0.0070372536
141	0xbdc743bf	-0.097297184
142	0x3c464119	0.012100481
143	0x3dc8fb80	0.09813595
144	0xbe0e75d5	-0.13912137
145	0xbcdbef26	-0.026847433
146	0x3dd2cae1	0.10292602
147	0xbe046e4f	-0.12932704
148	0xbdfef269	-0.1244858
149	0x3e04d2ce	0.1297104
150	0xbdb66f69	-0.089079686
151	0x3e07e324	0.13270241
152	0x3e1ce978	0.15323436
153	0xbd98e789	-0.07466037
154	0xbd085970	-0.03328842
155	0xbcd63a78	-0.026150927
156	0xbdb4a951	-0.08821357
157	0xbd763230	-0.060106456
158	0xbdb38d28	-0.08767158
159	0x3d94529b	0.07242318
160	0xbcb433ce	-0.021997359
161	0x3e22d5b9	0.15901841
162	0x3e2142e6	0.15748176
163	0xbcfe475f	-0.031039892
164	0x3df35bea	0.118827656
165	0xbbd0c517	-0.006371151
166	0xbd6332e1	-0.055468444
167	0x3dd117cf	0.10209619
168	0xbd518ed8	-0.051161617
169	0x3e222fd9	0.15838565
170	0x3de1ede1	0.110317
171	0xbbafede2	-0.005368934
172	0x39fa3fbb	0.000477312
173	0x3cbe33ea	0.023218114
174	0x3e136c52	0.1439679
175	0x3db9ab72	0.09065904
176	0x3ddfb712	0.1092359
177	0xbe1199cb	-0.14218824
178	0xbdde4519	-0.10853023
179	0xbddfb3c7	-0.10922962
180	0xbda9cf38	-0.08291477
181	0x3e2e58c4	0.17026049
182	0xbbe6f9e2	-0.0070488313
183	0xbbc03a6f	-0.005866341
184	0xbdeb8cc4	-0.11501458
185	0xbd160956	-0.036629997
186	0xbe0552c3	-0.13019852
187	0x3d46d0a8	0.048538834
188	0xbd7dfae6	-0.062006854
189	0x3df8d821	0.12150598
190	0x3d9013c0	0.07035017
191	0xbd7ab19f	-0.06120455
192	0xbde0e7df	-0.10981726
193	0x3c9d118b	0.019173404
194	0xbe0581e6	-0.13037834
195	0x3e193dab	0.1496493
196	0x3e17dda6	0.14830646
197	0x3d3f2090	0.046661913
198	0x3dc01381	0.0937872
199	0xbda1bfa8	-0.07897884
200	0x3d019741	0.031638388
201	0xbd7a3e55	-0.0610946
202	0x3cbdcbef	0.023168532
203	0xbd62309e	-0.055222146
204	0x3db31907	0.08745008
205	0x3cb40be6	0.02197833
206	0xbe07cb48	-0.1326114
207	0xbe1acb86	-0.151167
208	0x3d61cf74	0.055129483
209	0xbde63e01	-0.11242295
210	0xbb8fd459	-0.0043893275
211	0x3d44ff73	0.048095178
212	0x3dcacc90	0.099022985
213	0x3b90f8ae	0.004424176
214	0x3d7a7aba	0.061152197
215	0x3c90f467	0.017694665
216	0xbe002a93	-0.12516241
217	0xbcd3a1f8	-0.025834069
218	0x3e35d685	0.17757614
219	0xbdd6f5b5	-0.10496084
220	0x3d915422	0.07096125
221	0x3e15538a	0.14582649
222	0x3c898cb6	0.016790729
223	0xbdc969b2	-0.09834613
224	0x3dfcea1e	0.12349342
225	0x3d7835b5	0.060598094
226	0x3c3fcb65	0.011706208
227	0x3c9ae076	0.01890586
228	0x3e11c5ac	0.14235562
229	0xbdaac64e	-0.08338605
230	0xbde3e066	-0.11126785
231	0x3e2e5bbf	0.17027186
232	0x3e126b49	0.14298739
233	0xbe098a54	-0.13431674
234	0x3d7a4120	0.061097264
235	0x3d96b498	0.07358664
236	0x3da21f25	0.079160966
237	0x3c82d77f	0.015971897
238	0x3d89f295	0.06735722
239	0x3d97ae82	0.074063316
240	0xbd30d249	-0.043169294
241	0x3e220fad	0.15826292
242	0xbe096258	-0.13416421
243	0xbd1468b5	-0.03623267
244	0x3d1cdc96	0.038296305
245	0x3caa5373	0.020791745
246	0xbcfc2775	-0.030780533
247	0xbd6f1168	-0.05836621
248	0xbd2e1be8	-0.042507082
249	0x3d415468	0.047199637
250	0x3dff213d	0.124575116
251	0xbe05dd5d	-0.13072725
252	0x3d83eb25	0.06441335
253	0x3dd6ca13	0.10487761
254	0xbd897a44	-0.067127734
255	0x3e6056d2	0.2190812

model.rnn.weight_hh_l0 f4 [160, 40]
0	0x3d165fcc	0.036712453
1	0x3e2fa6d3	0.17153482
2	0x3df939e3	0.12169244
3	0x3dd0fa54	0.10203996
4	0x3c2c0ed3	0.010501581
5	0xbca76c67	-0.020437432
6	0xbd9c070d	-0.07618532
7	0x3dc45e6a	0.095883206
8	0x3d0be7c7	0.034156587
9	0x3dbbec8d	0.09175978
10	0xbdf414b4	-0.11918011
11	0x3c55eba1	0.013056667
12	0x3d94c70b	0.07264527
13	0x3dbd4f29	0.09243614
14	0xbe297887	-0.16549884
15	0x3d325310	0.043536246
16	0xbe09b336	-0.1344727
17	0xbd046c4f	-0.032329854
18	0xbd5bbb1c	-0.05364524
19	0x3d01b85a	0.031669952
20	0x3dea1c84	0.1143122
21	0xbe0ae63d	-0.13564391
22	0x3c85b256	0.016320389
23	0x3d67610d	0.05648904
24	0xbd00a17b	-0.031404
25	0x3da1462e	0.07874714
26	0x3d8a827f	0.067631714
27	0xbe2f4b20	-0.17118502
28	0xbda0832b	-0.07837518
29	0xbe0bfc18	-0.13670385
30	0x3e074be4	0.13212544
31	0x3e0284fa	0.12746039
32	0x3d1850c8	0.037186414
33	0xbdc5492d	-0.09633098
34	0x3dd5aff3	0.1043395
35	0x386601d7	5.4837987e-05
36	0x3dfb9529	0.122843094
37	0xbe2ca2a6	-0.1685892
38	0xbe34f821	-0.17672779
39	0x3d08348b	0.033253234
40	0xbda393df	-0.079871885
41	0xbe03a99d	-0.12857671
42	0x3cf4a25d	0.029862577
43	0xbd9a096f	-0.075213306
44	0xbe0bad43	-0.13640313
45	0x3e1210ef	0.14264272
46	0x3dd60778	0.10450643
47	0xbd0c7ea2	-0.034300454
48	0xbabacbb9	-0.0014251388
49	0xbddaed4e	-0.106897935
50	0xbd32da9a	-0.043665506
51	0xbde317ce	-0.11088525
52	0xbdfcc52e	-0.123422965
53	0xbdfb6e6e	-0.12276922
54	0x3d78b16c	0.060716078
55	0xbd8505ca	-0.06495245
56	0x3d9021d0	0.07037699
57	0x3d48cd7a	0.049024083
58	0xbdbce9f9	-0.09224314
59	0x3e067d56	0.1313375
60	0x3db9a8d8	0.090654075
61	0x3dc3601e	0.09539817
62	0xbe298b97	-0.16557156
63	0x3ba9299a	0.00516243
64	0xbd8b4c08	-0.06801611
65	0x3cf6b458	0.030115291
66	0x3c254dc3	0.010089341
67	0xbd95b6dc	-0.07310268
68	0x3da36e9e	0.07980083
69	0xbbbac9ba	-0.005700317
70	0x3dd3a8c3	0.10334923
71	0xbd9cc557	-0.07654827
72	0x3ba6801a	0.005081189
73	0xbccc1bb1	-0.024915548
74	0xbd8fa577	-0.07013982
75	0xbd8d982c	-0.0691379
76	0x3d98b20f	0.07455837
77	0xbe04e2ab	-0.12977092
78	0x3db9bbc1	0.09069014
79	0x3d0ecb87	0.034862068
80	0x3e24c490	0.16090608
81	0xbda43ddf	-0.080196135
82	0x3de3013e	0.11084221
83	0x3d7e87e0	0.0621413
84	0x3e08aa8d	0.1334631
85	0x3dc46950	0.09590399
86	0x3de95836	0.11393778
87	0x3c89b4df	0.016809879
88	0x3e0723b9	0.13197221
89	0xbdf3995a	-0.11894484
90	0xbda45c9a	-0.08025475
91	0x3c11ac28	0.008891143
92	0xbd4af5d2	-0.04955084
93	0xbd7601e8	-0.06006041
94	0x3d6c76ab	0.057730358
95	0xbbb76912	-0.005597242
96	0xbe02fe26	-0.12792262
97	0xbd9e016e	-0.077151164
98	0x3a169a82	0.00057450694
99	0x3dbd6560	0.09247851
100	0xbdf50299	-0.11963386
101	0xbdcbb164	-0.09945944
102	0x3c96a4f1	0.018389197
103	0x3d75d8d7	0.060021248
104	0xbd8e204d	-0.06939755
105	0xbe083a13	-0.13303404
106	0x3cd69db4	0.026198246
107	0xbdcd11ef	-0.10013186
108	0xbde01360	-0.109411955
109	0x3d916c18	0.07100695
110	0x3d8cbc92	0.068719044
111	0x3d8521eb	0.0650061
112	0xbda3503a	-0.079742864
113	0x3e0d2cce	0.13786623
114	0x3dd64082	0.10461523
115	0x3c7f829e	0.015595106
116	0xbe3069fd	-0.17227931
117	0xbe11e8ad	-0.14248915
118	0xbc418d33	-0.01181345
119	0x3d8d6027	0.06903105
120	0xbd5f6c76	-0.054546796
121	0xbcb8efec	-0.022575341
122	0xbe1db567	-0.15401231
123	0x3d3426e8	0.043982416
124	0xbe2ebd09	-0.17064299
125	0x3d6ca428	0.05777374
126	0x3dedf27d	0.116185166
127	0x3b2d9d2b	0.0026491384
128	0xbd52fc8b	-0.051510375
129	0x3e0f86c8	0.14016259
130	0xbe114c11	-0.14189173
131	0xbd2f311b	-0.04277144
132	0xbc066c61	-0.0082045505
133	0x3c09ff12	0.00842263
134	0x3bcca2f5	0.006245012
135	0x3d24ea0c	0.040262267
136	0x3c85093f	0.01623976
137	0x3d2676f3	0.040640783
138	0x3d93b2f9	0.07211871
139	0x3d943321	0.072363146
140	0xbd8ddfec	-0.06927475
141	0xbe121e15	-0.14269288
142	0x3c3c7629	0.011502781
143	0x3d4dae3e	0.050215
144	0xbe359f3a	-0.17736521
145	0x3e1dc5aa	0.15407434
146	0xbd4e0a2b	-0.050302666
147	0xbd1493de	-0.03627383
148	0x3c707a6c	0.014677625
149	0xbe148da6	-0.1450716
150	0xbc73936c	-0.014866691
151	0x3cb658fa	0.022259224
152	0x3d92cf05	0.07168392
153	0xbd932f34	-0.07186738
154	0x3d31ca3d	0.04340576
155	0x3c4518a4	0.012029801
156	0xbc62b323	-0.013836655
157	0x3df16045	0.1178594
158	0x3d7e17ca	0.062034406
159	0x3d067625	0.032827515
160	0xbce2a4fc	-0.027666561
161	0x3e0f04ca	0.1396667
162	0x3caa3dac	0.02078136
163	0x3e012f42	0.12615684
164	0xbe07c563	-0.13258891
165	0xbdff67f6	-0.12471001
166	0xbd6629a5	-0.05619206
167	0x3d05cec6	0.032667898
168	0xbdcd22f9	-0.10016436
169	0x3e11204e	0.1417248
170	0xbcc0cec0	-0.023536086
171	0x3e28d1c5	0.1648627
172	0x3e073477	0.13203607
173	0xbe14b1fb	-0.14521019
174	0xbd5df014	-0.054184034
175	0x3e2eccb4	0.17070276
176	0x3d05dab8	0.03267929
177	0x3deca747	0.11555343
178	0xbb890099	-0.0041809794
179	0x3dbd56d6	0.09245078
180	0xbd9177d6	-0.07102935
181	0xbc0de35a	-0.008660162
182	0x3e1b8a18	0.15189397
183	0x3e057c4e	0.130357
184	0xbb39ac1b	-0.0028331343
185	0x3da6ab49	0.08138139
186	0x3d8ac11e	0.067751154
187	0xbe1e8d94	-0.15483695
188	0xbd54b4f7	-0.051930394
189	0xbd220c6e	-0.039562635
190	0xbd13d409	-0.036090884
191	0xbe058d01	-0.1304207
192	0x3de5df77	0.11224263
193	0x3d9bc76e	0.076063976
194	0x3d1a537b	0.03767727
195	0xbda98c28	-0.08278686
196	0x3bad2b27	0.005284685
197	0x3d980075	0.07421962
198	0xbd74e13f	-0.059785124
199	0xbdeeb31e	-0.11655258
200	0xbde18545	-0.11011747
201	0x3e2e5c82	0.17027476
202	0xbdc9413a	-0.09826894
203	0xbe0dd671	-0.13851334
204	0xbe0c9ced	-0.13731737
205	0x3bfaed24	0.007657664
206	0x3e0c21f4	0.13684827
207	0x3cb2719f	0.021782694
208	0x3de9c543	0.11414578
209	0x3b2f1fa8	0.002672175
210	0x3df4ae30	0.11947286
211	0xbca40407	-0.020021452
212	0x3e105189	0.14093603
213	0xbc98d7fd	-0.018657679
214	0xbe1798d2	-0.1480439
215	0x3d16d58f	0.03682476
216	0xbc332e2c	-0.010936301
217	0x3d8e7fe9	0.06957991
218	0xbdf94198	-0.12170714
219	0x3b1c07b1	0.0023808295
220	0xbdfcf0eb	-0.12350639
221	0x3daa22dd	0.08307431
222	0x3dcecf5b	0.10098144
223	0xbdd5d4f7	-0.104410104
224	0x3dc33c20	0.09532952
225	0x3d3ff36e	0.046863012
226	0xbdcd6b68	-0.10030252
227	0x3dda58bd	0.10661457
228	0x3dc551b3	0.096347235
229	0xbe1853ab	-0.14875667
230	0x3e1956b0	0.14974475
231	0xbddb6f0f	-0.10714542
232	0x3d2a5b8e	0.04159122
233	0xbe061c6b	-0.13096778
234	0x3dd81359	0.10550565
235	0x3d43ffa6	0.047851227
236	0xbd2b52ab	-0.041826885
237	0xbe041b30	-0.12900996
238	0xbc58367a	-0.013196582
239	0xbded82bd	-0.11597202
240	0x3a34766d	0.0006884102
241	0x3db864e7	0.090036206
242	0x3dd732a0	0.10507703
243	0x3c3ebf87	0.011642343
244	0xbc93c979	-0.018040406
245	0xbc505ee8	-0.01271794
246	0xbded4fd9	-0.11587495
247	0xbd401042	-0.046890505
248	0x3e0a3bb2	0.13499334
249	0xbe19ff8d	-0.15038891
250	0xbd9b9e59	-0.07598562
251	0xbe1a2679	-0.15053739
252	0xbdd851eb	-0.105624996
253	0xbdb94ddb	-0.09048053
254	0x3e06c37c	0.13160509
255	0xbc42f101	-0.01189828

model.rnn.bias_ih_l0 f4 [160]
0	0x3c3e4237	0.011612467
1	0xbd9035bc	-0.07041499
2	0x3e023146	0.12714109
3	0x3d320686	0.043463252
4	0x3ddc002e	0.10742222
5	0x3df8496a	0.121233776
6	0x3e10139c	0.1406998
7	0x3de97d2d	0.114008285
8	0xbdefb9a0	-0.11705327
9	0xbc56abce	-0.013102485
10	0xbcc53df7	-0.024077399
11	0x3e17f4c7	0.14839469
12	0x3dd571ec	0.104221195
13	0xbdf75421	-0.12076593
14	0x3de462d1	0.1115166
15	0x3de738dd	0.11290143
16	0xbe18f5f9	-0.14937581
17	0xbd82e0e3	-0.0639055
18	0xbdeb0715	-0.1147596
19	0xbdf7ddaf	-0.1210283
20	0x3de79610	0.11307919
21	0xbdeed8e0	-0.116624594
22	0x3e1e8ea3	0.15484099
23	0x3e0f9e66	0.14025268
24	0xbddc2676	-0.10749523
25	0xbe1bdfea	-0.15222135
26	0x3de049a9	0.109515496
27	0x3e2010ee	0.15631458
28	0x3d2f4971	0.04279465
29	0xbe2ee374	-0.17078954
30	0xbe0684e9	-0.13136639
31	0x3e073681	0.13204385
32	0xbd34c8d2	-0.04413683
33	0xbd19edd4	-0.037580326
34	0x3e28bdf9	0.16478719
35	0xbdbe24ca	-0.09284361
36	0xbdf4d917	-0.11955469
37	0xbc0f3692	-0.008741038
38	0x3e3edeb4	0.18639642
39	0xbd279336	-0.040911876
40	0xbd894fd3	-0.067046784
41	0x3df4e6e3	0.11958101
42	0x3dad5745	0.08463911
43	0x3e37e3f5	0.17958052
44	0xbdabc917	-0.08387964
45	0x3e204956	0.15652975
46	0xbdb0a604	-0.08625415
47	0x3db41ab1	0.087941535
48	0x3d87db4f	0.06633627
49	0x3cec73b1	0.02886376
50	0xbc0a8db9	-0.008456641
51	0x3e1959ce	0.14975664
52	0x3e2e5322	0.170239
53	0xbd4f7394	-0.050647333
54	0x3e33767d	0.17525668
55	0x3d31dd3f	0.043423887
56	0xbcee83ab	-0.029115519
57	0xbdbc8e2c	-0.09206805
58	0x3d86727d	0.06564806
59	0xbe296567	-0.16542588
60	0x3da0738d	0.078345396
61	0xbdd82b37	-0.105551176
62	0xbd96b85e	-0.07359384
63	0x3e40a1ea	0.18811765
64	0x3dd09b16	0.1018583
65	0xbe099cb5	-0.13438685
66	0xbe0c627f	-0.13709448
67	0x3de3b76a	0.11118968
68	0xbd93d3fb	-0.072181664
69	0xbe1ee014	-0.15515167
70	0xbdd2aa32	-0.102863684
71	0xbd0a0d5e	-0.033704154
72	0x3e015a2b	0.12632053
73	0x3d94d494	0.072671086
74	0xbcb7a727	-0.022418572
75	0xbda678ae	-0.081284866
76	0xbcf9f977	-0.030514462
77	0xbdc82aab	-0.09773763
78	0x3d8faae2	0.07015015
79	0x3d333f0b	0.043761294
80	0x3db173d4	0.086646706
81	0xbca4d661	-0.020121755
82	0xbe2093a5	-0.15681322
83	0x3c89cfd9	0.016822742
84	0x3e09147a	0.13386717
85	0xbd0bc67b	-0.034124833
86	0x3ddc263c	0.1074948
87	0x3d972c55	0.073815025
88	0xbe170261	-0.14747001
89	0xbdb02c40	-0.0860219
90	0x3dca5462	0.09879376
91	0x3dbe85d9	0.09302873
92	0x3da55616	0.0807306
93	0xbd63bf2f	-0.05560225
94	0x3ce58521	0.028017582
95	0x3e2979e9	0.16550411
96	0xbd12adaf	-0.03581017
97	0x3df38998	0.11891478
98	0xbd6e3fac	-0.05816619
99	0x3db2c086	0.08728127
100	0x3e22a563	0.15883403
101	0x3e01bb5b	0.12669127
102	0xbcd164fd	-0.02556085
103	0xbd909d61	-0.07061268
104	0x3d8b8a21	0.068134554
105	0x3dd85678	0.105633676
106	0xbdce0b73	-0.100607775
107	0x3d78f4a2	0.060780175
108	0x3dd631d5	0.104587235
109	0x3e08dd48	0.13365662
110	0x3e262834	0.16226274
111	0x3d673bec	0.05645363
112	0x3df3e771	0.11909378
113	0xbcedb45a	-0.029016662
114	0x3e2af2e5	0.1669422
115	0x3e1d04f0	0.15333915
116	0xbd77e6ea	-0.06052295
117	0xbd8ac28b	-0.067753874
118	0xbe183dd1	-0.14867331
119	0x3d95c3b8	0.07312721
120	0x3dd87f2d	0.10571132
121	0x3d81336c	0.06308636
122	0x3d2edd1c	0.042691335
123	0x3cc25360	0.023721397
124	0x3e07acab	0.13249461
125	0x3e06dcfc	0.13170236
126	0x3e1ae1d3	0.15125208
127	0x3dbed0c4	0.09317163
128	0xbdd54e30	-0.10415304
129	0xbd059136	-0.032609187
130	0xbd70636d	-0.05868857
131	0x3dfa5279	0.12222762
132	0xbd0a45d6	-0.033758007
133	0x3b7426c6	0.0037254556
134	0xbdfa6455	-0.12226168
135	0xbda3a745	-0.079908885
136	0xbe0f95f7	-0.14022051
137	0x3cad124d	0.02112689
138	0xbdc61d33	-0.09673538
139	0x3d008162	0.03137339
140	0x3af85fe3	0.0018949475
141	0x3b25169a	0.0025190474
142	0x3e38d615	0.18050416
143	0x3c469301	0.012120009
144	0xbda9dd39	-0.08294148
145	0x3bc270ea	0.0059338706
146	0xbcaf596d	-0.021404946
147	0xbca2338e	-0.019799974
148	0xbd9e8f00	-0.07742119
149	0x3db729f8	0.08943552
150	0xbdc568dc	-0.09639141
151	0x3d10eaef	0.0353803
152	0xbda50b32	-0.08058776
153	0xbe21bc0a	-0.15794387
154	0xbd7e0c5e	-0.062023513
155	0xbddc3598	-0.1075241
156	0x3cd7798b	0.026303073
157	0x3e0db982	0.13840297
158	0x3d2e51c4	0.042558447
159	0xbcc2a381	-0.023759605

model.rnn.bias_hh_l0 f4 [160]
0	0x3dea4824	0.11439541
1	0x3d5e65bd	0.054296244
2	0xbdda68ec	-0.106645435
3	0x3de9476f	0.11390578
4	0x3e21518a	0.15753761
5	0xbd633abc	-0.055475935
6	0x3d9c0256	0.07617633
7	0xbd1cc4ba	-0.03827355
8	0xbdefaf24	-0.11703327
9	0x3dfd0351	0.12354148
10	0x3d319a91	0.043360297
11	0x3e442670	0.19155288
12	0xbc0732b4	-0.008251835
13	0xbdf78d5b	-0.12087508
14	0xbc0c9fc9	-0.008583018
15	0xbd596c43	-0.053081762
16	0x3d01c094	0.031677797
17	0xbe004a8a	-0.12528434
18	0x3e238529	0.15968765
19	0x3dce62ea	0.1007746
20	0x3e0a5ec4	0.13512713
21	0x3d7a2a6b	0.06107561
22	0xbd2e3d21	-0.042538766
23	0xbd327d04	-0.043576255
24	0x3e01fba8	0.12693655
25	0x3cd8935e	0.026437458
26	0xbe282710	-0.16421151
27	0xba65cd91	-0.00087662885
28	0xbdd549d6	-0.10414474
29	0xbdc8d863	-0.098068975
30	0x3be41f18	0.0069617145
31	0xbe0a54bb	-0.13508885
32	0xbdb87b48	-0.09007889
33	0x3dab1f35	0.08355562
34	0x3d1064c8	0.035252362
35	0xbd786517	-0.06064328
36	0x3d8687ef	0.06568896
37	0xbe242a96	-0.1603187
38	0xbdc00b1e	-0.093771204
39	0x3e3f3512	0.18672588
40	0x3d252164	0.040315047
41	0x3c839fdd	0.01606744
42	0x3dd88ea3	0.10574081
43	0x3e291a27	0.16513883
44	0xbd58753f	-0.05284619
45	0xbd6c97ee	-0.05776208
46	0xbd7bf2ec	-0.061510965
47	0xbe0a9e04	-0.1353684
48	0x3de802dd	0.11328671
49	0xbe057222	-0.1303182
50	0xbcbe2ca2	-0.023214642
51	0x3da23306	0.07919888
52	0xbd26aced	-0.04069226
53	0xbe1dda3d	-0.15415283
54	0x3dc2b973	0.09508028
55	0xbe0bd354	-0.13654834
56	0xbd817ebe	-0.06323002
57	0xbde7f2c1	-0.113255985
58	0xbdde0d4e	-0.108423814
59	0xbcee4f5a	-0.029090572
60	0xbd747556	-0.059682213
61	0xbbf0f888	-0.007353846
62	0x3dbd4c4e	0.092430696
63	0xbd91ad86	-0.07113175
64	0x3e083b83	0.13303952
65	0xbd2b3954	-0.04180272
66	0xbcd252ff	-0.025674341
67	0xbdae03d4	-0.08496824
68	0xbd06bc94	-0.032894686
69	0x3ca57856	0.020198982
70	0x3e0b5f14	0.13610488
71	0xbdee0391	-0.11621774
72	0x3d9d586b	0.0768288
73	0xbdb053e2	-0.086097494
74	0x3cf82340	0.030290246
75	0xbd4d7314	-0.050158575
76	0x3dd269c2	0.10274078
77	0xbc00005e	-0.007812588
78	0xbd8090e0	-0.06277633
79	0xbda590ba	-0.08084245
80	0xbce44be2	-0.027868215
81	0x3df91641	0.12162448
82	0x3dcb86ea	0.09937842
83	0xbdc6ba6b	-0.09703525
84	0xbe0d3a60	-0.137918
85	0x3dc91bd9	0.09819765
86	0xbdcd5a0a	-0.10026939
87	0x3d8ae83b	0.06782576
88	0x3db1fcf8	0.08690828
89	0x3dedaabe	0.11604832
90	0x3b3ab5a2	0.002848961
91	0x3ba91209	0.0051596207
92	0x3bd84fa1	0.0066012894
93	0x3d81c5dc	0.06336567
94	0x3dd8a91d	0.10579131
95	0x3e00d77e	0.12582204
96	0x3d884bfe	0.06655119
97	0xbdf8cc30	-0.12148321
98	0x3e1581b2	0.14600256
99	0xbdd9287b	-0.10603424
100	0xbdb5ae8a	-0.08871181
101	0xbd991f1a	-0.07476635
102	0x3b4f183b	0.0031600136
103	0x3e186fac	0.1488635
104	0xbe2956a5	-0.16536959
105	0x3cecbf41	0.02889979
106	0x3d924753	0.0714251
107	0x3df8a3f3	0.12140646
108	0xbd6fe2ce	-0.058565907
109	0x3de9b702	0.11411859
110	0xbdf3e3b1	-0.11908663
111	0xbd3b13d6	-0.045673214
112	0xbd816024	-0.063171655
113	0xbdce169e	-0.10062908
114	0xbda327ea	-0.079665974
115	0x3d7a9cee	0.061184816
116	0x3e07f917	0.13278614
117	0x3de143d2	0.10999264
118	0xbe2d903e	-0.16949555
119	0xbc2afcd1	-0.010436253
120	0x3e1feba1	0.15617229
121	0xbd93e2b0	-0.072209716
122	0xbc8de55f	-0.017321287
123	0x3dde52bd	0.10855625
124	0xbd305981	-0.043054108
125	0xbe05f4a3	-0.13081603
126	0x3e1d1c2f	0.15342782
127	0xbd69173a	-0.056906916
128	0xbc960a90	-0.018315583
129	0x3d9b84c8	0.075936854
130	0x3da77ff8	0.08178705
131	0xb9df5b38	-0.00042601838
132	0xbdf0a8bb	-0.11750933
133	0x3e072dbd	0.13201042
134	0x3d8e33db	0.069434844
135	0x3d898054	0.0671393
136	0xbdd57b4d	-0.104239084
137	0x3d94c528	0.07264167
138	0xbda10d3f	-0.078638546
139	0x3dbbbd7a	0.09166999
140	0xbd789570	-0.06068939
141	0xbdbeeb04	-0.093221694
142	0x3e092d6b	0.13396232
143	0xbd38d641	-0.045126203
144	0xbdb8eab0	-0.09029138
145	0xbd40abba	-0.04703877
146	0xbdd37f65	-0.10327033
147	0xbcbf05c4	-0.023318179
148	0x3e331c15	0.17491181
149	0xbdb65291	-0.08902467
150	0x3dea57af	0.114425056
151	0x3db6d75f	0.089277975
152	0x3d46e76f	0.048560556
153	0x3d38c4b7	0.045109477
154	0x3e2283ee	0.1587064
155	0x3d06124d	0.032732297
156	0x3cf8750a	0.030329246
157	0xbca0ecf0	-0.01964423
158	0x3e4587fc	0.19290155
159	0xbc29da33	-0.010366964

model.rnn.weight_ih_l1 f4 [160, 40]
0	0xbcd6f357	-0.02623908
1	0x3dfa0b35	0.12209169
2	0x3e0b2788	0.13589299
3	0xbd279e76	-0.040922605
4	0xbdc223f5	-0.094795145
5	0x3cdc756b	0.026911458
6	0xbd9aee4d	-0.075649835
7	0xbd85681e	-0.065139994
8	0xbbfab21e	-0.0076506278
9	0x3d9fa423	0.077949785
10	0x3de8bfe3	0.113647245
11	0xbb272b6f	-0.0025508066
12	0x3dffb21a	0.12485142
13	0xbd742cad	-0.05961292
14	0xbe13ed3d	-0.14445968
15	0x3dd60122	0.10449435
16	0xbd642868	-0.055702597
17	0x3c3ccfed	0.011524183
18	0x3de15d4f	0.11004125
19	0x3d2cd3fb	0.042194348
20	0x3d2f7d8c	0.04284434
21	0x3d0bf752	0.03417141
22	0xbd98983a	-0.0745091
23	0x3de3fa9f	0.111317866
24	0x3c9ff560	0.019526184
25	0xbe0bc552	-0.1364949
26	0x3dd4a693	0.10383334
27	0x3e057ed6	0.13036665
28	0xbe2650eb	-0.16241805
29	0xbdecaa0a	-0.1155587
30	0xbe0d1479	-0.13777341
31	0x3e33c202	0.17554477
32	0xbdbd40c1	-0.092408665
33	0xbd10ecc8	-0.035382062
34	0x3e166ff0	0.14691138
35	0xbdbe93df	-0.09305548
36	0x3e1644a0	0.14674616
37	0x3d5e469b	0.054266553
38	0xbe0ba60a	-0.13637558
39	0x3e193145	0.14960201
40	0xbdc81f22	-0.09771563
41	0x3e2e7b7a	0.1703929
42	0xbe002473	-0.12513904
43	0x3b2e770c	0.002662125
44	0xbe3ed15e	-0.18634555
45	0x3e073c62	0.13206628
46	0x3d94d32c	0.0726684
47	0x3d62a0a2	0.055328973
48	0x3dacc8e6	0.08436756
49	0xbddd78b0	-0.10814035
50	0x3c544d56	0.012957891
51	0xbd73b3d6	-0.059497677
52	0x3d86b838	0.06578106
53	0xbe260b75	-0.16215308
54	0xbe22bbd1	-0.15891959
55	0xbdaeb619	-0.08530826
56	0xbaf2f3c1	-0.0018535779
57	0xbdaa9a8f	-0.08330261
58	0xbd532508	-0.051548988
59	0x3e498421	0.1967931
60	0xbdaa31c4	-0.08310273
61	0xbd200657	-0.039068546
62	0xbd50b70e	-0.050955825
63	0x3c493830	0.012281463
64	0xbd831f8e	-0.06402503
65	0x3d4aa226	0.049471043
66	0x3d11830c	0.035525367
67	0xbe015629	-0.12630524
68	0x3daaf69f	0.083478205
69	0x3b82d4d4	0.0039926562
70	0x3df25432	0.11832465
71	0xbca6258e	-0.02028158
72	0xbd375b42	-0.044764765
73	0xbe3a2735	-0.18179019
74	0x3dec41e5	0.11536006
75	0x3d229cc4	0.039700285
76	0xbe3c7417	-0.1840366
77	0x3d233ba5	0.039851803
78	0x3dc62cd5	0.0967652
79	0xbe0e990b	-0.13925569
80	0xbd6f9809	-0.0584946
81	0x3d87375d	0.066023566
82	0xbd680a6a	-0.056650557
83	0xbdede29e	-0.116154894
84	0xbdcdb3b4	-0.10044041
85	0x3db96e93	0.090542935
86	0x3da4e2a6	0.08051042
87	0x3d0ba9a3	0.034097325
88	0xbbe978a1	-0.007124976
89	0xbd35449f	-0.044254895
90	0x3d5b5d54	0.0535558
91	0xbd06f424	-0.032947674
92	0x3d734e41	0.0594008
93	0x3d2eddb2	0.042691894
94	0xbde04a73	-0.109517
95	0xbe060b2f	-0.13090204
96	0xbd90e7cd	-0.070754625
97	0x3c9b42fe	0.018952843
98	0x3dda6d1b	0.106653415
99	0x3d1213e3	0.035663497
100	0xbd20014d	-0.03906374
101	0xbe238aae	-0.15970871
102	0x3e4743e5	0.19459493
103	0x3d36db62	0.044642814
104	0x3d7af654	0.061270073
105	0xbdf15b4b	-0.11784991
106	0x3cc6c58e	0.024264123
107	0xbe112a67	-0.14176331
108	0xbdf0518f	-0.11734306
109	0x3df5b9f9	0.11998362
110	0xbdacd7ab	-0.08439573
111	0x3c68f226	0.014217889
112	0x3b3c4239	0.0028725995
113	0xbc8d0db7	-0.017218454
114	0x3da23631	0.079204924
115	0x3dd4a9d6	0.10383956
116	0xbd572fe4	-0.052535906
117	0x3d309c41	0.043117765
118	0x3dd88013	0.10571303
119	0xbdee3270	-0.11630714
120	0x3e42808f	0.18994354
121	0x3d9b9651	0.0759703
122	0x3dbf3906	0.09337048
123	0x3d7d683e	0.06186699
124	0xbd05e21a	-0.03268633
125	0x3dc088b0	0.09401071
126	0x3d3942ff	0.045229908
127	0x3d9bcf67	0.07607918
128	0xbd42f135	-0.047593314
129	0xbdf58b9b	-0.11989518
130	0xbd8268a3	-0.06367614
131	0xbc324a37	-0.010881952
132	0x3d18c871	0.03730053
133	0xbc283f40	-0.010268986
134	0x3c397f4d	0.011321855
135	0xbdeb266b	-0.11481937
136	0x3dd07d46	0.10180144
137	0xbc8540a7	-0.01626618
138	0xbda7eb0a	-0.08199127
139	0xbd3ffdf3	-0.046873044
140	0x3d45f5aa	0.048329987
141	0xbb5cc70b	-0.0033687975
142	0x3db6883b	0.08912703
143	0x3e1930a9	0.14959969
144	0xbd5b7d1e	-0.053586118
145	0x3d9dee3c	0.07711455
146	0xbe2b0b18	-0.1670345
147	0xbd52b84d	-0.051445294
148	0xbdd9b6d2	-0.10630573
149	0x38abb563	8.187701e-05
150	0xbdcc8088	-0.09985453
151	0x3e366479	0.17811765
152	0xbcb6ebf2	-0.022329304
153	0xbd506804	-0.050880447
154	0x3e406491	0.18788363
155	0x3e3447a0	0.17605448
156	0x3ddcbd8d	0.107783414
157	0xbd7c1d0a	-0.06155113
158	0x3cb77827	0.02239616
159	0xbe0b6029	-0.13610901
160	0x3db24d60	0.08706164
161	0x3ca1f798	0.019771382
162	0x3e0b8692	0.13625553
163	0xbd34c61e	-0.04413425
164	0xbdd4f380	-0.103980064
165	0xbd4f8c39	-0.050670836
166	0xbcf1ee58	-0.029532596
167	0x3c6ad88a	0.0143338535
168	0x3de1880f	0.11012279
169	0xbd8d4a10	-0.06898892
170	0xbcf14506	-0.029451858
171	0xbdb1f752	-0.08689751
172	0x3cecd751	0.028911265
173	0x3d936ac7	0.071981005
174	0xbca7eed2	-0.02049962
175	0x3c7a4539	0.015275293
176	0xbd86d4cd	-0.06583557
177	0x3d7f240f	0.062290248
178	0x3db6f585	0.08933548
179	0x3c7b12e7	0.015324331
180	0xbd308fee	-0.043106012
181	0x3c35990f	0.011083855
182	0x3be9c6fc	0.0071343165
183	0xbe2f070e	-0.17092535
184	0x3c3d094a	0.011537859
185	0x3e200e8e	0.15630552
186	0xbdc0538f	-0.093909375
187	0x3bca08af	0.006165586
188	0xbe0c20b0	-0.13684344
189	0x3e0bf3d6	0.13667235
190	0x3d553f8c	0.052062556
191	0xbd560f5b	-0.052260738
192	0x3dfe7b42	0.12425853
193	0x3d4663e6	0.048435114
194	0x3d5e1f8f	0.054229315
195	0x3c099856	0.008398136
196	0x3db12fea	0.08651717
197	0xbdb67f41	-0.089109905
198	0xbd1c12d7	-0.038103905
199	0xbdf7dde5	-0.1210287
200	0x3d82c402	0.06385042
201	0x3c98ca58	0.018651173
202	0xbdd52edc	-0.10409328
203	0xbcb42f52	-0.02199522
204	0xbdee3405	-0.11631016
205	0x3d36b76a	0.04460851
206	0xbe43d4f8	-0.1912421
207	0xbd6c0bc1	-0.057628397
208	0x3da68795	0.08131329
209	0x3e428972	0.18997744
210	0x3e22ac3f	0.15886019
211	0xbc9b3b05	-0.018949041
212	0x3dab4abc	0.08363864
213	0xba52f48b	-0.0008047304
214	0xbd958372	-0.07300462
215	0xbdaca416	-0.084297344
216	0xbe030e59	-0.12798442
217	0x3e17a577	0.14809214
218	0xbdd837b6	-0.10557501
219	0x3a62a273	0.00086454226
220	0x3d6d74fc	0.057972893
221	0xbd5af0e2	-0.05345238
222	0xbd28e325	-0.041232247
223	0x3bf89d66	0.0075871227
224	0xbe2e6691	-0.17031313
225	0x3e06e5e9	0.13173641
226	0xbe06ce06	-0.13164529
227	0xbdb21048	-0.08694512
228	0xbe3a71cd	-0.18207474
229	0xbdfcfcbc	-0.12352893
230	0xbcf70979	-0.030155884
231	0x3da9e72c	0.08296046
232	0x3d8ba5cf	0.06818735
233	0xbe2d7c78	-0.16942012
234	0x3c86012b	0.016357979
235	0xbd707cac	-0.058712646
236	0x3e062f7c	0.13104051
237	0xbd9f9af7	-0.07793229
238	0xbdc17d3e	-0.09447716
239	0xbe0d412c	-0.13794392
240	0xbd332a39	-0.04374144
241	0xbce80371	-0.028321953
242	0x3d92c30c	0.071661085
243	0xbb71edcc	-0.003691542
244	0xbc92a705	-0.017901907
245	0xbd8c36d6	-0.068463966
246	0xbdc80f51	-0.097685464
247	0x3d723c2a	0.05913941
248	0x3c184217	0.009293101
249	0x3b84579e	0.004038765
250	0xbe354256	-0.17701086
251	0x3c5408fc	0.012941595
252	0x3e1408c4	0.14456469
253	0x3e11830e	0.1421015
254	0xbd2cee20	-0.04221928
255	0xbb42f5fd	-0.0029748671

model.rnn.weight_hh_l1 f4 [160, 40]
0	0x3cf6bf9c	0.030120663
1	0x3e0d0a2b	0.1377341
2	0x3ddec7fa	0.10877986
3	0x3d86e096	0.06585805
4	0xbcc3168f	-0.023814468
5	0x3e16c519	0.14723624
6	0x3da9f0b5	0.08297864
7	0xbdb3154d	-0.08744297
8	0xbe01a6b4	-0.12661248
9	0x3e1a6dd8	0.15080965
10	0x3e1da040	0.15393162
11	0xbcd3eb29	-0.025868969
12	0x3e0c6192	0.13709095
13	0x3d75437a	0.059878804
14	0xbcfc8c39	-0.030828582
15	0xbd848099	-0.064698406
16	0xbdfa4625	-0.1222041
17	0xbdbff963	-0.093737386
18	0xbcd0b476	-0.025476675
19	0x3c4f1f27	0.012641705
20	0x3da1f910	0.07908833
21	0xbda75f7a	-0.081725076
22	0xbe1d5d50	-0.15367627
23	0x3dc149b5	0.094378866
24	0xbdb3c6b3	-0.08778133
25	0x3d10ba8f	0.035334166
26	0x3de86d83	0.11349013
27	0x3d95f110	0.0732137
28	0x3ca57c7b	0.020200958
29	0x3d67dc76	0.056606732
30	0x3e3ddae4	0.18540531
31	0xbdd8dbad	-0.10588775
32	0xbde1dbb0	-0.1102823
33	0x3e2aa0e4	0.16662937
34	0x3e0f1a09	0.13974775
35	0x3c2321e9	0.009956815
36	0x3ce721c4	0.028214343
37	0xbd8e3736	-0.069441244
38	0x3ca39a15	0.019970933
39	0x3df4310e	0.11923419
40	0xbe10d53c	-0.14143842
41	0xbdd9bb3b	-0.106314145
42	0xbcf1aad0	-0.029500395
43	0x3d4e3e88	0.050352603
44	0xbdd60253	-0.10449662
45	0xbd88cb01	-0.06679345
46	0x3d8ff65d	0.07029412
47	0xbc4d0f45	-0.012515848
48	0x3df3bbb3	0.11901035
49	0xbd285f3f	-0.04110646
50	0x3dfc4992	0.1231872
51	0xbc2d7034	-0.010585833
52	0x3d787931	0.060662452
53	0xbdc1683a	-0.09443708
54	0x3e40e97c	0.18839067
55	0xbd7c76af	-0.061636623
56	0xbe0cb77f	-0.13741873
57	0x3e24e865	0.16104276
58	0xbd791ba9	-0.060817394
59	0x3ca42a6d	0.020039761
60	0x3dd33b59	0.10314054
61	0xbe399e08	-0.1812669
62	0xbdd6e177	-0.10492223
63	0xbdf09fce	-0.1174923
64	0xbe2e5360	-0.17023993
65	0xbd8ad03f	-0.06778001
66	0xbe066086	-0.13122758
67	0xbd4a4ca7	-0.049389508
68	0x3d9c7f9e	0.076415285
69	0x3d82daed	0.06389413
70	0xbd41e0c0	-0.04733348
71	0xbdca54ac	-0.09879431
72	0xbdbd6318	-0.09247416
73	0xbc27db54	-0.010245163
74	0x3da46527	0.08027106
75	0x3d1e933c	0.038714632
76	0x3df1083a	0.11769147
77	0xbce5cadd	-0.028050834
78	0x3dce374f	0.10069143
79	0x3de706b1	0.11280573
80	0x3e160842	0.14651588
81	0x3dfe0210	0.12402737
82	0x3ded041b	0.11573049
83	0x3e18bf4c	0.14916724
84	0xbe16730c	-0.14692324
85	0xbccd5c4e	-0.025068428
86	0xbdd98a93	-0.10622134
87	0x3d841f77	0.06451314
88	0x3e0e7dc2	0.1391516
89	0x3e0642d6	0.13111433
90	0xbe272bc4	-0.16325289
91	0x3e1824be	0.14857766
92	0x3d1e4b1d	0.038645852
93	0x3df52929	0.11970741
94	0x3deadaa7	0.11467486
95	0x3de7e516	0.113229915
96	0x3dae1fab	0.08502134
97	0x3d187e03	0.03722955
98	0xbdeef0dd	-0.11667035
99	0x3dd51853	0.1040503
100	0x3e1ed884	0.15512282
101	0xbcdbfce2	-0.026853982
102	0xbe0f4a19	-0.1399311
103	0xbd86b922	-0.0657828
104	0x3e12acb4	0.14323694
105	0xbdbf9e0c	-0.09356317
106	0xbd94d6f3	-0.07267561
107	0x3d825880	0.06364536
108	0xbd814914	-0.06312767
109	0xbdf2d817	-0.11857622
110	0x3dcee898	0.101029575
111	0x3d6a3dfd	0.057188023
112	0x3c22b9b8	0.009931974
113	0xbe002b55	-0.1251653
114	0x3c18c022	0.009323152
115	0xbd332191	-0.043733183
116	0xbd9ee1da	-0.077579215
117	0x3dd95931	0.10612715
118	0x3caa5138	0.020790681
119	0x3dd4f29c	0.103978366
120	0xbe0d61ec	-0.13806885
121	0x3df5bd0c	0.119989485
122	0xbcbf4b18	-0.023351237
123	0xbb13f031	-0.0022573585
124	0x3ccc11a9	0.024910765
125	0x3de0ffd1	0.10986293
126	0xbd9a253e	-0.07526635
127	0xbe00f1b2	-0.125922
128	0xbdb7814e	-0.0896021
129	0x3d02f5f4	0.03197284
130	0xbd28430a	-0.04107956
131	0xbde6c423	-0.11267879
132	0xbc6496f3	-0.013952005
133	0x3ded3450	0.115822434
134	0xbdc3f8f0	-0.095689654
135	0x3c9373dd	0.017999584
136	0x3dbe2e09	0.09286124
137	0x3e32c48e	0.17457792
138	0x3dd62e99	0.104581065
139	0x3deeaf24	0.11654499
140	0x3de62a5e	0.1123855
141	0xbe1a5dde	-0.1507487
142	0xbe0fc054	-0.14038211
143	0x3d10c4f4	0.03534408
144	0x3cc8b7b5	0.02450166
145	0x3c86732d	0.016412342
146	0x3dc0544d	0.09391079
147	0x3c16401c	0.009170558
148	0x3e1d4568	0.15358508
149	0x3cb41f59	0.021987604
150	0xbd21832d	-0.03943174
151	0xbdb7a9b7	-0.089679174
152	0xbcacef11	-0.02111009
153	0x3cfd36ad	0.03090986
154	0xbe19bd52	-0.15013626
155	0xbc449c78	-0.012000196
156	0x3d9912b5	0.07474271
157	0x3e1d4915	0.1535991
158	0x3d553bb5	0.052058894
159	0xbdd3fc5c	-0.10350868
160	0xbdb04d78	-0.08608526
161	0xbcae7e99	-0.0213006
162	0xbe208701	-0.156765
163	0x3db8930a	0.090124205
164	0x3de443b0	0.11145723
165	0x3b4c1d2f	0.0031145324
166	0xbd2d532c	-0.042315647
167	0x3d09f4aa	0.033680595
168	0xbd7227fc	-0.059120163
169	0x3cce552d	0.0251871
170	0xbd8dd759	-0.0692584
171	0xbde3d009	-0.11123664
172	0xbda3f7fc	-0.08006284
173	0x3dfa3c5c	0.12218544
174	0x3bd232ab	0.0064147315
175	0x3d7a64d0	0.0611313
176	0x3e0fbdbc	0.14037222
177	0xbd18b59e	-0.03728258
178	0x3d155c2e	0.036464863
179	0xbc751482	-0.014958503
180	0xbdffd2f4	-0.12491408
181	0x3e052f4f	0.13006328
182	0x3d63eee3	0.055647742
183	0xbdc61a69	-0.09673006
184	0x3c185ede	0.009299962
185	0x3caf2b23	0.021382874
186	0xbdb1cd0c	-0.08681688
187	0xbd12b2fc	-0.035815224
188	0xbdb7c0e4	-0.08972338
189	0x3af4dfc2	0.0018682408
190	0xbcc5a5bb	-0.024126878
191	0xbdf82ad4	-0.12117544
192	0xbd57c7aa	-0.05268065
193	0x3e22ffd0	0.15917897
194	0x3d67edc5	0.05662324
195	0x3b559451	0.0032589624
196	0xbe18744b	-0.14888112
197	0x3c8ea064	0.017410465
198	0xbdcf9284	-0.101353675
199	0xbcecb833	-0.028896427
200	0x3e00a104	0.12561423
201	0xbc1ad139	-0.009449297
202	0xbd7c3988	-0.061578304
203	0xbe00df5d	-0.12585206
204	0x3caffabe	0.021481868
205	0xbd4f10d3	-0.050553154
206	0xbe12aa84	-0.14322859
207	0x3cb485a1	0.022036375
208	0xbdf6d3e7	-0.12052136
209	0x3dd25fc4	0.10272172
210	0x3d7ffff1	0.062499944
211	0x3d12d2f7	0.035845723
212	0xbe111f2b	-0.14172046
213	0x3e43c57c	0.19118303
214	0x3c1b9c11	0.009497658
215	0xbe03b9d5	-0.12863858
216	0x3dc8ec82	0.09810735
217	0x3e2ea3ff	0.17054747
218	0xbe2ebb0a	-0.17063537
219	0x3b8a08eb	0.004212489
220	0x3d7894db	0.060688835
221	0xbdc984d9	-0.09839792
222	0xbdddb775	-0.10826007
223	0xbddb3f7c	-0.10705468
224	0x3d9affb8	0.07568306
225	0x3e00f4d4	0.12593395
226	0x3dc8b319	0.09799785
227	0xbd90d570	-0.0707196
228	0x3e38f6c8	0.1806289
229	0xbca1ad90	-0.019736081
230	0x3d826955	0.06367747
231	0x3deafb10	0.114736676
232	0x3e4db3fe	0.20088193
233	0x3cb82481	0.022478344
234	0xbddd606d	-0.108094074
235	0xbdfbe762	-0.12299992
236	0xbe05eaa9	-0.13077797
237	0x3c6da358	0.014504276
238	0xbd80f73d	-0.06297157
239	0xbdda201a	-0.10650654
240	0x3cf9fe1b	0.030516675
241	0x3d8c59a1	0.06853033
242	0xbe121cb1	-0.14268757
243	0x3dcf64bb	0.10126635
244	0xbde1af13	-0.11019721
245	0xbdbaa571	-0.09113587
246	0xbe0a0049	-0.13476671
247	0x3ddf9643	0.10917332
248	0x3db2fbc6	0.08739428
249	0x3dc04aa4	0.093892366
250	0x3e06f9a4	0.13181168
251	0x3d0e8a98	0.034800142
252	0x3d7e91e8	0.062150866
253	0xbd2398e5	-0.039940733
254	0x3dd50cc5	0.10402826
255	0xbdcf2b93	-0.10115733

model.rnn.bias_ih_l1 f4 [160]
0	0xbdaa5d73	-0.08318605
1	0xbd8f032b	-0.06983026
2	0x3bcf4f23	0.0063265725
3	0x3d65662c	0.05600564
4	0x3d76af31	0.06022567
5	0xbdd230c0	-0.102632046
6	0x3dcda46f	0.10041129
7	0x3dbac51f	0.09119629
8	0xbe102511	-0.1407664
9	0xbdfe5518	-0.12418574
10	0xbdc5c64a	-0.09656961
11	0xbe073c26	-0.13206539
12	0x3dbba17c	0.0916166
13	0x3e363dc4	0.17796999
14	0x3e346ad0	0.1761887
15	0xbd9838dd	-0.07432721
16	0xbdc1ed09	-0.09469039
17	0xbd9a0ba8	-0.075217545
18	0xbdc1403a	-0.09436078
19	0xbd00de6c	-0.031462118
20	0x3d925161	0.07144428
21	0x3deed3c2	0.11661483
22	0xbdf3dfed	-0.11907945
23	0x3a2311bf	0.0006220601
24	0xbd7e0ad7	-0.062022056
25	0x3bf71a57	0.0075409818
26	0x3ce097ab	0.02741607
27	0x3cdd070d	0.026980901
28	0x3db6f48a	0.08933361
29	0xbdee453e	-0.11634301
30	0x3ca2f2cf	0.01989117
31	0x3d5cd658	0.05391535
32	0x3ccf3feb	0.025299033
33	0xbdbe5658	-0.092938125
34	0xbdd2f351	-0.10300315
35	0xbd817d36	-0.0632271
36	0x3dd10bf1	0.10207356
37	0x3e0566ce	0.13027498
38	0x3df12ae7	0.11775761
39	0x3db8aa7f	0.090168945
40	0xbe1f37b3	-0.15548591
41	0x3c8add36	0.016951185
42	0x3d7589c7	0.059945848
43	0xbde17a99	-0.11009712
44	0xbe077425	-0.132279
45	0x3d92b6dd	0.07163785
46	0xbc865ff0	-0.016403168
47	0x3df567f3	0.11982717
48	0x3d71d2d1	0.05903894
49	0xbd40c389	-0.047061477
50	0x3dc9a513	0.098459385
51	0x3c4a8ae4	0.012362216
52	0xbda6d394	-0.08145824
53	0x3c82204a	0.015884537
54	0x3d961fbf	0.07330274
55	0xbddbc613	-0.10731139
56	0x3d7968fa	0.06089113
57	0xbcedfa75	-0.029050091
58	0xbd7ae5aa	-0.06125418
59	0x3cdf9752	0.027293835
60	0xbe196a92	-0.1498206
61	0xbd452b82	-0.048137195
62	0x3e2f84a8	0.17140448
63	0x3c45fac3	0.012083712
64	0x3d6910a2	0.056900628
65	0x3d8a8086	0.06762795
66	0xbd91f415	-0.07126633
67	0x3e14c1d6	0.14527068
68	0xbe378953	-0.17923479
69	0xbd4095db	-0.047017913
70	0xbd1d9621	-0.038473252
71	0xbd1c98bc	-0.038231596
72	0x3d2c9d5c	0.042142257
73	0x3d5abb47	0.053401258
74	0x3d6bf6a2	0.057608254
75	0x3e0a25ca	0.13490978
76	0xbd6e5d9a	-0.058194734
77	0xbcdc1c69	-0.026869016
78	0x3cf13e7c	0.02944874
79	0x3e114c20	0.14189196
80	0x3dfb65d1	0.12275279
81	0x3b32e291	0.0027295689
82	0xbdae8883	-0.08522131
83	0x3d3a6817	0.045509424
84	0x3e2ac5f7	0.1667708
85	0x3d582b64	0.052775756
86	0xbcb38cb5	-0.02191768
87	0xbdca0bf6	-0.098655626
88	0xbd4955b2	-0.04915399
89	0xbe0599d1	-0.13046958
90	0x3d5d5790	0.054038584
91	0x3d19d933	0.037560653
92	0xbcb9094e	-0.022587445
93	0x3ddc3680	0.107525826
94	0x3d938d41	0.072046764
95	0xbdb59827	-0.088669114
96	0x3e11b3ad	0.14228697
97	0x3df05be1	0.117362745
98	0xbe1b7c42	-0.1518412
99	0x3ca52839	0.020160781
100	0x3d34edaa	0.044171967
101	0xbde5a565	-0.11213187
102	0xbd971fd9	-0.07379121
103	0x3de41ed7	0.11138695
104	0xbe184e7d	-0.14873691
105	0xbc827000	-0.015922546
106	0xbdf21b83	-0.11821654
107	0xbe2f7fac	-0.17138547
108	0x3c7853c3	0.015156689
109	0xbb2227d5	-0.002474298
110	0x3d21fe13	0.039548945
111	0xbd51ad70	-0.051190794
112	0x3e33a2e9	0.17542614
113	0xbdfd5c6f	-0.12371146
114	0x3d394ca7	0.045239117
115	0x3c3db1b5	0.011578013
116	0xbd9c44aa	-0.07630284
117	0x3c9a05b0	0.01880154
118	0x3e02d816	0.12777743
119	0x3e2d2880	0.16909981
120	0xbd127c1c	-0.03576289
121	0x3cf2f8c3	0.029659634
122	0xbd9737d1	-0.07383693
123	0xbd11e01a	-0.03561411
124	0xbe1ae4cb	-0.1512634
125	0x3db7a4fc	0.08967015
126	0x3dd1f3f8	0.102516115
127	0x3da17e06	0.07885365
128	0x3d8079ef	0.06273257
129	0xbd9f7dca	-0.07787664
130	0x3dba9991	0.09111322
131	0xbdee6531	-0.116403945
132	0x3d1eedbf	0.03880095
133	0xbd7ed577	-0.062215295
134	0x3de61d6e	0.11236082
135	0xbe1780a3	-0.14795165
136	0xbccb8e62	-0.024848167
137	0x3e2671bc	0.16254324
138	0x3dee745b	0.11643287
139	0xbc45a686	-0.012063628
140	0xbdd9fa27	-0.10643416
141	0xbdf85c87	-0.12127023
142	0xbc226d49	-0.009913751
143	0xbe0fbd36	-0.14037022
144	0x3e1bc9bf	0.15213679
145	0xbe00c09b	-0.12573473
146	0x3e374e97	0.17901073
147	0xbe02cb94	-0.12772971
148	0xbd6f91ce	-0.05848866
149	0x3e2379e0	0.1596446
150	0x3e31c919	0.17361869
151	0x3d1ff767	0.0390543
152	0x3e09eaa8	0.1346842
153	0x3d97037c	0.073737115
154	0x3db688a1	0.08912779
155	0xbdccc540	-0.0999856
156	0xbda20210	-0.0791055
157	0x3d1e60aa	0.038666405
158	0x3db570fa	0.08859439
159	0xbd96cd9f	-0.07363438

model.rnn.bias_hh_l1 f4 [160]
0	0x3b1e873c	0.0024189493
1	0xbd2fafdf	-0.042892333
2	0xbd264ca4	-0.040600434
3	0xbd6479bf	-0.05578017
4	0x3ddc5021	0.10757471
5	0x3bfd44a9	0.007729132
6	0x3de1848d	0.1101161
7	0x3d90268b	0.070386015
8	0x3de830f8	0.11337465
9	0xbd0baa5e	-0.03409802
10	0xbdf47463	-0.119362615
11	0xbdd25591	-0.10270227
12	0x3dcd0825	0.10011319
13	0x3e3091cf	0.17243122
14	0x3da50c2b	0.080589615
15	0xbdf10c41	-0.11769915
16	0x3ddefad3	0.10887685
17	0xbd961484	-0.07328132
18	0xbc54ae49	-0.012981006
19	0xbdddf1c8	-0.10837132
20	0xbdc96b75	-0.09834949
21	0x3d6905c6	0.05689027
22	0x3e05608e	0.13025114
23	0xbb4259b4	-0.0029655518
24	0xbde09de7	-0.109676175
25	0x3e153041	0.14569189
26	0xbd528864	-0.051399603
27	0x3d34ea3f	0.044168707
28	0xbd91116f	-0.07083403
29	0x3e03e453	0.12880068
30	0xbddd114c	-0.10794315
31	0xbe10925b	-0.1411833
32	0x3cae7799	0.021297263
33	0x3df26a9d	0.11836741
34	0xbdca5c6b	-0.098809086
35	0xbe204037	-0.15649496
36	0x3d3960c5	0.045258302
37	0x3e392e86	0.18084154
38	0x3c88921c	0.016671233
39	0x3dd26316	0.102728054
40	0xbcef6e74	-0.029227473
41	0x3cf50eaf	0.029914228
42	0xbe09ecdf	-0.13469265
43	0xbdecbfa8	-0.11559993
44	0x3d6dee40	0.05808854
45	0x3e0eaf03	0.13933949
46	0xbb99b92d	-0.004691264
47	0xbe082916	-0.13296923
48	0xbb4131b9	-0.00294791
49	0x3d102070	0.035187185
50	0xbddd342a	-0.10800965
51	0xbd822961	-0.06355549
52	0xbe26b3bb	-0.16279499
53	0x3d40647b	0.046970826
54	0x3d3a4a98	0.045481294
55	0x3db6c7dc	0.08924839
56	0xbcfae9f3	-0.030629134
57	0x3e3e2b88	0.18571293
58	0x3d01b8f3	0.031670522
59	0x3e2d1d7a	0.16905776
60	0xbd0e495e	-0.034737937
61	0xbcb231af	-0.021752207
62	0xbd480032	-0.04882831
63	0xbe1661d3	-0.14685754
64	0x3e0e64c3	0.13905625
65	0x3e2fc88e	0.1716635
66	0x3dea242a	0.11432679
67	0xbd32eefb	-0.04368494
68	0xbdd61390	-0.1045295
69	0x3d81a7ed	0.063308574
70	0xbdfb39af	-0.12266862
71	0x3e0fdf4d	0.14050026
72	0xbdb872f3	-0.090063
73	0xbe1906c3	-0.14943986
74	0xbe0bf655	-0.13668187
75	0xbd0a9c65	-0.033840556
76	0xbdf0afb3	-0.11752262
77	0x3ce872a8	0.028374985
78	0x3e09e0a7	0.13464604
79	0xbdd0a073	-0.10186853
80	0xbd5a2eca	-0.053267278
81	0xbdf71f73	-0.12066545
82	0x3e2c9c5d	0.16856523
83	0xbde314d8	-0.1108796
84	0xbdb1d1a7	-0.08682566
85	0xbd59cf76	-0.053176366
86	0xbc248b79	-0.0100430185
87	0xbda57ae8	-0.08080083
88	0x3d03b784	0.032157436
89	0xbcc85349	-0.024453776
90	0xba2aa2b9	-0.0006509233
91	0xbc367655	-0.011136611
92	0x3d8652d1	0.06558765
93	0x3aa184c7	0.0012322896
94	0x3e279baf	0.16367982
95	0x3d9bd0dc	0.07608196
96	0xbdfd5c51	-0.123711236
97	0x3d4f566c	0.050619528
98	0x3d60551c	0.054768667
99	0xbe1980f9	-0.14990605
100	0xbe0d89e6	-0.13822135
101	0x3c1b45ce	0.009477092
102	0xbe2c084c	-0.1680004
103	0xbbae848b	-0.005325859
104	0x3ce8c168	0.028412536
105	0xbdc7bc9c	-0.09752771
106	0xbe18c849	-0.14920153
107	0xbddc9a70	-0.10771644
108	0xbcea0350	-0.028566033
109	0xbd1bc2e3	-0.038027655
110	0xbdb31a3d	-0.08745239
111	0xbd54b71a	-0.05193243
112	0x3e27b195	0.16376336
113	0xbde6f78a	-0.11277683
114	0xbd89d9b1	-0.067309745
115	0xbe02b8cc	-0.12765807
116	0xbe26bc66	-0.16282806
117	0xbdc5d652	-0.09660019
118	0x3db65028	0.08902007
119	0xbd2b030b	-0.04175095
120	0xbdb4a027	-0.08819609
121	0xbbccbe5a	-0.0062482776
122	0x3c92d599	0.017924117
123	0xbd890aa7	-0.06691485
124	0x3d777e56	0.060423218
125	0xbdce9d10	-0.10088551
126	0x3da31089	0.07962138
127	0x3ba9f184	0.0051862616
128	0xbe08c8ee	-0.13357899
129	0x3d941f5d	0.072325446
130	0xbc44a47a	-0.012002105
131	0xbd72410d	-0.05914407
132	0x3d29f3e2	0.04149235
133	0x3d4a4170	0.049378812
134	0x3e1f6f87	0.15569888
135	0x3de09ec0	0.10967779
136	0xbdb557da	-0.08854647
137	0x3d3377bf	0.04381537
138	0xbcc05e5b	-0.023482492
139	0xbd7b7b1e	-0.06139671
140	0x3de41cf8	0.11138338
141	0x3d43acc3	0.04777218
142	0xbdb33215	-0.08749787
143	0xbd13a4c9	-0.036045823
144	0x3d80ef6c	0.06295666
145	0x3e2eb0fd	0.17059703
146	0x3e162360	0.14661932
147	0x3dc67d21	0.09691835
148	0xbd3881fc	-0.045045838
149	0x3e0f0605	0.1396714
150	0x3d5d43e7	0.054019835
151	0xbe019596	-0.12654719
152	0xbd74ecec	-0.05979626
153	0x3e15678c	0.14590281
154	0x3cd277e2	0.02569193
155	0x3cfa2e17	0.030539555
156	0xbcac7841	-0.021053435
157	0xbdd28d5f	-0.10280871
158	0xbdd3886f	-0.10328757
159	0x39fce7f0	0.00048237992
