TSF/models/DeepAR_v0.1/prediction-net-state.pt (torch, 107868 bytes, 11 tensors)

model.param_proj.proj.0.weight f4 [1, 40]
0.06002724 0.07697432 -0.018633706 -0.02294544 -0.46690992 -0.10949403 -0.24494745 -0.021291792
0.14636159 -0.3165555 0.3210389 -0.27863276 0.15727027 0.024625625 -0.13536039 -0.21145771
-0.12528297 -0.16990328 0.5567575 0.30779046 -0.21037002 -0.14529967 -0.18666822 0.15460572
0.2116014 -0.048688676 0.024831016 -0.1641076 0.32871988 -0.24330409 0.38426587 -0.7993669
-1.782123 -0.7565765 -0.013793571 0.24537902 -0.23590797 -0.01842904 0.02594308 0.2033756
00000000: 20df 753d b6a4 9d3d b7a5 98bc 13f8 bbbc
00000010: d10e efbe 683e e0bd 81d3 7abe 206c aebc
00000020: d0df 153e 9013 a2be 365f a43e f4a8 8ebe
00000030: 750b 213e aebb c93c ea9b 0abe 5f88 58be
00000040: 2e4a 00be 20fb 2dbe a987 0e3f b696 9d3e
00000050: 3d6b 57be 70c9 14be f425 3fbe f650 1e3e
00000060: 0aae 583e c76d 47bd 6a6a cb3c d30b 28be
00000070: f94d a83e b524 79be 7fbe c43e 4fa3 4cbf
00000080: 9b1c e4bf ffae 41bf 6efe 61bc a344 7b3e
00000090: dc91 71be 80f8 96bc 9586 d43c b141 503e

model.param_proj.proj.1.weight f4 [1, 40]
-0.09637632 0.09144954 0.11573183 -0.029299388 0.113259144 0.06176921 -0.08298218 -0.029038297
0.10258185 -0.05109089 0.097591974 -0.08202271 0.1718425 -0.10842788 0.058924545 -0.16369137
-0.06394329 -0.029480457 -0.03283556 0.12516114 -0.08032147 -0.09383376 -0.1446029 0.12447061
0.107044816 -0.11175492 0.15796447 -0.12951498 0.15362188 -0.009133835 -0.06901589 -0.104748055
0.044481847 0.02345577 -0.1436015 0.0700173 -0.12489575 -0.08072904 -0.109657556 0.111125745
00000000: f360 c5bd e549 bb3d cf04 ed3d 4505 f0bc
00000010: 69f4 e73d b601 7d3d 90f2 a9bd b9e1 edbc
00000020: 6f16 d23d ae44 51bd 4dde c73d 86fb a7bd
00000030: 7bf7 2f3e 700f debd dd5a 713d b69e 27be
00000040: b3f4 82bd 0081 f1bc 957e 06bd 3e2a 003e
00000050: 957f a4bd ea2b c0bd c812 14be 72ea fe3d
00000060: 503a db3d c3df e4bd 70c1 213e 939f 04be
00000070: 0e4f 1d3e 15a6 15bc 3458 8dbd 2686 d6bd
00000080: 9932 363d 5126 c03c 460c 13be 3b65 8f3d
00000090: 58c9 ffbd 4455 a5bd 2494 e0bd e595 e33d

model.param_proj.proj.2.weight f4 [1, 40]
0.007120455 -0.22043827 0.060327612 -0.15090352 0.16778749 0.15147524 0.16389894 -0.23045978
-0.13360451 0.16036983 0.012466106 0.08652603 -0.19353239 0.23658237 0.17391838 0.2384066
0.14023562 0.39101002 -0.44604188 -0.13946147 0.041880943 -0.0647632 -0.08941632 -0.2522805
-0.22732037 -0.060198132 -0.008072334 0.17966872 -0.05053298 -0.12026209 -0.23216772 0.13912538
1.0334079 0.48572645 0.16608356 -0.16003089 -0.0943984 0.23694685 -0.020374052 -0.21125318
00000000: b552 e93b 92ba 61be 161a 773d 7486 1abe
00000010: 7cd0 2b3e 531c 1b3e 20d5 273e a6fd 6bbe
00000020: 9fcf 08be fd37 243e a33e 4c3c 8f34 b13d
00000030: 5b2d 46be a642 723e a917 323e dc20 743e
00000040: ed99 0f3e 7732 c83e 9a5f e4be fdce 0ebe
00000050: 5a8b 2b3d 92a2 84bd e71f b7bd e92a 81be
00000060: acc6 68be 5192 76bd d341 04bc 14fb 373e
00000070: acfb 4ebd f84b f6bd 60bd 6dbe e276 0e3e
00000080: b646 843f 23b1 f83e cf11 2a3e 23df 23be
00000090: f353 c1bd 32a2 723e 7ce7 a6bc c152 58be

model.rnn.weight_ih_l0 f4 [160, 37]
-0.046879094 -0.111609094 -0.037407737 0.06773237 0.0019256175 0.26102534 0.10863649 0.0262584
0.086793795 0.01948534 0.014924889 0.20608287 -0.035826072 0.013000644 0.05845224 0.34485444
-0.07598045 0.032262158 -0.11944319 0.22014944 0.12981962 -0.0025804052 0.11779001 0.29131564
-0.44554445 -0.20269305 -0.39082044 0.0005952847 -0.00060774904 -0.00013690966 -0.077618904 -0.0004119156
-0.123504944 -0.31008783 0.65265423 -0.48086146 -0.02115517 0.15111643 0.0040874872 0.030113308
-0.20335251 0.046991076 0.09442108 0.16863702 0.27630523 0.09618672 0.19737826 -0.0071723885
-0.10281712 0.09552863 -0.08061284 0.12729186 -0.05802464 0.063557684 -0.0017271199 -0.092859074
0.32146865 0.054980267 -0.29572406 -0.040439326 -0.16576307 0.3138345 0.14952433 -0.09381658
0.0007602015 -0.00030967905 -0.00025663944 0.058941193 -0.0005519769 0.018176049 0.3567892 -0.49534172
-1.1957469 -0.06581566 0.3001611 0.19573186 0.1710188 0.24486314 0.29653406 0.12189308
0.24859148 0.07489642 0.23440818 0.060006335 0.07416693 0.110915095 0.2659916 0.2158311
0.21413557 0.1664121 0.25741214 0.13849717 0.086604066 0.18382542 0.035612434 0.036032494
0.18433443 0.18574174 0.015165331 0.0947138 0.017922726 -0.0001515579 0.00019411948 -0.0012197618
0.13015525 -0.0008317382 0.17006798 0.39245126 -0.37697646 -0.2974992 0.09792363 0.1619171
-0.062204674 -0.03392182 0.2542183 0.1350809 0.08182803 0.14102648 -0.0562943 -0.09414243
0.05322073 -0.029798955 0.10808553 0.051311504 0.054055877 -0.0780187 0.0907953 -0.0884412
-0.112941004 0.071808696 0.06343522 -0.01208078 0.21247476 0.2115655 0.22249389 0.11932671
0.23469596 0.034206554 -0.0006324588 -0.00010089621 -0.0012939854 0.25890535 0.001116824 0.013035512
0.49979353 -0.10362749 0.30157113 0.018425891 0.30219054 0.08310793 -0.010646598 -0.02743232
-0.050044265 0.28636912 0.2500922 0.19377066 0.13895899 0.19929816 -0.12261367 0.1097617
-0.016551709 0.03185713 0.058434717 0.0039359755 0.14727202 0.18029305 0.15036741 0.006134461
0.14981765 -0.1169659 -0.030218681 -0.16809864 -0.17247927 -0.06958917 -0.28370035 -0.0013929011
-0.0013654248 0.00018102209 -0.034514055 -0.00073285354 0.053365756 0.7351798 0.50445175 -0.14917149
0.21165702 -0.30494344 -0.51494354 0.10520193 0.04197217 -0.03799595 -0.052500866 0.124381624
-0.22126402 0.27293906 0.32762682 0.28569067 0.1900565 0.5194877 0.18426609 0.15645324
0.39592582 0.36936715 0.19631244 0.3079707 0.14347996 -0.006864599 -0.21292624 -0.24998051
0.02991185 -0.6685331 -0.31132677 -0.5962598 -0.0007614213 0.00043077004 -0.0002148252 0.041800734
0.00024431024 -0.10750222 -0.4622987 0.13887778 -0.29915932 0.052077133 -0.10433345 0.009517915
0.05209983 0.03483513 -0.1054219 -0.06805783 0.04221412 -0.009892751 0.12214771 0.0017035664
-0.12630172 -0.08229176 -0.028988944 0.04787111 -0.07033409 -0.16134322 -0.0260493 -0.05779519
-0.14620125 -0.1310775 0.26954794 0.049510315 0.19089712 0.06931698 0.23429662 0.3360967
0.17960267 -0.00047401246 -0.0005513223 -0.00037723544 -0.049239054 0.0008753815 0.025494555 -0.3093654
00000000: 4b04 40bd 4f93 e4bd db38 19bd 45b7 8a3d
00000010: 0065 fc3a 1da5 853e cf7c de3d db1b d73c
00000020: f2c0 b13d b89f 9f3c 8687 743c 6307 533e
00000030: 5cbe 12bd a700 553c 9e6b 6f3d c390 b03e
00000040: a39b 9bbd 5325 043d a29e f4bd db6e 613e
00000050: 6fef 043e 041c 29bb e43b f13d 5327 953e
00000060: 671e e4be c48e 4fbe 9e19 c8be e10c 1c3a
00000070: 5951 1fba 688f 0fb9 a9f6 9ebd 60f6 d7b9
00000080: 29f0 fcbd d5c3 9ebe 5914 273f 7933 f6be
00000090: 9b4d adbc 44be 1a3e 54f0 853b 2fb0 f63c
000000a0: a43b 50be b779 403d d75f c13d 2faf 2c3e
000000b0: e177 8d3e 8bfd c43d 871d 4a3e 5b06 ebbb
000000c0: c891 d2bd 84a4 c33d 5818 a5bd cc58 023e
000000d0: 3fab 6dbd 882a 823d 8760 e2ba e62c bebd
000000e0: 8a97 a43e fd32 613d 2569 97be b5a3 25bd
000000f0: cbbd 29be eaae a03e e81c 193e e822 c0bd
00000100: 4248 473a 6b5c a2b9 908d 86b9 526c 713d
00000110: 8bb2 10ba f0e5 943c 13ad b63e 6e9d fdbe
00000120: 3c0e 99bf 5cca 86bd b7ae 993e ef6d 483e
00000130: 8d1f 2f3e 67bd 7a3e 50d3 973e 14a3 f93d
00000140: c48e 7e3e 4b63 993d b308 703e 34c9 753d
00000150: d5e4 973d 7427 e33d 0d30 883e d402 5d3e
00000160: 5b46 5b3e ef67 2a3e 86cb 833e 34d2 0d3e
00000170: 795d b13d bb3c 3c3e 58de 113d cf96 133d
00000180: 2ac2 3c3e 1533 3e3e 0278 783c 4ff9 c13d
00000190: aed2 923c 84eb 1eb9 8d8c 4b39 6ae0 9fba
000001a0: 6b47 053e 0109 5aba 4d26 2e3e 5fef c83e
000001b0: 0f03 c1be d151 98be 2f8c c83d 99cd 253e
000001c0: 54ca 7ebd 9bf1 0abd e728 823e a652 0a3e
000001d0: 7495 a73d 3f69 103e da94 66bd bfcd c0bd
000001e0: fbfd 593d f01c f4bc f25b dd3d 032c 523d
000001f0: b269 5d3d 45c8 9fbd e3f2 b93d a920 b5bd
00000200: 9d4d e7bd 7010 933d 53ea 813d 77ee 45bc
00000210: fc92 593e a0a4 583e 70d5 633e 9061 f43d
00000220: 2354 703e 2c1c 0c3d 97cb 25ba 3e98 d3b8
00000230: f29a a9ba 3e8f 843e 6562 923a e692 553c
00000240: f0e4 ff3e a63a d4bd 8867 9a3e e5f1 963c
00000250: b8b8 9a3e 7e34 aa3d 126f 2ebc bfb9 e0bc
00000260: 37fb 4cbd f99e 923e 160c 803e d16b 463e
00000270: 444b 0e3e d114 4c3e e01c fbbd beca e03d
00000280: 7397 87bc 9f7c 023d 3e59 6f3d 5bf9 803b
00000290: 7ace 163e be9e 383e eaf9 193e 9703 c93b
000002a0: cc69 193e d18b efbd 2b8d f7bc 0d22 2cbe
000002b0: 689e 30be c484 8ebd 2c41 91be 0192 b6ba
000002c0: 0ef8 b2ba bfd0 3d39 9c5e 0dbd f81c 40ba
000002d0: 0d96 5a3d be34 3c3f c023 013f 69c0 18be
000002e0: 9ebc 583e 8c21 9cbe 57d3 03bf 1c74 d73d
000002f0: 03eb 2b3d a4a1 1bbd 260b 57bd cbbb fe3d
00000300: 0993 62be abbe 8b3e b4be a73e 0c46 923e
00000310: 2c9e 423e 25fd 043f 40b0 3c3e 4735 203e
00000320: cab6 ca3e b11d bd3e 2106 493e 56ae 9d3e
00000330: 69ec 123e 6ef0 e0bb 5609 5abe e4fa 7fbe
00000340: b209 f53c fc24 2bbf 3966 9fbe 7ba4 18bf
00000350: 1e9a 47ba fad8 e139 b342 61b9 3f37 2b3d
00000360: c416 8039 202a dcbd 6ab2 ecbe fa35 0e3e
00000370: 692b 99be d54e 553d c7ac d5bd 07f1 1b3c
00000380: a266 553d 48af 0e3d 70e7 d7bd e761 8bbd
00000390: b7e8 2c3d 3515 22bc 9428 fa3d 344a df3a
000003a0: 3d55 01be 9588 a8bd 397a edbc 7f14 443d
000003b0: 520b 90bd 2837 25be 5765 d5bc a6ba 6cbd
000003c0: c8b5 15be 2e39 06be 3002 8a3e 54cb 4a3d
000003d0: 897a 433e 10f6 8d3d 74eb 6f3e de14 ac3e
000003e0: c3e9 373e e084 f8b9 9d86 10ba afc7 c5b9
000003f0: e4ae 49bd dc79 653a f5d9 d03c 2465 9ebe

model.rnn.weight_hh_l0 f4 [160, 40]
-0.49171075 0.16512902 -0.16450922 0.73855567 -0.20664215 0.20164569 -0.4614699 -0.018774472
-0.0400612 -0.33762962 0.39076287 0.11873056 0.40691537 -0.16654679 0.31686378 0.22513394
-0.10235991 0.6417626 -0.0704352 0.4299416 0.1617595 -0.21637113 0.044696096 0.44246465
-0.3179701 -0.57026976 -0.62185043 -0.151102 -0.3804716 -0.37425187 0.16737309 -0.22563067
-0.37923875 0.5474445 -0.01361255 -0.2822515 -0.18331636 0.54939556 -0.50388056 0.17886207
0.039238073 -0.10559608 -0.21075307 0.057973854 -0.013561758 0.16867928 0.025874896 -0.057951692
0.071480446 0.1921048 -0.008097924 0.5245769 -0.051372293 0.028683467 -0.26121888 -0.30158687
-0.21479002 0.25383368 0.092928216 -0.15422136 -0.019251456 0.19195452 -0.035574734 0.009854605
-0.21532263 -0.28744587 0.071218565 -0.110364676 0.10998813 -0.11426015 -0.16956572 -0.18040271
0.11444284 -0.057086132 -0.1650287 -0.07521128 0.69702727 0.049803082 0.11617407 -0.1466186
-0.16486135 0.1692312 0.09802405 0.03168333 0.069921695 -0.01962573 0.069136776 -0.080876864
0.01978675 0.046041295 0.043831915 0.06498492 0.047315322 -0.22344345 0.074304886 -0.09781129
-0.004730753 -0.12455114 -0.13827533 0.17019084 0.31466994 -0.1848208 -0.107505485 0.055111255
0.1264604 0.022789607 0.03469473 -0.1676872 -0.16786335 -0.16752554 0.107810356 0.003116814
-0.17779873 0.0020230694 -0.036067042 -0.15958588 0.14521074 0.08771125 0.06408107 0.18135333
0.3935701 0.089184925 -0.28765365 0.015843725 0.19223726 0.555559 -0.07314871 0.20473485
0.0030972122 -0.0023729075 0.14419067 0.22156323 -0.03884108 -0.19185345 -0.04875637 -0.1765725
-0.078425676 -0.14658162 -0.25066343 -0.106981225 -0.06430453 -0.047920085 0.052975412 0.16315055
0.006245256 -0.08427436 -0.19980086 0.0069258856 -0.025776226 -0.036931552 0.10568108 -0.09995932
-0.21820508 -0.114399604 -0.06595626 -0.035414003 0.24986991 -0.06813512 -0.052546915 0.23356667
-0.15315016 0.3355357 0.22169906 -0.19511898 0.19648409 -0.17195871 0.02124272 0.12502044
0.11837792 -0.054916948 0.035374455 -0.12442411 -0.0053755697 0.007622158 0.1982939 -0.13728423
0.11946303 0.29808843 -0.19761966 0.13640623 -0.16242856 -0.06393139 0.25366652 -0.07141501
0.101079345 -0.05770668 0.0020065443 0.13228466 0.007626846 -0.033534113 -0.33700693 0.13217792
-0.006198613 -0.24727167 -0.16768776 -0.15578863 0.09071354 -0.20766123 -0.018408174 -0.048186593
0.7036203 0.67235506 -0.253762 0.18102388 -0.05533902 0.4798211 0.022934241 0.12556921
0.6634652 0.08882225 0.3167227 0.25432402 0.32924366 0.2610391 -0.8879189 0.06645715
-0.17637591 -0.609397 -0.09353434 -0.07933446 -0.6489072 -0.7188409 -1.195987 0.085628696
0.18468407 -0.10354786 -0.47590902 -0.2841391 -0.072866865 -0.19416657 0.21663535 0.04963633
-0.015261871 0.3901295 -0.21252467 -0.20965898 -0.05628966 0.5620071 -0.4576643 -0.13968332
-0.11259639 0.78583187 -0.07416523 -0.3578209 -0.026372388 -0.72475296 -0.15530398 0.11011009
0.115462124 0.06167269 -0.06301542 -0.20093189 -0.11399028 0.39195254 0.4585344 0.1349602
00000000: 83c1 fbbe 9517 293e 1b75 28be fc11 3d3f
00000010: 009a 53be 357c 4e3e c845 ecbe eccc 99bc
00000020: 3617 24bd cadd acbe 1212 c83e 0229 f33d
00000030: 3657 d03e 3e8b 2abe f83b a23e 8389 663e
00000040: 13a2 d1bd 8e4a 243f 5540 90bd 4e21 dc3e
00000050: 48a4 253e 6590 5dbe 4113 373d ba8a e23e
00000060: facc a2be 33fd 11bf 9731 1fbf 7cba 1abe
00000070: 2ccd c2be f19d bfbe da63 2b3e ba0b 67be
00000080: 952b c2be 5325 0c3f 2c07 5fbc 4583 90be
00000090: 49b7 3bbe 30a5 0c3f 51fe 00bf 9e27 373e
000000a0: 1ab8 203d c242 d8bd a7cf 57be fe75 6d3d
000000b0: 2332 5ebc 43ba 2c3e 97f7 d33c c15e 6dbd
000000c0: 5764 923d 1fb7 443e 28ad 04bc ac4a 063f
000000d0: c16b 52bd 97f9 ea3c 7bbe 85be 9869 9abe
000000e0: eaf1 5bbe 7df6 813e 2651 be3d 34ec 1dbe
000000f0: 3bb5 9dbc ba8f 443e d0b6 11bd 3675 213c
00000100: 897d 5cbe 1b2c 93be 0adb 913d e006 e2bd
00000110: 7541 e13d 3a01 eabd a3a2 2dbe 7dbb 38be
00000120: 0261 ea3d 26d3 69bd 49fd 28be 5f08 9abd
00000130: 6170 323f 51fe 4b3d acec ed3d 3023 16be
00000140: 6ad1 28be f24a 2d3e d5c0 c83d 61c6 013d
00000150: 1b33 8f3d 24c6 a0bc 9597 8d3d c5a2 a5bd
00000160: d317 a23c cc95 3c3d 1889 333d d016 853d
00000170: b6cd 413d 5cce 64be 292d 983d 4951 c8bd
00000180: 6f04 9bbb ab14 ffbd 0c98 0dbe 8246 2e3e
00000190: 6b1c a13e aa41 3dbe d62b dcbd 57bc 613d
000001a0: d67e 013e 45b1 ba3c 101c 0e3d 31b6 2bbe
000001b0: 5fe4 2bbe d18b 2bbe adcb dc3d 7643 4c3b
000001c0: df10 36be 7995 043b 09bb 13bd 7b6a 23be
000001d0: 20b2 143e f5a1 b33d f03c 833d b0b4 393e
000001e0: 0582 c93e 96a6 b63d 5747 93be b3ca 813c
000001f0: d8d9 443e 1d39 0e3f fece 95bd 03a6 513e
00000200: 99fa 4a3b c882 1bbb b8a6 133e 79e1 623e
00000210: d317 1fbd 3b75 44be c2b4 47bd 6ccf 34be
00000220: a49d a0bd 7e19 16be f556 80be f918 dbbd
00000230: 18b2 83bd da47 44bd bffc 583d f010 273e
00000240: 01a5 cc3b 0998 acbd 9998 4cbe 8af2 e23b
00000250: aa28 d3bc 8a45 17bd 526f d83d 79b7 ccbd
00000260: 2771 5fbe 574a eabd 1314 87bd 460e 11bd
00000270: e6dd 7f3e 6d8a 8bbd 6f3b 57bd 1a2c 6f3e
00000280: 65d3 1cbe 56cb ab3e 1405 633e 45cd 47be
00000290: 2033 493e f215 30be 3605 ae3c 5c05 003e
000002a0: 1f70 f23d 98f0 60bd cee4 103d 11d2 febd
000002b0: 8c25 b0bb 4cc3 f93b 8e0d 4b3e 3d94 0cbe
000002c0: 08a9 f43d 0c9f 983e cf5c 4abe 13ae 0b3e
000002d0: ac53 26be 76ee 82bd 94e0 813e 0842 92bd
000002e0: b002 cf3d d75d 6cbd 3a80 033b a175 073e
000002f0: 9fea f93b 115b 09bd 2c8c acbe a659 073e
00000300: bc1d cbbb c934 7dbe 57b6 2bbe 0e87 1fbe
00000310: 05c8 b93d 25a5 54be bdcc 96bc 4e5f 45bd
00000320: 7620 343f 761f 2c3f 18ed 81be 535e 393e
00000330: 2bab 62bd 1cab f53e 97e0 bb3c 3795 003e
00000340: dbd8 293f 71e8 b53d 7a29 a23e c236 823e
00000350: a092 a83e eba6 853e a74e 63bf b01a 883d
00000360: e39b 34be 7101 1cbf ef8e bfbd 1b7a a2bd
00000370: c81e 26bf f505 38bf 1a16 99bf 195e af3d
00000380: d21d 3d3e e710 d4bd 59aa f3be ae7a 91be
00000390: 393b 95bd 9ad3 46be a8d5 5d3e 774f 4b3d
000003a0: ed0c 7abc 0ebf c73e 11a0 59be d8b0 56be
000003b0: fd8f 66bd b3df 0f3f fa52 eabe 2509 0fbe
000003c0: f098 e6bd 472c 493f f1e3 97bd 4d34 b7be
000003d0: e80a d8bc 6989 39bf 0208 1fbe 6681 e13d
000003e0: 6877 ec3d 819c 7c3d 3b0e 81bd 17c1 4dbe
000003f0: bc73 e9bd 01ae c83e 05c5 ea3e 0233 0a3e

model.rnn.bias_ih_l0 f4 [160]
-0.08357179 0.12900156 0.08744888 0.22145866 -0.054123543 0.048952628 -0.04911221 0.25859115
0.0450215 0.15894334 0.08189853 -0.10875529 0.039252173 0.1809008 0.17614473 0.1488966
0.09444529 0.1325648 0.38650283 -0.048950523 -0.041838985 0.09789738 0.11173251 0.005727705
0.07195221 -0.07678243 0.073712565 0.06972261 0.03743113 0.16852413 0.0664541 0.09291827
0.11833382 -0.040830962 0.37696844 0.24038346 0.08812782 0.21097238 -0.0006907088 0.023198886
0.15701216 -0.1696618 -0.035596754 0.15673006 0.10429876 0.12780845 0.043131188 0.11203545
-0.01559598 -0.06235343 0.0741238 0.0033889236 0.13829885 0.026720561 -0.1118356 0.001836
-0.08770261 -0.12088991 0.11774216 0.06171087 -0.11048168 0.14129394 0.01341439 0.20099303
-0.120905004 -0.15401876 -0.1781087 -0.19099917 -0.0807235 -0.069486685 -0.083794855 -0.071611136
0.15209894 -0.058425184 0.134634 -0.11493395 0.146865 -0.17113075 0.19778015 0.117935725
0.16893712 0.04823936 -0.1119486 0.051607877 -0.0867908 -0.03046972 0.050080504 0.058680356
-0.036522172 -0.07918759 0.103659056 0.0723936 -0.0815513 0.021210827 -0.02686929 0.12302609
-0.023720706 0.069061615 -0.097002864 -0.16218902 -0.007834125 -0.09829397 -0.020000605 0.15377934
0.07056084 0.11445805 0.10668964 -0.22209315 0.016068297 -0.14641634 0.16338143 0.018239165
0.048951026 0.04641314 -0.03852884 -0.075833015 0.03706639 -0.16698122 -0.04651183 0.12637013
-0.0076411953 0.09569841 0.06724088 -0.043962877 -0.09871237 0.25263217 0.13244739 0.050749376
-0.026294857 -0.061048556 -0.09023492 0.11095825 0.07980513 0.14593583 0.27979925 -0.07099444
0.14913532 -0.037149023 -0.03369636 -0.11798721 0.040766083 0.08861336 -0.07411886 0.2260755
-0.11676219 0.07752074 -0.062722 -0.01764907 -0.015000872 -0.11532194 0.1172079 -0.023845343
0.024288658 -0.031964026 0.07011796 -0.024755906 0.040247716 0.026060235 0.044178184 0.041757002
00000000: b027 abbd fc18 043e 6618 b33d 0fc6 623e
00000010: a6b0 5dbd 8d82 483d e229 49bd 0f66 843e
00000020: 7768 383d 0bc2 223e 6bba a73d 18bb debd
00000030: e3c6 203d 0f3e 393e 495f 343e 5a78 183e
00000040: 886c c13d 11bf 073e b3e3 c53e 5880 48bd
00000050: 5b5f 2bbd 6c7e c83d 04d4 e43d 79af bb3b
00000060: ae5b 933d 1b40 9dbd 9df6 963d baca 8e3d
00000070: 6251 193d 9791 2c3e 1619 883d ef4b be3d
00000080: 0059 f23d 5e3e 27bd 0202 c13e 1527 763e
00000090: 5c7c b43d 2509 583e af10 35ba 970b be3c
000000a0: ccc7 203e d3bb 2dbe e7cd 11bd d87d 203e
000000b0: 979a d53d 38e0 023e 54aa 303d d872 e53d
000000c0: 4886 7fbc 4f66 7fbd 38ce 973d b418 5e3b
000000d0: 379e 0d3e 14e5 da3c 100a e5bd f0a5 f03a
000000e0: 6d9d b3bd 2195 f7bd cd22 f13d 8ac4 7c3d
000000f0: 3844 e2bd 5caf 103e 08c8 5b3c 1ed1 4d3e
00000100: 0b9d f7bd 18b7 1dbe 2162 36be 4995 43be
00000110: 5d52 a5bd 094f 8ebd a39c abbd dca8 92bd
00000120: d3bf 1b3e 3f4f 6fbd 7fdd 093e 7e62 ebbd
00000130: c763 163e e63c 2fbe e186 4a3e 4988 f13d
00000140: dafd 2c3e a396 453d 4f45 e5bd c862 533d
00000150: 60bf b1bd a29b f9bc 3721 4d3d d05a 703d
00000160: 4698 15bd 1a2d a2bd 334b d43d 1943 943d
00000170: 5e04 a7bd 54c2 ad3c fc1c dcbc 1af5 fb3d
00000180: ed51 c2bc 2d70 8d3d 70a9 c6bd e114 26be
00000190: b45a 00bc 594e c9bd 4fd8 a3bc 5578 1d3e
000001a0: 3482 903d fb68 ea3d 1980 da3d 636c 63be
000001b0: a9a1 833c 2aee 15be 764d 273e 4d6a 953c
000001c0: df80 483d b41b 3e3d 6bd0 1dbd 574e 9bbd
000001d0: edd2 173d 20fd 2abe 3083 3ebd 2c67 013e
000001e0: fe62 fabb 87fd c33d 96b5 893d 6b12 34bd
000001f0: b629 cabd 0159 813e 4aa0 073e 94de 4f3d
00000200: 5068 d7bc 0d0e 7abd 16cd b8bd 143e e33d
00000210: df70 a33d 3470 153e d941 8f3e 8865 91bd
00000220: eeb6 183e 9329 18bd 3205 0abd 47a3 f1bd
00000230: 56fa 263d ec7a b53d a1cb 97bd 5680 673e
00000240: 0421 efbd 32c3 9e3d 6474 80bd c894 90bc
00000250: 38c6 75bc e92d ecbd b20a f03d 4f57 c3bc
00000260: 02f9 c63c b6ec 02bd 019a 8f3d e6cc cabc
00000270: cada 243d 467c d53c 2ff4 343d 6409 2b3d

model.rnn.bias_hh_l0 f4 [160]
0.022406448 0.096248955 0.17782909 0.27898663 0.17954594 0.10219676 0.014932969 0.2976454
-0.020919722 0.22838159 -0.07352115 0.13902085 0.2011553 0.03612953 0.31036553 0.092206135
0.11982929 0.08789162 0.38042587 -0.030007362 0.24928561 -0.04288841 0.07938326 0.1819225
-0.04549009 -0.10808986 0.19170421 0.103148274 0.3114081 0.21843892 0.27617007 0.10948321
0.10192387 -0.02142931 0.17296872 0.14442013 -0.07394047 -0.043484088 -0.07890445 0.052390985
-0.09792383 0.11919044 0.17639866 0.04070362 -0.103455715 -0.063491434 -0.0600702 0.021361291
-0.048907943 -0.062054962 -0.08945901 -0.1213453 -0.080239356 0.10808336 -0.07769951 -0.09518854
0.014883814 0.06325439 -0.15978482 -0.08392675 -0.18267609 0.099601746 -0.18325126 0.15701994
-0.13873969 -0.043756012 0.106304936 0.07655775 0.15390095 0.13704382 -0.019547587 -0.12986432
-0.042796083 -0.114427306 0.0041432492 -0.07413565 0.14791271 -0.03232759 0.032741956 0.059180263
0.15599829 -0.13653441 -0.19921774 0.16067782 -0.03557466 -0.13197002 -0.17260753 0.16087332
-0.12750207 0.057429742 -0.024635615 0.04653068 -0.0515211 0.13256921 0.06123942 -0.08135089
0.07011371 -0.015166741 0.103677444 0.013137694 0.09729508 -0.026219817 0.15393326 0.03473433
-0.17810905 -0.002784724 -0.07024197 -0.21816432 -0.003265983 0.018234879 0.09966323 -0.1681355
-0.05471976 -0.119059786 -0.27496415 -0.065912835 -0.12014131 0.010152845 -0.039809942 0.13260412
-0.10520344 -0.078834146 -0.14652023 -0.09517649 0.06058719 0.14240612 -0.03849098 -0.020242814
0.009128788 -0.10888988 -0.03943383 -0.044531036 -0.05737558 0.07064405 0.057467133 -0.10501946
-0.09185691 -0.09739542 0.09495019 -0.10021829 -0.0047437726 0.11683257 0.04249427 -0.03789016
0.16486569 0.1810511 -0.11815877 -0.0071737063 0.14165214 0.019499917 0.19368345 -0.10592904
-0.06617295 -0.0844333 0.048737302 -0.13637185 -0.015308099 0.116656736 -0.06717511 0.054033063
00000000: ba8d b73c 2c1e c53d d418 363e 56d7 8e3e
00000010: e4da 373e 894c d13d 69a9 743c fa64 983e
00000020: d65f abbc dddc 693e 4292 96bd 7b5b 0e3e
00000030: a8fb 4d3e 8ffc 133d 3be8 9e3e 92d6 bc3d
00000040: 0f69 f53d 8600 b43d 2ec7 c23e 00d2 f5bc
00000050: ba44 7f3e c2ab 2fbd b193 a23d e449 3a3e
00000060: d153 3abd 375e ddbd 1c4e 443e 673f d33d
00000070: e270 9f3e 74ae 5f3e 2a66 8d3e bc38 e03d
00000080: 76bd d03d 858c afbc b61e 313e dfe2 133e
00000090: 1a6e 97bd 5f1c 32bd a898 a1bd ee97 563d
000000a0: 4a8c c8bd 1e1a f43d daa1 343e d7b8 263d
000000b0: 97e0 d3bd cc07 82bd 2c0c 76bd e0fd ae3c
000000c0: b253 48bd 582d 7ebd 4936 b7bd e283 f8bd
000000d0: 8854 a4bd cf5a dd3d ec20 9fbd 36f2 c2bd
000000e0: 3edb 733c 858b 813d a29e 23be cae1 abbd
000000f0: 710f 3bbe 00fc cb3d 38a6 3bbe d6c9 203e
00000100: c711 0ebe 8139 33bd 67b6 d93d 4fca 9c3d
00000110: 3698 1d3e 3755 0c3e 4322 a0bc 27fb 04be
00000120: f24a 2fbd dd58 eabd 18c4 873b 6fd4 97bd
00000130: 6e76 173e ef69 04bd 6e1c 063d 0167 723d
00000140: 04be 1f3e adcf 0bbe bcff 4bbe ba88 243e
00000150: bcb6 11bd 2623 07be 07c0 30be fabb 243e
00000160: e78f 02be 733b 6b3d a1d0 c9bc f496 3e3d
00000170: ca07 53bd 39c0 073e 30d6 7a3d 4c9b a6bd
00000180: c797 8f3d ec7d 78bc d754 d43d 7c3f 573c
00000190: a542 c73d f1ca d6bc aea0 1d3e 9645 0e3d
000001a0: 3862 36be eb7f 36bb 06db 8fbd 7866 5fbe
000001b0: 1a0a 56bb 5061 953c 3c1c cc3d b62b 2cbe
000001c0: d421 60bd 9ed5 f3bd 1ac8 8cbe 4ffd 86bd
000001d0: a60c f6bd 1e58 263c c00f 23bd 60c9 073e
000001e0: e774 d7bd cc73 a1bd 6609 16be e4eb c2bd
000001f0: 462a 783d e9d2 113e b8a8 1dbd 42d4 a5bc
00000200: e990 153c a801 dfbd 5e85 21bd 2d66 36bd
00000210: a802 6bbd d4ad 903d a862 6b3d 7114 d7bd
00000220: 7a1f bcbd 4077 c7bd 3f75 c23d 3f3f cdbd
00000230: a671 9bbb ea45 ef3d 790e 2e3d b632 1bbd
00000240: 8dd2 283e 7665 393e 3afd f1bd 6911 ebbb
00000250: 420d 113e 4abe 9f3c f454 463e 53f1 d8bd
00000260: af85 87bd 5eeb acbd c4a0 473d 10a5 0bbe
00000270: d2ce 7abc bae9 ee3d 1b93 89bd c651 5d3d

model.rnn.weight_ih_l1 f4 [160, 40]
0.040022187 -0.07421485 -0.34968844 -0.2588297 0.56226206 0.26945147 -0.17178227 -0.047332544
0.06713419 -0.08826385 0.15489234 0.17873256 0.058632318 0.32702872 -0.4051748 0.027950006
-0.4314333 0.4641982 -0.18143837 0.4360739 0.25747654 -0.29768506 0.12389522 0.023903184
0.195967 -0.6284369 -0.03931542 -0.050764594 0.08506536 -0.0698876 -0.0541495 -0.07018282
-0.09464731 0.09467523 -0.28026205 -0.1332457 0.16245459 0.22972348 -0.10982868 0.15663998
0.49289063 0.4685557 -0.32575464 0.006549705 0.06635548 0.25979736 -0.08430233 0.004771154
0.068158776 -0.026122265 0.03459643 -0.1349197 0.09626159 -0.03793831 -0.10021773 0.19428329
-0.034565493 -0.5822401 -0.07609179 0.2816735 0.018067896 -0.15450124 -0.2738996 -0.008317477
0.0308116 -0.25299108 -0.12681386 -0.19959585 -0.22629413 0.018441616 0.2550811 -0.13108292
-0.22567463 0.14851283 -0.016611574 -0.15343979 0.15804559 0.16107447 -0.24020027 0.27072218
-0.0007883317 0.056498315 -0.06339906 0.046306584 0.02158561 -0.19758455 0.07291793 0.08016374
0.017554644 -0.037225585 -0.08332142 -0.09706763 0.16184232 0.005711057 0.10863818 -0.022113971
-0.10974289 -0.21677312 0.09869771 -0.13945667 0.13589604 0.037291285 0.059458427 0.05766027
-0.06136649 0.077647164 -0.06955229 0.064338066 -0.055421297 -0.027471965 -0.21441138 0.17076288
-0.078475 0.026058802 -0.11284118 -0.1517742 0.16266617 -0.1302601 -0.062351234 -0.12453926
-0.12791245 -0.42981243 0.16901259 0.43439394 0.05867987 -0.036845595 0.06631073 0.015848977
-0.19054829 -0.010691588 0.17661142 0.30201098 0.14969783 -0.60906863 0.09205309 0.0056271423
-0.15646581 0.12465184 -0.044500973 0.03330567 1.2104243 -0.05736557 0.0054551167 0.13929605
-0.46554393 0.24238306 -0.036023363 -0.048507575 -0.5922222 -0.12911865 -0.15369254 0.018889956
0.008470773 0.11007649 -0.16726139 0.0051803957 -0.06525173 0.04353964 -0.02386653 0.06667025
-0.32449576 0.3177061 -0.06852253 -0.01117655 -0.082360886 0.7972487 0.023112494 0.040965077
0.497823 0.059885014 0.03662889 -0.2909426 -0.034805503 -0.20450552 -0.26826224 -0.031051904
-0.997908 -0.35880533 -0.15269053 0.35056973 0.5124049 0.042908512 0.5221751 0.19569856
0.5220579 -0.23129576 0.043476306 -0.1273841 0.16368605 0.115808055 -0.12993416 0.045457613
-0.068882495 -0.22116143 -0.11161333 0.055819895 0.46138936 0.45518842 0.07849595 0.18226923
-0.44575766 -0.13884889 -0.023096794 -0.11212337 -0.18358184 0.037988383 -0.16213983 0.12581566
-0.055116348 -0.07654702 0.15606034 0.07840274 -0.12466658 0.092019245 0.010347707 -0.048310634
0.06887195 0.090463094 -0.08788423 0.03758789 -0.047908295 0.19522585 -0.17097083 0.009477337
-0.11100258 0.0059852055 -0.12234368 0.057120282 0.04811339 0.030845035 0.15808626 0.01055918
-0.10903169 0.06623811 -0.1177146 -0.12265744 -0.15181108 -0.06506446 0.06303909 0.11666107
0.48486897 0.19998899 -0.08914794 0.049151387 0.33564928 0.34321335 -0.11702705 0.19526815
0.20843849 -0.14330132 0.6427102 -0.11400234 0.30851975 -0.14981638 -0.22273369 0.2213401
00000000: 4eee 233d f5fd 97bd 5d0a b3be 5485 84be
00000010: 68f0 0f3f 8bf5 893e b1e7 2fbe c5df 41bd
00000020: a67d 893d adc3 b4bd 199c 1e3e ab05 373e
00000030: 7128 703d 4f70 a73e 1273 cfbe 69f7 e43c
00000040: d3e4 dcbe 63ab ed3e fbca 39be 1445 df3e
00000050: f7d3 833e 2d6a 98be c7bc fd3d 9cd0 c33c
00000060: 93ab 483e 3ee1 20bf 3509 21bd 89ee 4fbd
00000070: bf36 ae3d 3b21 8fbd decb 5dbd 03bc 8fbd
00000080: 73d6 c1bd 16e5 c13d 827e 8fbe 9071 08be
00000090: 7f5a 263e a23c 6b3e dced e0bd 3b66 203e
000000a0: 295c fc3e 88e6 ef3e 50c9 a6be e89e d63b
000000b0: 62e5 873d 2904 853e b3a6 acbd 5757 9c3b
000000c0: d496 8b3d 5cfe d5bc fcb4 0d3d 6428 0abe
000000d0: cc24 c53d 3465 1bbd f43e cdbd 33f2 463e
000000e0: 8c94 0dbd b00d 15bf 03d6 9bbd 8237 903e
000000f0: 2003 943c 9335 1ebe 923c 8cbe 0746 08bc
00000100: 9c68 fc3c 0c88 81be 7edb 01be db62 4cbe
00000110: a6b9 67be df12 973c fd99 823e 9a3a 06be
00000120: 4017 67be bf13 183e ff14 88bc 521f 1dbe
00000130: b4d6 213e b5f0 243e 0ff7 75be 199c 8a3e
00000140: 0ba8 4eba c76a 673d 5ed7 81bd f9ab 3d3d
00000150: 4ed4 b03c 9b53 4abe ff55 953d e32c a43d
00000160: c2ce 8f3c db79 18bd 6ca4 aabd 65cb c6bd
00000170: feb9 253e d223 bb3b b27d de3d 5c28 b5bc
00000180: e1c0 e0bd c6f9 5dbe 0622 ca3d bbcd 0ebe
00000190: 5528 0b3e bfbe 183d ae8a 733d 2d2d 6c3d
000001a0: 6e5b 7bbd 7a05 9f3d 6e71 8ebd adc3 833d
000001b0: 7101 63bd e30c e1bc a88e 5bbe 77dc 2e3e
000001c0: 80b7 a0bd 4579 d53c 4719 e7bd b26a 1bbe
000001d0: f691 263e e762 05be 0264 7fbd 710e ffbd
000001e0: 7bfb 02be 6010 dcbe a311 2d3e e268 de3e
000001f0: 4e5a 703d 68eb 16bd eccd 873d b7d5 813c
00000200: 171f 43be c52b 2fbc a0d9 343e 2fa1 9a3e
00000210: 634a 193e eceb 1bbf 5586 bc3d e463 b83b
00000220: 9338 20be 7749 ff3d a746 36bd 876b 083d
00000230: 2fef 9a3f 29f8 6abd d6c0 b23b a0a3 0e3e
00000240: c65b eebe 4433 783e 3c8d 13bd e1af 46bd
00000250: e09b 17bf ae37 04be 9461 1dbe 1cbf 9a3c
00000260: ffc8 0a3c c86f e13d 9246 2bbe 4fc0 a93b
00000270: b3a2 85bd 9f56 323d be83 c3bc 698a 883d
00000280: 4f24 a6be 60aa a23e 8a55 8cbd d91d 37bc
00000290: d3ac a8bd 7e18 4c3f 6a56 bd3c ffca 273d
000002a0: a8e2 fe3e fd49 753d 2d08 163d 6ef6 94be
000002b0: 3790 0ebd e569 51be ab59 89be 9060 febc
000002c0: e676 7fbf 55b5 b7be e85a 1cbe e07d b33e
000002d0: f82c 033f d6c0 2f3d 44ad 053f 3465 483e
000002e0: 96a5 053f ccd8 6cbe 3614 323d fa70 02be
000002f0: 519d 273e c62c ed3d 760d 05be c331 3a3d
00000300: 4412 8dbd 2478 62be 8895 e4bd 67a3 643d
00000310: 3a3b ec3e 750e e93e 7cc2 a03d c9a4 3a3e
00000320: 593a e4be 672e 0ebe 7d35 bdbc f0a0 e5bd
00000330: e1fc 3bbe b599 1b3d fc07 26be d2d5 003e
00000340: aec1 61bd afc4 9cbd 48ce 1f3e 9e91 a03d
00000350: 3151 ffbd 9674 bc3d 6e89 293c 5fe1 45bd
00000360: bd0c 8d3d b744 b93d a6fc b3bd c2f5 193d
00000370: 7d3b 44bd 49e9 473e fa12 2fbe d546 1b3c
00000380: 5255 e3bd 8b1f c43b 538f fabd f5f6 693d
00000390: 8c12 453d baae fc3c 5de1 213e 6900 2d3c
000003a0: 024c dfbd d9a7 873d 5a14 f1bd d333 fbbd
000003b0: 5d74 1bbe 8440 85bd a31a 813d 00ec ee3d
000003c0: bf40 f83e eac9 4c3e 3293 b6bd f752 493d
000003d0: 39da ab3e a9b9 af3e e1ab efbd 60f4 473e
000003e0: e670 553e 95bd 12be a888 243f 0f7a e9bd
000003f0: 4df6 9d3e 7769 19be 4d14 64be fba6 623e

model.rnn.weight_hh_l1 f4 [160, 40]
0.05647351 -0.07508776 0.0045694653 -0.0036741965 -0.19263105 0.15805463 0.12447671 0.011217144
-0.15665163 -0.15911704 0.2438926 -0.1568924 0.18157203 -0.06154761 0.1360812 0.030724237
-0.16243228 0.16268943 -0.06299258 0.11620273 -0.05247172 -0.10452813 -0.1880652 -0.11157047
-0.01261929 0.08195746 -0.049083743 -0.035419032 -0.12371516 -0.17788972 0.013694269 -0.22465897
0.06589627 -0.27936566 -0.0882064 -0.013511059 -0.05365287 -0.14234395 -0.09475406 0.17064549
0.13342792 -0.062366102 -0.052154187 0.026572382 0.06983426 -0.1817794 -0.15301801 -0.097037226
-0.1090521 0.1233192 -0.06384618 0.019371614 0.015693529 0.090993255 -0.17325036 0.003036248
-0.016927324 -0.21935683 0.1421163 -0.00934069 0.107719526 -0.023851395 -0.05672542 0.15913324
0.10038892 0.0818881 0.02400825 -0.023142815 0.011088438 0.1741306 -0.0029767754 0.026865806
-0.22612397 -0.04263746 -0.10814818 -0.023506949 0.14194009 0.057979964 -0.10619782 -0.109375216
-0.012556569 0.04800155 -0.014620439 0.117945984 0.07953686 -0.1231483 0.14435667 -0.115751535
-0.09527057 -0.016485611 0.16612044 0.02200055 0.13067728 -0.031685155 0.041662153 -0.004972454
-0.07902208 -0.045572553 0.033747446 0.08771173 0.0737179 0.09997533 -0.083529286 0.043621156
-0.01754943 -0.15906124 -0.14913213 0.0929162 -0.028203296 -0.1329589 0.0604599 -0.034904163
-0.17195599 -0.07421147 0.10581356 -0.021574877 -0.057756662 0.13312578 -0.15151612 -0.010964107
0.076634064 -0.013203987 0.16835076 0.1338433 -0.1661433 0.06408509 -0.088641174 -0.08874022
-0.041534796 -0.025650486 0.17589043 -0.15376832 0.17223759 -0.0774456 0.008910959 -0.071985886
-0.09833696 -0.008503997 0.09188771 -0.025900673 0.047192644 -0.10572338 0.020673301 0.09255294
-0.063460216 0.007944928 0.12802714 -0.14127685 0.06768511 -0.03960252 0.115891226 0.07294393
0.34953403 -0.16737236 -0.14579034 0.072661705 -0.12779386 -0.053305034 -0.08077297 0.19603565
0.039962232 0.047420558 0.003621164 -0.04365767 -0.18865564 -0.102105595 0.061463907 0.015014592
0.07332998 -0.16429345 0.21239085 -0.020003794 0.08221257 0.047351163 -0.22988355 0.010665835
0.20010202 -0.04434319 0.07453862 -0.13345538 -0.0860153 -0.43732798 -0.18375246 0.0969949
0.0903118 0.085872 0.097398624 -0.13519432 0.14468257 -0.1788759 0.37819445 -0.10013191
-0.92354816 0.0030965337 0.062149853 0.07036758 0.1751305 -0.15676168 0.22812732 -0.104399405
0.1447915 -0.11597938 -0.037151236 0.06174222 0.23361586 -0.11130953 -0.07693296 -0.05399846
-0.07494963 0.05891153 -0.12623596 -0.13553293 0.0877833 0.046242826 -0.0012786607 -0.12411819
-0.008307851 -0.1543735 -0.10312433 -0.09239097 0.023220425 -0.038872343 -0.06490813 0.05441645
0.115630284 -0.07702917 -0.018197842 -0.11201726 0.16924 -0.0631274 0.11489904 0.15449846
0.07006733 -0.11634439 -0.017815495 0.110375784 -0.016559653 -0.16465086 -0.13640702 -0.08858364
0.14330892 -0.09361474 0.15227932 -0.06059508 0.0035263503 0.08896893 -0.061437093 0.13132691
0.039371025 -0.029205995 0.1834294 0.050300196 0.11394216 -0.11636349 -0.013799286 -0.10720619
00000000: c450 673d 9dc7 99bd 74bb 953b caca 70bb
00000010: 1341 45be 13d9 213e a5ed fe3d 1dc8 373c
00000020: 4969 20be 94ef 22be fbbe 793e 67a8 20be
00000030: 05ee 393e 5919 7cbd df58 0b3e 65b1 fb3c
00000040: a654 26be 0f98 263e 4102 81bd b2fb ed3d
00000050: 96ec 56bd d812 d6bd 2a94 40be 0f7f e4bd
00000060: 23c1 4ebc 50d9 a73d 090c 49bd 8c13 11bd
00000070: 605e fdbd b928 36be ed5d 603c 000d 66be
00000080: a0f4 863d 0409 8fbe 8fa5 b4bd 7d5d 5dbc
00000090: 1dc3 5bbd 9dc2 11be 6b0e c2bd b1bd 2e3e
000000a0: 54a1 083e 9973 7fbd a19f 55bd 53ae d93c
000000b0: 4405 8f3d 6124 3abe c1b0 1cbe 74bb c6bd
000000c0: b556 dfbd c78e fc3d c9c1 82bd 38b1 9e3c
000000d0: b78f 803c ac5a ba3d 8b68 31be cafb 463b
000000e0: 2cab 8abc 149f 60be ef86 113e b209 19bc
000000f0: 0e9c dc3d 0064 c3bc ea58 68bd d3f3 223e
00000100: b598 cd3d f3b4 a73d f3ac c43c 0096 bdbc
00000110: 48ac 353c 4b4f 323e 0116 43bb ae15 dc3c
00000120: 0b8d 67be 9ea4 2ebd cb7c ddbd a591 c0bc
00000130: be58 113e 667c 6d3d 3e7e d9bd 1d00 e0bd
00000140: 11ba 4dbc 469d 443d 918a 6fbc aa8d f13d
00000150: 39e4 a23d 2d35 fcbd 3cd2 133e 240f edbd
00000160: 371d c3bd d50c 87bc 7a1b 2a3e 7f3a b43c
00000170: 44d0 053e 4bc8 01bd efa5 2a3d f8ef a2bb
00000180: 54d6 a1bd 49aa 3abd c33a 0a3d 35a2 b33d
00000190: 69f9 963d debf cc3d 6711 abbd 19ac 323d
000001a0: d2c3 8fbc f3e0 22be 18b6 18be d94a be3d
000001b0: 990a e7bc 6126 08be cda4 773d abf7 0ebd
000001c0: 3b15 30be 2ffc 97bd c8b4 d83d ccbd b0bc
000001d0: 4092 6cbd 2052 083e 0b27 1bbe cca2 33bc
000001e0: 52f2 9c3d 8955 58bc 2464 2c3e 380e 093e
000001f0: 7821 2abe 0b3f 833d 8189 b5bd 6fbd b5bd
00000200: 6420 2abd f820 d2bc 9f1c 343e 7175 1dbe
00000210: 0d5f 303e cc9b 9ebd 45ff 113c 566d 93bd
00000220: e364 c9bd 5954 0bbc a02f bc3d a62d d4bc
00000230: 134d 413d 8085 d8bd 0e5b a93c 658c bd3d
00000240: 6ef7 81bd 712b 023c 8c19 033e e1aa 10be
00000250: 7e9e 8a3d 4136 22bd 6158 ed3d a163 953d
00000260: 20f6 b23e a963 2bbe 104a 15be a9cf 943d
00000270: 65dc 02be 6156 5abd 4d6c a5bd 92bd 483e
00000280: 70af 233d 0f3c 423d 0d51 6d3b 63d2 32bd
00000290: f22e 41be bd1c d1bd 94c1 7b3d c3ff 753c
000002a0: 072e 963d 8b3c 28be fd7c 593e ffde a3bc
000002b0: 105f a83d 4bf3 413d 9866 6bbe c1bf 2e3c
000002c0: 8be7 4c3e 34a1 35bd b4a7 983d 87a8 08be
000002d0: ca28 b0bd 74e9 dfbe 9b29 3cbe 43a5 c63d
000002e0: 65f5 b83d a9dd af3d ee78 c73d 6170 0abe
000002f0: ab27 143e 3e2b 37be b4a2 c13e f511 cdbd
00000300: a76d 6cbf 37ef 4a3b d890 7e3d e11c 903d
00000310: 6955 333e 2286 20be 359a 693e 5bcf d5bd
00000320: 3944 143e 9986 edbd e52b 18bd 69e5 7c3d
00000330: ff38 6f3e 40f6 e3bd 078f 9dbd 7d2d 5dbd
00000340: 317f 99bd 374d 713d 0044 01be 25c9 0abe
00000350: bbc7 b33d 1e69 3d3d bc98 a7ba ad31 febd
00000360: a71d 08bc 1614 1ebe d932 d3bd 7a37 bdbd
00000370: c338 be3c 9b38 1fbd 8eee 84bd c9e3 5e3d
00000380: 92cf ec3d 78c1 9dbd a413 95bc 4e69 e5bd
00000390: 404d 2d3e f048 81bd 3050 eb3d d834 1e3e
000003a0: 767f 8f3d f845 eebd cdf1 91bc b30c e23d
000003b0: 1ca8 87bc 3c9a 28be 48ae 0bbe 576b b5bd
000003c0: 93bf 123e 16b9 bfbd 1cef 1b3e 8c32 78bd
000003d0: 571a 673b 5835 b63d 76a5 7bbd 907a 063e
000003e0: 8343 213d 6941 efbc ebd4 3b3e 9407 4e3d
000003f0: 825a e93d fb4f eebd 6716 62bc eb8e dbbd

model.rnn.bias_ih_l1 f4 [160]
0.038804483 0.01291353 -0.02276864 0.03342822 -0.023758011 0.12500475 0.29797733 -0.04715524
0.19594821 0.36060336 -0.118566476 0.20011267 0.1477593 0.24274023 -0.13764854 0.32768825
0.013198597 0.26271048 -0.053711824 0.13990313 0.16090856 0.053845394 0.06364398 0.3791384
0.21989806 -0.049707517 -0.14423576 0.2801918 0.12289329 0.313631 0.046404935 0.1022844
0.40587744 0.026941208 0.34676763 0.050908048 -0.07951726 0.054426514 0.1403833 0.27469623
-0.062351253 0.030663015 0.029132497 -0.058207616 -0.15601699 0.034899686 -0.023908421 0.012429394
-0.018500077 0.21301478 0.15466666 -0.10204107 0.1983152 0.18047838 -0.078516744 0.209505
0.032141797 -0.05201961 -0.024766505 0.038356017 0.07734427 0.10360063 0.068743885 0.17351623
-0.08071472 -0.03466795 -0.122665994 -0.08888013 -0.017630912 -0.08707012 0.0790262 -0.09836434
0.18104532 0.02388881 0.105867304 0.14513418 -0.030163426 -0.07794687 0.019304484 0.13404605
-0.19832821 0.0070793172 0.15880105 0.11917158 -0.17797947 0.007816531 -0.16151139 0.04365036
0.025066178 0.02382248 -0.084069945 -0.17881635 0.2504632 -0.13404378 -0.13070114 -0.2798887
-0.039683804 -0.17655149 -0.17813787 0.24781102 -0.17819867 0.048340607 -0.11881445 0.007263908
0.31042787 -0.15044503 0.16666372 -0.25258222 -0.060476433 -0.059836753 0.16750371 -0.12855941
-0.19841966 0.0020744663 -0.18110314 0.15357004 -0.039848834 -0.045457594 0.10343813 0.08012963
-0.100596726 0.09471275 -0.10854676 0.085451536 -0.11447364 -0.03205021 -0.042342886 0.05383621
0.18464789 0.26813474 -0.1569286 0.013450455 0.13433191 -0.018357148 -0.0035341578 0.07218262
0.17327283 0.16416435 -0.043235693 -0.047881518 0.0054620784 -0.09959649 0.023511373 0.17776296
0.082650594 -0.02766166 0.0071615293 0.065943494 0.029693486 0.02471178 0.05595585 -0.036738865
0.26558495 0.097941905 0.091536015 0.3013706 -0.081485294 -0.0831048 -0.05269897 0.17326881
00000000: 73f1 1e3d 4593 533c 4d85 babc 07ec 083d
00000010: 29a0 c2bc 3f01 003e 7c90 983e da25 41bd
00000020: a6a6 483e 01a1 b83e fbd2 f2bd 56ea 4c3e
00000030: 374e 173e e590 783e bdf3 0cbe c1c6 a73e
00000040: ee3e 583c fd81 863e ee00 5cbd c442 0f3e
00000050: 37c5 243e fd8c 5c3d c657 823d 6e1e c23e
00000060: f52c 613e 1c9a 4bbd 8ab2 13be 4d75 8f3e
00000070: 7aaf fb3d 3e94 a03e 1a13 3e3d 7c7a d13d
00000080: 2bcf cf3e cfb3 dc3c 878b b13e f584 503d
00000090: f2d9 a2bd 56ee 5e3d a4c0 0f3e fca4 8c3e
000000a0: 0764 7fbd 0131 fb3c 46a7 ee3c 1c6b 6ebd
000000b0: ebc2 1fbe f9f2 0e3d 98db c3bc a8a4 4b3c
000000c0: 798d 97bc 8c20 5a3e f060 1e3e e9fa d0bd
000000d0: 2413 4b3e 53cf 383e 63cd a0bd 7b88 563e
000000e0: 1ea7 033d 8412 55bd 20e3 cabc 331b 1d3d
000000f0: ac66 9e3d 912c d43d 98c9 8c3d 3dae 313e
00000100: c24d a5bd fbff 0dbd 4f38 fbbd c906 b6bd
00000110: b46e 90bc d251 b2bd 7dd8 a13d 3e73 c9bd
00000120: f263 393e 77b2 c33c f5d0 d83d 0e9e 143e
00000130: 4a19 f7bc 9ca2 9fbd 7024 9e3c 5e43 093e
00000140: 8d16 4bbe 9ef9 e73b be9c 223e 3b10 f43d
00000150: 4040 36be e810 003c 3e63 25be b8ca 323d
00000160: 9657 cd3c 5d27 c33c dd2c acbd a21b 37be
00000170: b63c 803e c642 09be 85d6 05be 924d 8fbe
00000180: 7c8b 22bd eac9 34be c669 36be 2cc2 7d3e
00000190: b679 36be cd00 463d fe54 f3bd 1406 ee3b
000001a0: 67f0 9e3e 430e 1abe e5a9 2a3e 7552 81be
000001b0: 23b6 77bd 6217 75bd 1886 2b3e 14a5 03be
000001c0: 862e 4bbe c5f3 073b 1a73 39be 7741 1d3e
000001d0: 8838 23bd be31 3abd 5fd7 d33d 011b a43d
000001e0: a805 cebd c2f8 c13d c44d debd 3701 af3d
000001f0: 2871 eabd 1547 03bd bc6f 2dbd 5c83 5c3d
00000200: 5614 3d3e f548 893e e4b1 20be 4c5f 5c3c
00000210: 4e8e 093e bb61 96bc 549d 67bb 7bd4 933d
00000220: 6f6e 313e b31a 283e e917 31bd 691f 44bd
00000230: 3cfb b23b 3ff9 cbbd ec9a c03c 7e07 363e
00000240: b744 a93d b59a e2bc 43ab ea3b 620d 873d
00000250: c13f f33c 5c70 ca3c f631 653d 7e7b 16bd
00000260: c0fa 873e c495 c83d 3c77 bb3d 3f4d 9a3e
00000270: c3e1 a6bd d932 aabd e0da 57bd 616d 313e

model.rnn.bias_hh_l1 f4 [160]
0.08403973 0.25389647 -0.03095349 -0.07312337 -0.08876146 -0.07412759 0.20166083 0.086184464
0.38023928 0.34939325 -0.025229534 0.20712765 0.2529636 0.11635438 -0.018792342 0.24892868
-0.022755949 0.020742591 0.22531955 0.043203067 0.091888554 0.18638372 -0.109327264 0.17023668
0.14903551 0.012525148 0.14120941 0.1939896 -0.0967005 0.055044103 0.009049805 -0.027869392
0.41788062 0.10895025 0.22670017 0.030679123 0.040358916 0.02824735 -0.11729819 0.22411694
0.18723932 0.10952011 -0.106882446 -0.035985827 -0.075146385 -0.06176343 0.17986445 0.13115883
-0.0902491 0.15283369 -0.04040354 0.050916135 0.08078477 0.016554648 -0.058824632 -0.017595707
-0.15297972 -0.14534341 0.1619109 -0.12672143 -0.07794713 0.069484286 0.07533314 -0.035491247
0.057941403 -0.15625292 0.092967354 -0.081406616 -0.15171212 0.152734 -0.07767222 -0.0035951703
-0.009252449 0.12791947 0.02765655 0.16228595 0.13352853 0.1467072 0.007089109 0.19586743
-0.24040549 0.16444068 -0.08319088 0.20961013 0.016293164 -0.13334668 -0.043368783 0.111271925
0.15048724 -0.16192134 0.063307114 -0.23847422 0.09331708 -0.049263094 -0.015416323 -0.106465794
-0.045308184 0.10451609 0.10247333 0.11985149 0.07222598 -0.21791193 -0.036247812 0.21253346
0.018860841 0.1208968 -0.09994487 -0.056611486 0.045610644 -0.1180126 0.028103027 -0.062360838
0.07340553 0.07130677 -0.1259009 0.20665997 -0.010640548 -0.27331027 -0.08196537 0.17322657
-0.07560262 0.031104693 -0.015304598 0.056691527 0.17217924 -0.051128983 -0.0559423 0.037743013
-0.056097943 0.18260485 0.014760757 -0.003578664 0.12022156 -0.0034128746 0.124086104 0.12987122
0.0016610037 0.075576745 0.13766684 -0.009429052 0.17671713 0.05813347 -0.117231525 0.25300342
0.06470044 0.03515415 -0.006517122 0.19130665 0.13117667 0.11032608 0.15678844 -0.090020895
0.2959299 0.06998458 0.22456342 0.0895539 -0.11155651 0.08044823 0.09746018 0.15353532
00000000: 061d ac3d b8fe 813e 2c92 fdbc b5c1 95bd
00000010: 91c8 b5bd 35d0 97bd 2d80 4e3e 7b81 b03d
00000020: b9ae c23e ace3 b23e 2bae cebc 4519 543e
00000030: 7284 813e 354b ee3d 66f2 99bc 29e7 7e3e
00000040: af6a babc 5eec a93c 2bba 663e b3f5 303d
00000050: 1130 bc3d 60db 3e3e f9e6 dfbd 8652 2e3e
00000060: c49c 183e 4736 4d3c 3399 103e 36a5 463e
00000070: e90a c6bd ed75 613d a245 143c 5a4e e4bc
00000080: 73f4 d53e 4f21 df3d 1724 683e c952 fb3c
00000090: 644f 253d fd66 e73c 093a f0bd e97e 653e
000000a0: aabb 3f3e 144c e03d 2fe5 dabd e065 13bd
000000b0: 59e6 99bd a6fb 7cbd 632e 383e 804e 063e
000000c0: 85d4 b8bd 6f80 1c3e 2f7e 25bd 708d 503d
000000d0: 7c72 a53d 9d9d 873c 19f2 70bd df24 90bc
000000e0: b7a6 1cbe e7d4 14be f9cb 253e 43c3 01be
000000f0: bfa2 9fbd c74d 8e3d 4348 9a3d 455f 11bd
00000100: f753 6d3d c400 20be ab65 be3d 83b8 a6bd
00000110: 6c5a 1bbe 4d66 1c3e 9d12 9fbd f39c 6bbb
00000120: 9597 17bc 52fd 023e fd8f e23c 4a2e 263e
00000130: b4bb 083e 6a3a 163e c24b e83b 7991 483e
00000140: db2c 76be 2363 283e fb5f aabd 0aa4 563e
00000150: 3e79 853c 088c 08be 77a3 31bd 89e2 e33d
00000160: 5419 1a3e b5ce 25be 29a7 813d 9632 74be
00000170: 061d bf3d 19c8 49bd bf94 7cbc bd0a dabd
00000180: 1395 39bd 880c d63d 8add d13d b374 f53d
00000190: 37eb 933d 4e24 5fbe 9678 14bd 5fa2 593e
000001a0: 0d82 9a3c be98 f73d e5af ccbd 72e1 67bd
000001b0: 3ad2 3a3d 97b0 f1bd 5238 e63c 146e 7fbd
000001c0: a355 963d 4909 923d 2aec 00be ac9e 533e
000001d0: b155 2ebc 53ef 8bbe 76dd a7bd 4e62 313e
000001e0: 8cd5 9abd 45cf fe3c 23c0 7abc 6035 683d
000001f0: c14f 303e a06c 51bd c123 65bd 6b98 1a3d
00000200: f5c6 65bd c4fc 3a3e 1ad7 713c 0588 6abb
00000210: b936 f63d 89aa 5fbb db20 fe3d f6fc 043e
00000220: 09b6 d93a fbc7 9a3d 89f8 0c3e 4f7c 1abc
00000230: 56f5 343e 5d1d 6e3d 1517 f0bd aa89 813e
00000240: aa81 843d ccfd 0f3d 958d d5bb e4e5 433e
00000250: 2d53 063e a4f2 e13d 268d 203e e05c b8bd
00000260: 2084 973e 1354 8f3d f4f3 653e 0968 b73d
00000270: bd77 e4bd 0bc2 a43d 3499 c73d 5d38 1d3e
